Logging output to logs/signs_tiny_train.txt
layer     filters    size              input                output
    0 conv     16  3 x 3 / 1   416 x 416 x   3   ->   416 x 416 x  16
    1 max          2 x 2 / 2   416 x 416 x  16   ->   208 x 208 x  16
    2 conv     32  3 x 3 / 1   208 x 208 x  16   ->   208 x 208 x  32
    3 max          2 x 2 / 2   208 x 208 x  32   ->   104 x 104 x  32
    4 conv     64  3 x 3 / 1   104 x 104 x  32   ->   104 x 104 x  64
    5 max          2 x 2 / 2   104 x 104 x  64   ->    52 x  52 x  64
    6 conv    128  3 x 3 / 1    52 x  52 x  64   ->    52 x  52 x 128
    7 max          2 x 2 / 2    52 x  52 x 128   ->    26 x  26 x 128
    8 conv    256  3 x 3 / 1    26 x  26 x 128   ->    26 x  26 x 256
    9 max          2 x 2 / 2    26 x  26 x 256   ->    13 x  13 x 256
   10 conv    512  3 x 3 / 1    13 x  13 x 256   ->    13 x  13 x 512
   11 max          2 x 2 / 1    13 x  13 x 512   ->    13 x  13 x 512
   12 conv   1024  3 x 3 / 1    13 x  13 x 512   ->    13 x  13 x1024
   13 conv   1024  3 x 3 / 1    13 x  13 x1024   ->    13 x  13 x1024
   14 conv     35  1 x 1 / 1    13 x  13 x1024   ->    13 x  13 x  35
   15 detection
Loading weights from weights/tiny-yolo-12.weights...tiny-yolo-signs
Done!
Learning Rate: 0.001, Momentum: 0.9, Decay: 0.0005
max_batches=120000 current=0
Resizing
608
Loaded: 13.629383 seconds
Region Avg IOU: 0.219304, Class: 0.450255, Obj: 0.534983, No Obj: 0.406419, Avg Recall: 0.000000,  count: 4
Region Avg IOU: 0.224983, Class: 0.906046, Obj: 0.596888, No Obj: 0.405451, Avg Recall: 0.000000,  count: 3
…
