…
      sampler {
        min_scale: 0.3
        max_scale: 1
        min_aspect_ratio: 0.5
        max_aspect_ratio: 2
      }
      sample_constraint {
        min_jaccard_overlap: 0.9
      }
      max_sample: 1
      max_trials: 50
    }
    batch_sampler {
      sampler {
        min_scale: 0.3
        max_scale: 1
        min_aspect_ratio: 0.5
        max_aspect_ratio: 2
      }
      sample_constraint {
        max_jaccard_overlap: 1
      }
      max_sample: 1
      max_trials: 50
    }
    label_map_file: "data/TOTEBALL/labelmap_toteball.prototxt"
  }
}
layer {
  name: "conv1_1"
  type: "Convolution"
  bottom: "data"
  top: "conv1_1"
  param {
    lr_mult: 1
    decay_mult: 1
  }
  param {
    lr_mult: 2
    decay_mult: 0
  }
  convolution_param {
    num_output: 64
    pad: 1
    kernel_size: 3
    weight_filler {
      type: "xavier"
    }
    bias_filler {
      type: "constant"
      value: 0
    }
  }
}
layer {
  name: "relu1_1"
  type: "ReLU"
  bottom: "conv1_1"
  top: "conv1_1"
}
layer {
  name: "conv1_2"
  type: "Convolution"
  bottom: "conv1_1"
  top: "conv1_2"
  param {
    lr_mult: 1
    decay_mult: 1
  }
  param {
    lr_mult: 2
    decay_mult: 0
  }
  convolution_param {
    num_output: 64
    pad: 1
    kernel_size: 3
    weight_filler {
      type: "xavier"
    }
    bias_filler {
      type: "constant"
      value: 0
    }
  }
}
layer {
  name: "relu1_2"
  type: "ReLU"
  bottom: "conv1_2"
  top: "conv1_2"
}
layer {
  name: "pool1"
  type: "Pooling"
  bottom: "conv1_2"
  top: "pool1"
  pooling_param {
    pool: MAX
    kernel_size: 2
    stride: 2
  }
}
layer {
  name: "conv2_1"
  type: "Convolution"
  bottom: "pool1"
  top: "conv2_1"
  param {
    lr_mult: 1
    decay_mult: 1
  }
  param {
    lr_mult: 2
    decay_mult: 0
  }
  convolution_param {
    num_output: 128
    pad: 1
    kernel_size: 3
    weight_filler {
      type: "xavier"
    }
    bias_filler {
      type: "constant"
      value: 0
    }
  }
}
layer {
  name: "relu2_1"
  type: "ReLU"
  bottom: "conv2_1"
  top: "conv2_1"
}
layer {
  name: "conv2_2"
  type: "Convolution"
  bottom: "conv2_1"
  top: "conv2_2"
  param {
    lr_mult: 1
    decay_mult: 1
  }
  param {
    lr_mult: 2
    decay_mult: 0
  }
  convolution_param {
    num_output: 128
    pad: 1
    kernel_size: 3
    weight_filler {
      type: "xavier"
    }
    bias_filler {
      type: "constant"
      value: 0
    }
  }
}
layer {
  name: "relu2_2"
  type: "ReLU"
  bottom: "conv2_2"
  top: "conv2_2"
}
layer {
  name: "pool2"
  type: "Pooling"
  bottom: "conv2_2"
  top: "pool2"
  pooling_param {
    pool: MAX
    kernel_size: 2
    stride: 2
  }
}
layer {
  name: "conv3_1"
  type: "Convolution"
  bottom: "pool2"
  top: "conv3_1"
  param {
    lr_mult: 1
    decay_mult: 1
  }
  param {
    lr_mult: 2
    decay_mult: 0
  }
  convolution_param {
    num_output: 256
    pad: 1
    kernel_size: 3
    weight_filler {
      type: "xavier"
    }
    bias_filler {
      type: "constant"
      value: 0
    }
  }
}
layer {
  name: "relu3_1"
  type: "ReLU"
  bottom: "conv3_1"
  top: "conv3_1"
}
layer {
  name: "conv3_2"
  type: "Convolution"
  bottom: "conv3_1"
  top: "conv3_2"
  param {
    lr_mult: 1
    decay_mult: 1
  }
  param {
    lr_mult: 2
    decay_mult: 0
  }
  convolution_param {
    num_output: 256
    pad: 1
    kernel_size: 3
    weight_filler {
      type: "xavier"
    }
    bias_filler {
      type: "constant"
      value: 0
    }
  }
}
layer {
  name: "relu3_2"
  type: "ReLU"
  bottom: "conv3_2"
  top: "conv3_2"
}
layer {
  name: "conv3_3"
  type: "Convolution"
  bottom: "conv3_2"
  top: "conv3_3"
  param {
    lr_mult: 1
    decay_mult: 1
  }
  param {
    lr_mult: 2
    decay_mult: 0
  }
  convolution_param {
    num_output: 256
    pad: 1
    kernel_size: 3
    weight_filler {
      type: "xavier"
    }
    bias_filler {
      type: "constant"
      value: 0
    }
  }
}
layer {
  name: "relu3_3"
  type: "ReLU"
  bottom: "conv3_3"
  top: "conv3_3"
}
layer {
  name: "pool3"
  type: "Pooling"
  bottom: "conv3_3"
  top: "pool3"
  pooling_param {
    pool: MAX
    kernel_size: 2
    stride: 2
  }
}
layer {
  name: "conv4_1"
  type: "Convolution"
  bottom: "pool3"
  top: "conv4_1"
  param {
    lr_mult: 1
    decay_mult: 1
  }
  param {
    lr_mult: 2
    decay_mult: 0
  }
  convolution_param {
    num_output: 512
    pad: 1
    kernel_size: 3
    weight_filler {
      type: "xavier"
    }
    bias_filler {
      type: "constant"
      value: 0
    }
  }
}
layer {
  name: "relu4_1"
  type: "ReLU"
  bottom: "conv4_1"
  top: "conv4_1"
}
layer {
  name: "conv4_2"
  type: "Convolution"
  bottom: "conv4_1"
  top: "conv4_2"
  param {
    lr_mult: 1
    decay_mult: 1
  }
  param {
    lr_mult: 2
    decay_mult: 0
  }
  convolution_param {
    num_output: 512
    pad: 1
    kernel_size: 3
    weight_filler {
      type: "xavier"
    }
    bias_filler {
      type: "constant"
      value: 0
    }
  }
}
layer {
  name: "relu4_2"
  type: "ReLU"
  bottom: "conv4_2"
  top: "conv4_2"
}
layer {
  name: "conv4_3"
  type: "Convolution"
  bottom: "conv4_2"
  top: "conv4_3"
  param {
    lr_mult: 1
    decay_mult: 1
  }
  param {
    lr_mult: 2
    decay_mult: 0
  }
  convolution_param {
    num_output: 512
    pad: 1
    kernel_size: 3
    weight_filler {
      type: "xavier"
    }
    bias_filler {
      type: "constant"
      value: 0
    }
  }
}
layer {
  name: "relu4_3"
  type: "ReLU"
  bottom: "conv4_3"
  top: "conv4_3"
}
layer {
  name: "pool4"
  type: "Pooling"
  bottom: "conv4_3"
  top: "pool4"
  pooling_param {
    pool: MAX
    kernel_size: 2
    stride: 2
  }
}
layer {
  name: "conv5_1"
  type: "Convolution"
  bottom: "pool4"
  top: "conv5_1"
  param {
    lr_mult: 1
    decay_mult: 1
  }
  param {
    lr_mult: 2
    decay_mult: 0
  }
  convolution_param {
    num_output: 512
    pad: 1
    kernel_size: 3
    weight_filler {
      type: "xavier"
    }
    bias_filler {
      type: "constant"
      value: 0
    }
    dilation: 1
  }
}
layer {
  name: "relu5_1"
  type: "ReLU"
  bottom: "conv5_1"
  top: "conv5_1"
}
layer {
  name: "conv5_2"
  type: "Convolution"
  bottom: "conv5_1"
  top: "conv5_2"
  param {
    lr_mult: 1
    decay_mult: 1
  }
  param {
    lr_mult: 2
    decay_mult: 0
  }
  convolution_param {
    num_output: 512
    pad: 1
    kernel_size: 3
    weight_filler {
      type: "xavier"
    }
    bias_filler {
      type: "constant"
      value: 0
    }
    dilation: 1
  }
}
layer {
  name: "relu5_2"
  type: "ReLU"
  bottom: "conv5_2"
  top: "conv5_2"
}
layer {
  name: "conv5_3"
  type: "Convolution"
  bottom: "conv5_2"
  top: "conv5_3"
  param {
    lr_mult: 1
    decay_mult: 1
  }
  param {
    lr_mult: 2
    decay_mult: 0
  }
  convolution_param {
    num_output: 512
    pad: 1
    kernel_size: 3
    weight_filler {
      type: "xavier"
    }
    bias_filler {
      type: "constant"
      value: 0
    }
    dilation: 1
  }
}
layer {
  name: "relu5_3"
  type: "ReLU"
  bottom: "conv5_3"
  top: "conv5_3"
}
layer {
  name: "pool5"
  type: "Pooling"
  bottom: "conv5_3"
  top: "pool5"
  pooling_param {
    pool: MAX
    kernel_size: 3
    stride: 1
    pad: 1
  }
}
layer {
  name: "fc6"
  type: "Convolution"
  bottom: "pool5"
  top: "fc6"
  param {
    lr_mult: 1
    decay_mult: 1
  }
  param {
    lr_mult: 2
    decay_mult: 0
  }
  convolution_param {
    num_output: 1024
    pad: 6
    kernel_size: 3
    weight_filler {
      type: "xavier"
    }
    bias_filler {
      type: "constant"
      value: 0
    }
    dilation: 6
  }
}
layer {
  name: "relu6"
  type: "ReLU"
  bottom: "fc6"
  top: "fc6"
}
layer {
  name: "fc7"
  type: "Convolution"
  bottom: "fc6"
  top: "fc7"
  param {
    lr_mult: 1
    decay_mult: 1
  }
  param {
    lr_mult: 2
    decay_mult: 0
  }
  convolution_param {
    num_output: 1024
    kernel_size: 1
    weight_filler {
      type: "xavier"
    }
    bias_filler {
      type: "constant"
      value: 0
    }
  }
}
layer {
  name: "relu7"
  type: "ReLU"
  bottom: "fc7"
  top: "fc7"
}
layer {
  name: "conv6_1"
  type: "Convolution"
  bottom: "fc7"
  top: "conv6_1"
  param {
    lr_mult: 1
    decay_mult: 1
  }
  param {
    lr_mult: 2
    decay_mult: 0
  }
  convolution_param {
    num_output: 256
    pad: 0
    kernel_size: 1
    stride: 1
    weight_filler {
      type: "xavier"
    }
    bias_filler {
      type: "constant"
      value: 0
    }
  }
}
layer {
  name: "conv6_1_relu"
  type: "ReLU"
  bottom: "conv6_1"
  top: "conv6_1"
}
layer {
  name: "conv6_2"
  type: "Convolution"
  bottom: "conv6_1"
  top: "conv6_2"
  param {
    lr_mult: 1
    decay_mult: 1
  }
  param {
    lr_mult: 2
    decay_mult: 0
  }
  convolution_param {
    num_output: 512
    pad: 1
    kernel_size: 3
    stride: 2
    weight_filler {
      type: "xavier"
    }
    bias_filler {
      type: "constant"
      value: 0
    }
  }
}
layer {
  name: "conv6_2_relu"
  type: "ReLU"
  bottom: "conv6_2"
  top: "conv6_2"
}
layer {
  name: "conv7_1"
  type: "Convolution"
  bottom: "conv6_2"
  top: "conv7_1"
  param {
    lr_mult: 1
    decay_mult: 1
  }
  param {
    lr_mult: 2
    decay_mult: 0
  }
  convolution_param {
    num_output: 128
    pad: 0
    kernel_size: 1
    stride: 1
    weight_filler {
      type: "xavier"
    }
    bias_filler {
      type: "constant"
      value: 0
    }
  }
}
layer {
  name: "conv7_1_relu"
  type: "ReLU"
  bottom: "conv7_1"
  top: "conv7_1"
}
layer {
  name: "conv7_2"
  type: "Convolution"
  bottom: "conv7_1"
  top: "conv7_2"
  param {
    lr_mult: 1
    decay_mult: 1
  }
  param {
    lr_mult: 2
    decay_mult: 0
  }
  convolution_param {
    num_output: 256
    pad: 1
    kernel_size: 3
    stride: 2
    weight_filler {
      type: "xavier"
    }
    bias_filler {
      type: "constant"
      value: 0
    }
  }
}
layer {
  name: "conv7_2_relu"
  type: "ReLU"
  bottom: "conv7_2"
  top: "conv7_2"
}
layer {
  name: "conv8_1"
  type: "Convolution"
  bottom: "conv7_2"
  top: "conv8_1"
  param {
    lr_mult: 1
    decay_mult: 1
  }
  param {
    lr_mult: 2
    decay_mult: 0
  }
  convolution_param {
    num_output: 128
    pad: 0
    kernel_size: 1
    stride: 1
    weight_filler {
      type: "xavier"
    }
    bias_filler {
      type: "constant"
      value: 0
    }
  }
}
layer {
  name: "conv8_1_relu"
  type: "ReLU"
  bottom: "conv8_1"
  top: "conv8_1"
}
layer {
  name: "conv8_2"
  type: "Convolution"
  bottom: "conv8_1"
  top: "conv8_2"
  param {
    lr_mult: 1
    decay_mult: 1
  }
  param {
    lr_mult: 2
    decay_mult: 0
  }
  convolution_param {
    num_output: 256
    pad: 0
    kernel_size: 3
    stride: 1
    weight_filler {
      type: "xavier"
    }
    bias_filler {
      type: "constant"
      value: 0
    }
  }
}
layer {
  name: "conv8_2_relu"
  type: "ReLU"
  bottom: "conv8_2"
  top: "conv8_2"
}
layer {
  name: "conv9_1"
  type: "Convolution"
  bottom: "conv8_2"
  top: "conv9_1"
  param {
    lr_mult: 1
    decay_mult: 1
  }
  param {
    lr_mult: 2
    decay_mult: 0
  }
  convolution_param {
    num_output: 128
    pad: 0
    kernel_size: 1
    stride: 1
    weight_filler {
      type: "xavier"
    }
    bias_filler {
      type: "constant"
      value: 0
    }
  }
}
layer {
  name: "conv9_1_relu"
  type: "ReLU"
  bottom: "conv9_1"
  top: "conv9_1"
}
layer {
  name: "conv9_2"
  type: "Convolution"
  bottom: "conv9_1"
  top: "conv9_2"
  param {
    lr_mult: 1
    decay_mult: 1
  }
  param {
    lr_mult: 2
    decay_mult: 0
  }
  convolution_param {
    num_output: 256
    pad: 0
    kernel_size: 3
    stride: 1
    weight_filler {
      type: "xavier"
    }
    bias_filler {
      type: "constant"
      value: 0
    }
  }
}
layer {
  name: "conv9_2_relu"
  type: "ReLU"
  bottom: "conv9_2"
  top: "conv9_2"
}
layer {
  name: "conv4_3_norm"
  type: "Normalize"
  bottom: "conv4_3"
  top: "conv4_3_norm"
  norm_param {
    across_spatial: false
    scale_filler {
      type: "constant"
      value: 20
    }
    channel_shared: false
  }
}
layer {
  name: "conv4_3_norm_mbox_loc"
  type: "Convolution"
  bottom: "conv4_3_norm"
  top: "conv4_3_norm_mbox_loc"
  param {
    lr_mult: 1
    decay_mult: 1
  }
  param {
    lr_mult: 2
    decay_mult: 0
  }
  convolution_param {
    num_output: 16
    pad: 1
    kernel_size: 3
    stride: 1
    weight_filler {
      type: "xavier"
    }
    bias_filler {
      type: "constant"
      value: 0
    }
  }
}
layer {
  name: "conv4_3_norm_mbox_loc_perm"
  type: "Permute"
  bottom: "conv4_3_norm_mbox_loc"
  top: "conv4_3_norm_mbox_loc_perm"
  permute_param {
    order: 0
    order: 2
    order: 3
    order: 1
  }
}
layer {
  name: "conv4_3_norm_mbox_loc_flat"
  type: "Flatten"
  bottom: "conv4_3_norm_mbox_loc_perm"
  top: "conv4_3_norm_mbox_loc_flat"
  flatten_param {
    axis: 1
  }
}
layer {
  name: "conv4_3_norm_mbox_conf"
  type: "Convolution"
  bottom: "conv4_3_norm"
  top: "conv4_3_norm_mbox_conf"
  param {
    lr_mult: 1
    decay_mult: 1
  }
  param {
    lr_mult: 2
    decay_mult: 0
  }
  convolution_param {
    num_output: 12
    pad: 1
    kernel_size: 3
    stride: 1
    weight_filler {
      type: "xavier"
    }
    bias_filler {
      type: "constant"
      value: 0
    }
  }
}
layer {
  name: "conv4_3_norm_mbox_conf_perm"
  type: "Permute"
  bottom: "conv4_3_norm_mbox_conf"
  top: "conv4_3_norm_mbox_conf_perm"
  permute_param {
    order: 0
    order: 2
    order: 3
    order: 1
  }
}
layer {
  name: "conv4_3_norm_mbox_conf_flat"
  type: "Flatten"
  bottom: "conv4_3_norm_mbox_conf_perm"
  top: "conv4_3_norm_mbox_conf_flat"
  flatten_param {
    axis: 1
  }
}
layer {
  name: "conv4_3_norm_mbox_priorbox"
  type: "PriorBox"
  bottom: "conv4_3_norm"
  bottom: "data"
  top: "conv4_3_norm_mbox_priorbox"
  prior_box_param {
    min_size: 30
    max_size: 60
    aspect_ratio: 2
    flip: true
    clip: false
    variance: 0.1
    variance: 0.1
    variance: 0.2
    variance: 0.2
    step: 8
    offset: 0.5
  }
}
layer {
  name: "fc7_mbox_loc"
  type: "Convolution"
  bottom: "fc7"
  top: "fc7_mbox_loc"
  param {
    lr_mult: 1
    decay_mult: 1
  }
  param {
    lr_mult: 2
    decay_mult: 0
  }
  convolution_param {
    num_output: 24
    pad: 1
    kernel_size: 3
    stride: 1
    weight_filler {
      type: "xavier"
    }
    bias_filler {
      type: "constant"
      value: 0
    }
  }
}
layer {
  name: "fc7_mbox_loc_perm"
  type: "Permute"
  bottom: "fc7_mbox_loc"
  top: "fc7_mbox_loc_perm"
  permute_param {
    order: 0
    order: 2
    order: 3
    order: 1
  }
}
layer {
  name: "fc7_mbox_loc_flat"
  type: "Flatten"
  bottom: "fc7_mbox_loc_perm"
  top: "fc7_mbox_loc_flat"
  flatten_param {
    axis: 1
  }
}
layer {
  name: "fc7_mbox_conf"
  type: "Convolution"
  bottom: "fc7"
  top: "fc7_mbox_conf"
  param {
    lr_mult: 1
    decay_mult: 1
  }
  param {
    lr_mult: 2
    decay_mult: 0
  }
  convolution_param {
    num_output: 18
    pad: 1
    kernel_size: 3
    stride: 1
    weight_filler {
      type: "xavier"
    }
    bias_filler {
      type: "constant"
      value: 0
    }
  }
}
layer {
  name: "fc7_mbox_conf_perm"
  type: "Permute"
  bottom: "fc7_mbox_conf"
  top: "fc7_mbox_conf_perm"
  permute_param {
    order: 0
    order: 2
    order: 3
    order: 1
  }
}
layer {
  name: "fc7_mbox_conf_flat"
  type: "Flatten"
  bottom: "fc7_mbox_conf_perm"
  top: "fc7_mbox_conf_flat"
  flatten_param {
    axis: 1
  }
}
layer {
  name: "fc7_mbox_priorbox"
  type: "PriorBox"
  bottom: "fc7"
  bottom: "data"
  top: "fc7_mbox_priorbox"
  prior_box_param {
    min_size: 60
    max_size: 111
    aspect_ratio: 2
    aspect_ratio: 3
    flip: true
    clip: false
    variance: 0.1
    variance: 0.1
    variance: 0.2
    variance: 0.2
    step: 16
    offset: 0.5
  }
}
layer {
  name: "conv6_2_mbox_loc"
  type: "Convolution"
  bottom: "conv6_2"
  top: "conv6_2_mbox_loc"
  param {
    lr_mult: 1
    decay_mult: 1
  }
  param {
    lr_mult: 2
    decay_mult: 0
  }
  convolution_param {
    num_output: 24
    pad: 1
    kernel_size: 3
    stride: 1
    weight_filler {
      type: "xavier"
    }
    bias_filler {
      type: "constant"
      value: 0
    }
  }
}
layer {
  name: "conv6_2_mbox_loc_perm"
  type: "Permute"
  bottom: "conv6_2_mbox_loc"
  top: "conv6_2_mbox_loc_perm"
  permute_param {
    order: 0
    order: 2
    order: 3
    order: 1
  }
}
layer {
  name: "conv6_2_mbox_loc_flat"
  type: "Flatten"
  bottom: "conv6_2_mbox_loc_perm"
  top: "conv6_2_mbox_loc_flat"
  flatten_param {
    axis: 1
  }
}
layer {
  name: "conv6_2_mbox_conf"
  type: "Convolution"
  bottom: "conv6_2"
  top: "conv6_2_mbox_conf"
  param {
    lr_mult: 1
    decay_mult: 1
  }
  param {
    lr_mult: 2
    decay_mult: 0
  }
  convolution_param {
    num_output: 18
    pad: 1
    kernel_size: 3
    stride: 1
    weight_filler {
      type: "xavier"
    }
    bias_filler {
      type: "constant"
      value: 0
    }
  }
}
layer {
  name: "conv6_2_mbox_conf_perm"
  type: "Permute"
  bottom: "conv6_2_mbox_conf"
  top: "conv6_2_mbox_conf_perm"
  permute_param {
    order: 0
    order: 2
    order: 3
    order: 1
  }
}
layer {
  name: "conv6_2_mbox_conf_flat"
  type: "Flatten"
  bottom: "conv6_2_mbox_conf_perm"
  top: "conv6_2_mbox_conf_flat"
  flatten_param {
    axis: 1
  }
}
layer {
  name: "conv6_2_mbox_priorbox"
  type: "PriorBox"
  bottom: "conv6_2"
  bottom: "data"
  top: "conv6_2_mbox_priorbox"
  prior_box_param {
    min_size: 111
    max_size: 162
    aspect_ratio: 2
    aspect_ratio: 3
    flip: true
    clip: false
    variance: 0.1
    variance: 0.1
    variance: 0.2
    variance: 0.2
    step: 32
    offset: 0.5
  }
}
layer {
  name: "conv7_2_mbox_loc"
  type: "Convolution"
  bottom: "conv7_2"
  top: "conv7_2_mbox_loc"
  param {
    lr_mult: 1
    decay_mult: 1
  }
  param {
    lr_mult: 2
    decay_mult: 0
  }
  convolution_param {
    num_output: 24
    pad: 1
    kernel_size: 3
    stride: 1
    weight_filler {
      type: "xavier"
    }
    bias_filler {
      type: "constant"
      value: 0
    }
  }
}
layer {
  name: "conv7_2_mbox_loc_perm"
  type: "Permute"
  bottom: "conv7_2_mbox_loc"
  top: "conv7_2_mbox_loc_perm"
  permute_param {
    order: 0
    order: 2
    order: 3
    order: 1
  }
}
layer {
  name: "conv7_2_mbox_loc_flat"
  type: "Flatten"
  bottom: "conv7_2_mbox_loc_perm"
  top: "conv7_2_mbox_loc_flat"
  flatten_param {
    axis: 1
  }
}
layer {
  name: "conv7_2_mbox_conf"
  type: "Convolution"
  bottom: "conv7_2"
  top: "conv7_2_mbox_conf"
  param {
    lr_mult: 1
    decay_mult: 1
  }
  param {
    lr_mult: 2
    decay_mult: 0
  }
  convolution_param {
    num_output: 18
    pad: 1
    kernel_size: 3
    stride: 1
    weight_filler {
      type: "xavier"
    }
    bias_filler {
      type: "constant"
      value: 0
    }
  }
}
layer {
  name: "conv7_2_mbox_conf_perm"
  type: "Permute"
  bottom: "conv7_2_mbox_conf"
  top: "conv7_2_mbox_conf_perm"
  permute_param {
    order: 0
    order: 2
    order: 3
    order: 1
  }
}
layer {
  name: "conv7_2_mbox_conf_flat"
  type: "Flatten"
  bottom: "conv7_2_mbox_conf_perm"
  top: "conv7_2_mbox_conf_flat"
  flatten_param {
    axis: 1
  }
}
layer {
  name: "conv7_2_mbox_priorbox"
  type: "PriorBox"
  bottom: "conv7_2"
  bottom: "data"
  top: "conv7_2_mbox_priorbox"
  prior_box_param {
    min_size: 162
    max_size: 213
    aspect_ratio: 2
    aspect_ratio: 3
    flip: true
    clip: false
    variance: 0.1
    variance: 0.1
    variance: 0.2
    variance: 0.2
    step: 64
    offset: 0.5
  }
}
layer {
  name: "conv8_2_mbox_loc"
  type: "Convolution"
  bottom: "conv8_2"
  top: "conv8_2_mbox_loc"
  param {
    lr_mult: 1
    decay_mult: 1
  }
  param {
    lr_mult: 2
    decay_mult: 0
  }
  convolution_param {
    num_output: 16
    pad: 1
    kernel_size: 3
    stride: 1
    weight_filler {
      type: "xavier"
    }
    bias_filler {
      type: "constant"
      value: 0
    }
  }
}
layer {
  name: "conv8_2_mbox_loc_perm"
  type: "Permute"
  bottom: "conv8_2_mbox_loc"
  top: "conv8_2_mbox_loc_perm"
  permute_param {
    order: 0
    order: 2
    order: 3
    order: 1
  }
}
layer {
  name: "conv8_2_mbox_loc_flat"
  type: "Flatten"
  bottom: "conv8_2_mbox_loc_perm"
  top: "conv8_2_mbox_loc_flat"
  flatten_param {
    axis: 1
  }
}
layer {
  name: "conv8_2_mbox_conf"
  type: "Convolution"
  bottom: "conv8_2"
  top: "conv8_2_mbox_conf"
  param {
    lr_mult: 1
    decay_mult: 1
  }
  param {
    lr_mult: 2
    decay_mult: 0
  }
  convolution_param {
    num_output: 12
    pad: 1
    kernel_size: 3
    stride: 1
    weight_filler {
      type: "xavier"
    }
    bias_filler {
      type: "constant"
      value: 0
    }
  }
}
layer {
  name: "conv8_2_mbox_conf_perm"
  type: "Permute"
  bottom: "conv8_2_mbox_conf"
  top: "conv8_2_mbox_conf_perm"
  permute_param {
    order: 0
    order: 2
    order: 3
    order: 1
  }
}
layer {
  name: "conv8_2_mbox_conf_flat"
  type: "Flatten"
  bottom: "conv8_2_mbox_conf_perm"
  top: "conv8_2_mbox_conf_flat"
  flatten_param {
    axis: 1
  }
}
layer {
  name: "conv8_2_mbox_priorbox"
  type: "PriorBox"
  bottom: "conv8_2"
  bottom: "data"
  top: "conv8_2_mbox_priorbox"
  prior_box_param {
    min_size: 213
    max_size: 264
    aspect_ratio: 2
    flip: true
    clip: false
    variance: 0.1
    variance: 0.1
    variance: 0.2
    variance: 0.2
    step: 100
    offset: 0.5
  }
}
layer {
  name: "conv9_2_mbox_loc"
  type: "Convolution"
  bottom: "conv9_2"
  top: "conv9_2_mbox_loc"
  param {
    lr_mult: 1
    decay_mult: 1
  }
  param {
    lr_mult: 2
    decay_mult: 0
  }
  convolution_param {
    num_output: 16
    pad: 1
    kernel_size: 3
    stride: 1
    weight_filler {
      type: "xavier"
    }
    bias_filler {
      type: "constant"
      value: 0
    }
  }
}
layer {
  name: "conv9_2_mbox_loc_perm"
  type: "Permute"
  bottom: "conv9_2_mbox_loc"
  top: "conv9_2_mbox_loc_perm"
  permute_param {
    order: 0
    order: 2
    order: 3
    order: 1
  }
}
layer {
  name: "conv9_2_mbox_loc_flat"
  type: "Flatten"
  bottom: "conv9_2_mbox_loc_perm"
  top: "conv9_2_mbox_loc_flat"
  flatten_param {
    axis: 1
  }
}
layer {
  name: "conv9_2_mbox_conf"
  type: "Convolution"
  bottom: "conv9_2"
  top: "conv9_2_mbox_conf"
  param {
    lr_mult: 1
    decay_mult: 1
  }
  param {
    lr_mult: 2
    decay_mult: 0
  }
  convolution_param {
    num_output: 12
    pad: 1
    kernel_size: 3
    stride: 1
    weight_filler {
      type: "xavier"
    }
    bias_filler {
      type: "constant"
      value: 0
    }
  }
}
layer {
  name: "conv9_2_mbox_conf_perm"
  type: "Permute"
  bottom: "conv9_2_mbox_conf"
  top: "conv9_2_mbox_conf_perm"
  permute_param {
    order: 0
    order: 2
    order: 3
    order: 1
  }
}
layer {
  name: "conv9_2_mbox_conf_flat"
  type: "Flatten"
  bottom: "conv9_2_mbox_conf_perm"
  top: "conv9_2_mbox_conf_flat"
  flatten_param {
    axis: 1
  }
}
layer {
  name: "conv9_2_mbox_priorbox"
  type: "PriorBox"
  bottom: "conv9_2"
  bottom: "data"
  top: "conv9_2_mbox_priorbox"
  prior_box_param {
    min_size: 264
    max_size: 315
    aspect_ratio: 2
    flip: true
    clip: false
    variance: 0.1
    variance: 0.1
    variance: 0.2
    variance: 0.2
    step: 300
    offset: 0.5
  }
}
layer {
  name: "mbox_loc"
  type: "Concat"
  bottom: "conv4_3_norm_mbox_loc_flat"
  bottom: "fc7_mbox_loc_flat"
  bottom: "conv6_2_mbox_loc_flat"
  bottom: "conv7_2_mbox_loc_flat"
  bottom: "conv8_2_mbox_loc_flat"
  bottom: "conv9_2_mbox_loc_flat"
  top: "mbox_loc"
  concat_param {
    axis: 1
  }
}
layer {
  name: "mbox_conf"
  type: "Concat"
  bottom: "conv4_3_norm_mbox_conf_flat"
  bottom: "fc7_mbox_conf_flat"
  bottom: "conv6_2_mbox_conf_flat"
  bottom: "conv7_2_mbox_conf_flat"
  bottom: "conv8_2_mbox_conf_flat"
  bottom: "conv9_2_mbox_conf_flat"
  top: "mbox_conf"
  concat_param {
    axis: 1
  }
}
layer {
  name: "mbox_priorbox"
  type: "Concat"
  bottom: "conv4_3_norm_mbox_priorbox"
  bottom: "fc7_mbox_priorbox"
  bottom: "conv6_2_mbox_priorbox"
  bottom: "conv7_2_mbox_priorbox"
  bottom: "conv8_2_mbox_priorbox"
  bottom: "conv9_2_mbox_priorbox"
  top: "mbox_priorbox"
  concat_param {
    axis: 2
  }
}
layer {
  name: "mbox_loss"
  type: "MultiBoxLoss"
  bottom: "mbox_loc"
  bottom: "mbox_conf"
  bottom: "mbox_priorbox"
  bottom: "label"
  top: "mbox_loss"
  include {
    phase: TRAIN
  }
  propagate_down: true
  propagate_down: true
  propagate_down: false
  propagate_down: false
  loss_param {
    normalization: VALID
  }
  multibox_loss_param {
    loc_loss_type: SMOOTH_L1
    conf_loss_type: SOFTMAX
    loc_weight: 1
    num_classes: 3
    share_location: true
    match_type: PER_PREDICTION
    overlap_threshold: 0.5
    use_prior_for_matching: true
    background_label_id: 2
    use_difficult_gt: true
    neg_pos_ratio: 3
    neg_overlap: 0.5
    code_type: CENTER_SIZE
    ignore_cross_boundary_bbox: false
    mining_type: MAX_NEGATIVE
  }
}
I0609 14:12:27.004734 31468 layer_factory.hpp:77] Creating layer data
I0609 14:12:27.005173 31468 net.cpp:100] Creating Layer data
I0609 14:12:27.005203 31468 net.cpp:408] data -> data
I0609 14:12:27.005259 31468 net.cpp:408] data -> label
I0609 14:12:27.007625 31480 db_lmdb.cpp:35] Opened lmdb examples/TOTEBALL/TOTEBALL_trainval_lmdb
I0609 14:12:27.032711 31468 annotated_data_layer.cpp:62] output data size: 8,3,300,300
I0609 14:12:27.055743 31468 net.cpp:150] Setting up data
I0609 14:12:27.055927 31468 net.cpp:157] Top shape: 8 3 300 300 (2160000)
I0609 14:12:27.055943 31468 net.cpp:157] Top shape: 1 1 2 8 (16)
I0609 14:12:27.055948 31468 net.cpp:165] Memory required for data: 8640064
I0609 14:12:27.056005 31468 layer_factory.hpp:77] Creating layer data_data_0_split
I0609 14:12:27.056028 31468 net.cpp:100] Creating Layer data_data_0_split
I0609 14:12:27.056041 31468 net.cpp:434] data_data_0_split <- data
I0609 14:12:27.056066 31468 net.cpp:408] data_data_0_split -> data_data_0_split_0
I0609 14:12:27.056085 31468 net.cpp:408] data_data_0_split -> data_data_0_split_1
I0609 14:12:27.056097 31468 net.cpp:408] data_data_0_split -> data_data_0_split_2
I0609 14:12:27.056109 31468 net.cpp:408] data_data_0_split -> data_data_0_split_3
I0609 14:12:27.056121 31468 net.cpp:408] data_data_0_split -> data_data_0_split_4
I0609 14:12:27.056130 31468 net.cpp:408] data_data_0_split -> data_data_0_split_5
I0609 14:12:27.056145 31468 net.cpp:408] data_data_0_split -> data_data_0_split_6
I0609 14:12:27.056318 31468 net.cpp:150] Setting up data_data_0_split
I0609 14:12:27.056334 31468 net.cpp:157] Top shape: 8 3 300 300 (2160000)
I0609 14:12:27.056342 31468 net.cpp:157] Top shape: 8 3 300 300 (2160000)
I0609 14:12:27.056349 31468 net.cpp:157] Top shape: 8 3 300 300 (2160000)
I0609 14:12:27.056356 31468 net.cpp:157] Top shape: 8 3 300 300 (2160000)
I0609 14:12:27.056363 31468 net.cpp:157] Top shape: 8 3 300 300 (2160000)
I0609 14:12:27.056370 31468 net.cpp:157] Top shape: 8 3 300 300 (2160000)
I0609 14:12:27.056382 31468 net.cpp:157] Top shape: 8 3 300 300 (2160000)
I0609 14:12:27.056390 31468 net.cpp:165] Memory required for data: 69120064
I0609 14:12:27.056394 31468 layer_factory.hpp:77] Creating layer conv1_1
I0609 14:12:27.056422 31468 net.cpp:100] Creating Layer conv1_1
I0609 14:12:27.056432 31468 net.cpp:434] conv1_1 <- data_data_0_split_0
I0609 14:12:27.056444 31468 net.cpp:408] conv1_1 -> conv1_1
I0609 14:12:27.814700 31468 net.cpp:150] Setting up conv1_1
I0609 14:12:27.814745 31468 net.cpp:157] Top shape: 8 64 300 300 (46080000)
I0609 14:12:27.814752 31468 net.cpp:165] Memory required for data: 253440064
I0609 14:12:27.814779 31468 layer_factory.hpp:77] Creating layer relu1_1
I0609 14:12:27.814810 31468 net.cpp:100] Creating Layer relu1_1
I0609 14:12:27.814817 31468 net.cpp:434] relu1_1 <- conv1_1
I0609 14:12:27.814827 31468 net.cpp:395] relu1_1 -> conv1_1 (in-place)
I0609 14:12:27.815409 31468 net.cpp:150] Setting up relu1_1
I0609 14:12:27.815430 31468 net.cpp:157] Top shape: 8 64 300 300 (46080000)
I0609 14:12:27.815438 31468 net.cpp:165] Memory required for data: 437760064
I0609 14:12:27.815443 31468 layer_factory.hpp:77] Creating layer conv1_2
I0609 14:12:27.815469 31468 net.cpp:100] Creating Layer conv1_2
I0609 14:12:27.815475 31468 net.cpp:434] conv1_2 <- conv1_1
I0609 14:12:27.815485 31468 net.cpp:408] conv1_2 -> conv1_2
I0609 14:12:27.818347 31468 net.cpp:150] Setting up conv1_2
I0609 14:12:27.818378 31468 net.cpp:157] Top shape: 8 64 300 300 (46080000)
I0609 14:12:27.818384 31468 net.cpp:165] Memory required for data: 622080064
I0609 14:12:27.818397 31468 layer_factory.hpp:77] Creating layer relu1_2
I0609 14:12:27.818408 31468 net.cpp:100] Creating Layer relu1_2
I0609 14:12:27.818419 31468 net.cpp:434] relu1_2 <- conv1_2
I0609 14:12:27.818434 31468 net.cpp:395] relu1_2 -> conv1_2 (in-place)
I0609 14:12:27.819026 31468 net.cpp:150] Setting up relu1_2
I0609 14:12:27.819048 31468 net.cpp:157] Top shape: 8 64 300 300 (46080000)
I0609 14:12:27.819056 31468 net.cpp:165] Memory required for data: 806400064
I0609 14:12:27.819062 31468 layer_factory.hpp:77] Creating layer pool1
I0609 14:12:27.819077 31468 net.cpp:100] Creating Layer pool1
I0609 14:12:27.819084 31468 net.cpp:434] pool1 <- conv1_2
I0609 14:12:27.819093 31468 net.cpp:408] pool1 -> pool1
I0609 14:12:27.819182 31468 net.cpp:150] Setting up pool1
I0609 14:12:27.819244 31468 net.cpp:157] Top shape: 8 64 150 150 (11520000)
I0609 14:12:27.819255 31468 net.cpp:165] Memory required for data: 852480064
I0609 14:12:27.819262 31468 layer_factory.hpp:77] Creating layer conv2_1
I0609 14:12:27.819278 31468 net.cpp:100] Creating Layer conv2_1
I0609 14:12:27.819283 31468 net.cpp:434] conv2_1 <- pool1
I0609 14:12:27.819293 31468 net.cpp:408] conv2_1 -> conv2_1
I0609 14:12:27.821786 31468 net.cpp:150] Setting up conv2_1
I0609 14:12:27.821812 31468 net.cpp:157] Top shape: 8 128 150 150 (23040000)
I0609 14:12:27.821825 31468 net.cpp:165] Memory required for data: 944640064
I0609 14:12:27.821838 31468 layer_factory.hpp:77] Creating layer relu2_1
I0609 14:12:27.821851 31468 net.cpp:100] Creating Layer relu2_1
I0609 14:12:27.821859 31468 net.cpp:434] relu2_1 <- conv2_1
I0609 14:12:27.821868 31468 net.cpp:395] relu2_1 -> conv2_1 (in-place)
I0609 14:12:27.822115 31468 net.cpp:150] Setting up relu2_1
I0609 14:12:27.822129 31468 net.cpp:157] Top shape: 8 128 150 150 (23040000)
I0609 14:12:27.822135 31468 net.cpp:165] Memory required for data: 1036800064
I0609 14:12:27.822141 31468 layer_factory.hpp:77] Creating layer conv2_2
I0609 14:12:27.822154 31468 net.cpp:100] Creating Layer conv2_2
I0609 14:12:27.822160 31468 net.cpp:434] conv2_2 <- conv2_1
I0609 14:12:27.822170 31468 net.cpp:408] conv2_2 -> conv2_2
I0609 14:12:27.825824 31468 net.cpp:150] Setting up conv2_2
I0609 14:12:27.825865 31468 net.cpp:157] Top shape: 8 128 150 150 (23040000)
I0609 14:12:27.825871 31468 net.cpp:165] Memory required for data: 1128960064
I0609 14:12:27.825884 31468 layer_factory.hpp:77] Creating layer relu2_2
I0609 14:12:27.825896 31468 net.cpp:100] Creating Layer relu2_2
I0609 14:12:27.825902 31468 net.cpp:434] relu2_2 <- conv2_2
I0609 14:12:27.825911 31468 net.cpp:395] relu2_2 -> conv2_2 (in-place)
I0609 14:12:27.826438 31468 net.cpp:150] Setting up relu2_2
I0609 14:12:27.826460 31468 net.cpp:157] Top shape: 8 128 150 150 (23040000)
I0609 14:12:27.826467 31468 net.cpp:165] Memory required for data: 1221120064
I0609 14:12:27.826472 31468 layer_factory.hpp:77] Creating layer pool2
I0609 14:12:27.826483 31468 net.cpp:100] Creating Layer pool2
I0609 14:12:27.826488 31468 net.cpp:434] pool2 <- conv2_2
I0609 14:12:27.826511 31468 net.cpp:408] pool2 -> pool2
I0609 14:12:27.826571 31468 net.cpp:150] Setting up pool2
I0609 14:12:27.826586 31468 net.cpp:157] Top shape: 8 128 75 75 (5760000)
I0609 14:12:27.826591 31468 net.cpp:165] Memory required for data: 1244160064
I0609 14:12:27.826598 31468 layer_factory.hpp:77] Creating layer conv3_1
I0609 14:12:27.826612 31468 net.cpp:100] Creating Layer conv3_1
I0609 14:12:27.826618 31468 net.cpp:434] conv3_1 <- pool2
I0609 14:12:27.826628 31468 net.cpp:408] conv3_1 -> conv3_1
I0609 14:12:27.832285 31468 net.cpp:150] Setting up conv3_1
I0609 14:12:27.832325 31468 net.cpp:157] Top shape: 8 256 75 75 (11520000)
I0609 14:12:27.832332 31468 net.cpp:165] Memory required for data: 1290240064
I0609 14:12:27.832351 31468 layer_factory.hpp:77] Creating layer relu3_1
I0609 14:12:27.832367 31468 net.cpp:100] Creating Layer relu3_1
I0609 14:12:27.832375 31468 net.cpp:434] relu3_1 <- conv3_1
I0609 14:12:27.832383 31468 net.cpp:395] relu3_1 -> conv3_1 (in-place)
I0609 14:12:27.832644 31468 net.cpp:150] Setting up relu3_1
I0609 14:12:27.832659 31468 net.cpp:157] Top shape: 8 256 75 75 (11520000)
I0609 14:12:27.832664 31468 net.cpp:165] Memory required for data: 1336320064
I0609 14:12:27.832670 31468 layer_factory.hpp:77] Creating layer conv3_2
I0609 14:12:27.832684 31468 net.cpp:100] Creating Layer conv3_2
I0609 14:12:27.832690 31468 net.cpp:434] conv3_2 <- conv3_1
I0609 14:12:27.832700 31468 net.cpp:408] conv3_2 -> conv3_2
I0609 14:12:27.841194 31468 net.cpp:150] Setting up conv3_2
I0609 14:12:27.841234 31468 net.cpp:157] Top shape: 8 256 75 75 (11520000)
I0609 14:12:27.841241 31468 net.cpp:165] Memory required for data: 1382400064
I0609 14:12:27.841255 31468 layer_factory.hpp:77] Creating layer relu3_2
I0609 14:12:27.841274 31468 net.cpp:100] Creating Layer relu3_2
I0609 14:12:27.841284 31468 net.cpp:434] relu3_2 <- conv3_2
I0609 14:12:27.841294 31468 net.cpp:395] relu3_2 -> conv3_2 (in-place)
I0609 14:12:27.841828 31468 net.cpp:150] Setting up relu3_2
I0609 14:12:27.841851 31468 net.cpp:157] Top shape: 8 256 75 75 (11520000)
I0609 14:12:27.841858 31468 net.cpp:165] Memory required for data: 1428480064
I0609 14:12:27.841864 31468 layer_factory.hpp:77] Creating layer conv3_3
I0609 14:12:27.841914 31468 net.cpp:100] Creating Layer conv3_3
I0609 14:12:27.841922 31468 net.cpp:434] conv3_3 <- conv3_2
I0609 14:12:27.841931 31468 net.cpp:408] conv3_3 -> conv3_3
I0609 14:12:27.850189 31468 net.cpp:150] Setting up conv3_3
I0609 14:12:27.850224 31468 net.cpp:157] Top shape: 8 256 75 75 (11520000)
I0609 14:12:27.850229 31468 net.cpp:165] Memory required for data: 1474560064
I0609 14:12:27.850241 31468 layer_factory.hpp:77] Creating layer relu3_3
I0609 14:12:27.850253 31468 net.cpp:100] Creating Layer relu3_3
I0609 14:12:27.850275 31468 net.cpp:434] relu3_3 <- conv3_3
I0609 14:12:27.850286 31468 net.cpp:395] relu3_3 -> conv3_3 (in-place)
I0609 14:12:27.850822 31468 net.cpp:150] Setting up relu3_3
I0609 14:12:27.850844 31468 net.cpp:157] Top shape: 8 256 75 75 (11520000)
I0609 14:12:27.850850 31468 net.cpp:165] Memory required for data: 1520640064
I0609 14:12:27.850855 31468 layer_factory.hpp:77] Creating layer pool3
I0609 14:12:27.850865 31468 net.cpp:100] Creating Layer pool3
I0609 14:12:27.850872 31468 net.cpp:434] pool3 <- conv3_3
I0609 14:12:27.850880 31468 net.cpp:408] pool3 -> pool3
I0609 14:12:27.850956 31468 net.cpp:150] Setting up pool3
I0609 14:12:27.850985 31468 net.cpp:157] Top shape: 8 256 38 38 (2957312)
I0609 14:12:27.850991 31468 net.cpp:165] Memory required for data: 1532469312
I0609 14:12:27.850997 31468 layer_factory.hpp:77] Creating layer conv4_1
I0609 14:12:27.851012 31468 net.cpp:100] Creating Layer conv4_1
I0609 14:12:27.851018 31468 net.cpp:434] conv4_1 <- pool3
I0609 14:12:27.851027 31468 net.cpp:408] conv4_1 -> conv4_1
I0609 14:12:27.866245 31468 net.cpp:150] Setting up conv4_1
I0609 14:12:27.866289 31468 net.cpp:157] Top shape: 8 512 38 38 (5914624)
I0609 14:12:27.866295 31468 net.cpp:165] Memory required for data: 1556127808
I0609 14:12:27.866312 31468 layer_factory.hpp:77] Creating layer relu4_1
I0609 14:12:27.866327 31468 net.cpp:100] Creating Layer relu4_1
I0609 14:12:27.866348 31468 net.cpp:434] relu4_1 <- conv4_1
I0609 14:12:27.866359 31468 net.cpp:395] relu4_1 -> conv4_1 (in-place)
I0609 14:12:27.866618 31468 net.cpp:150] Setting up relu4_1
I0609 14:12:27.866632 31468 net.cpp:157] Top shape: 8 512 38 38 (5914624)
I0609 14:12:27.866637 31468 net.cpp:165] Memory required for data: 1579786304
I0609 14:12:27.866644 31468 layer_factory.hpp:77] Creating layer conv4_2
I0609 14:12:27.866662 31468 net.cpp:100] Creating Layer conv4_2
I0609 14:12:27.866668 31468 net.cpp:434] conv4_2 <- conv4_1
I0609 14:12:27.866678 31468 net.cpp:408] conv4_2 -> conv4_2
I0609 14:12:27.893515 31468 net.cpp:150] Setting up conv4_2
I0609 14:12:27.893558 31468 net.cpp:157] Top shape: 8 512 38 38 (5914624)
I0609 14:12:27.893564 31468 net.cpp:165] Memory required for data: 1603444800
I0609 14:12:27.893587 31468 layer_factory.hpp:77] Creating layer relu4_2
I0609 14:12:27.893616 31468 net.cpp:100] Creating Layer relu4_2
I0609 14:12:27.893625 31468 net.cpp:434] relu4_2 <- conv4_2
I0609 14:12:27.893635 31468 net.cpp:395] relu4_2 -> conv4_2 (in-place)
I0609 14:12:27.894191 31468 net.cpp:150] Setting up relu4_2
I0609 14:12:27.894213 31468 net.cpp:157] Top shape: 8 512 38 38 (5914624)
I0609 14:12:27.894219 31468 net.cpp:165] Memory required for data: 1627103296
I0609 14:12:27.894225 31468 layer_factory.hpp:77] Creating layer conv4_3
I0609 14:12:27.894243 31468 net.cpp:100] Creating Layer conv4_3
I0609 14:12:27.894249 31468 net.cpp:434] conv4_3 <- conv4_2
I0609 14:12:27.894270 31468 net.cpp:408] conv4_3 -> conv4_3
I0609 14:12:27.921787 31468 net.cpp:150] Setting up conv4_3
I0609 14:12:27.921828 31468 net.cpp:157] Top shape: 8 512 38 38 (5914624)
I0609 14:12:27.921833 31468 net.cpp:165] Memory required for data: 1650761792
I0609 14:12:27.921849 31468 layer_factory.hpp:77] Creating layer relu4_3
I0609 14:12:27.921862 31468 net.cpp:100] Creating Layer relu4_3
I0609 14:12:27.921875 31468 net.cpp:434] relu4_3 <- conv4_3
I0609 14:12:27.921886 31468 net.cpp:395] relu4_3 -> conv4_3 (in-place)
I0609 14:12:27.922142 31468 net.cpp:150] Setting up relu4_3
I0609 14:12:27.922155 31468 net.cpp:157] Top shape: 8 512 38 38 (5914624)
I0609 14:12:27.922196 31468 net.cpp:165] Memory required for data: 1674420288
I0609 14:12:27.922204 31468 layer_factory.hpp:77] Creating layer conv4_3_relu4_3_0_split
I0609 14:12:27.922214 31468 net.cpp:100] Creating Layer conv4_3_relu4_3_0_split
I0609 14:12:27.922220 31468 net.cpp:434] conv4_3_relu4_3_0_split <- conv4_3
I0609 14:12:27.922228 31468 net.cpp:408] conv4_3_relu4_3_0_split -> conv4_3_relu4_3_0_split_0
I0609 14:12:27.922240 31468 net.cpp:408] conv4_3_relu4_3_0_split -> conv4_3_relu4_3_0_split_1
I0609 14:12:27.922299 31468 net.cpp:150] Setting up conv4_3_relu4_3_0_split
I0609 14:12:27.922314 31468 net.cpp:157] Top shape: 8 512 38 38 (5914624)
I0609 14:12:27.922322 31468 net.cpp:157] Top shape: 8 512 38 38 (5914624)
I0609 14:12:27.922327 31468 net.cpp:165] Memory required for data: 1721737280
I0609 14:12:27.922333 31468 layer_factory.hpp:77] Creating layer pool4
I0609 14:12:27.922343 31468 net.cpp:100] Creating Layer pool4
I0609 14:12:27.922348 31468 net.cpp:434] pool4 <- conv4_3_relu4_3_0_split_0
I0609 14:12:27.922358 31468 net.cpp:408] pool4 -> pool4
I0609 14:12:27.922411 31468 net.cpp:150] Setting up pool4
I0609 14:12:27.922425 31468 net.cpp:157] Top shape: 8 512 19 19 (1478656)
I0609 14:12:27.922430 31468 net.cpp:165] Memory required for data: 1727651904
I0609 14:12:27.922436 31468 layer_factory.hpp:77] Creating layer conv5_1
I0609 14:12:27.922452 31468 net.cpp:100] Creating Layer conv5_1
I0609 14:12:27.922458 31468 net.cpp:434] conv5_1 <- pool4
I0609 14:12:27.922467 31468 net.cpp:408] conv5_1 -> conv5_1
I0609 14:12:27.949923 31468 net.cpp:150] Setting up conv5_1
I0609 14:12:27.949968 31468 net.cpp:157] Top shape: 8 512 19 19 (1478656)
I0609 14:12:27.949973 31468 net.cpp:165] Memory required for data: 1733566528
I0609 14:12:27.949990 31468 layer_factory.hpp:77] Creating layer relu5_1
I0609 14:12:27.950003 31468 net.cpp:100] Creating Layer relu5_1
I0609 14:12:27.950026 31468 net.cpp:434] relu5_1 <- conv5_1
I0609 14:12:27.950037 31468 net.cpp:395] relu5_1 -> conv5_1 (in-place)
I0609 14:12:27.950579 31468 net.cpp:150] Setting up relu5_1
I0609 14:12:27.950603 31468 net.cpp:157] Top shape: 8 512 19 19 (1478656)
I0609 14:12:27.950608 31468 net.cpp:165] Memory required for data: 1739481152
I0609 14:12:27.950614 31468 layer_factory.hpp:77] Creating layer conv5_2
I0609 14:12:27.950633 31468 net.cpp:100] Creating Layer conv5_2
I0609 14:12:27.950639 31468 net.cpp:434] conv5_2 <- conv5_1
I0609 14:12:27.950659 31468 net.cpp:408] conv5_2 -> conv5_2
I0609 14:12:27.977936 31468 net.cpp:150] Setting up conv5_2
I0609 14:12:27.977974 31468 net.cpp:157] Top shape: 8 512 19 19 (1478656)
I0609 14:12:27.977980 31468 net.cpp:165] Memory required for data: 1745395776
I0609 14:12:27.977993 31468 layer_factory.hpp:77] Creating layer relu5_2
I0609 14:12:27.978020 31468 net.cpp:100] Creating Layer relu5_2
I0609 14:12:27.978029 31468 net.cpp:434] relu5_2 <- conv5_2
I0609 14:12:27.978040 31468 net.cpp:395] relu5_2 -> conv5_2 (in-place)
I0609 14:12:27.978591 31468 net.cpp:150] Setting up relu5_2
I0609 14:12:27.978615 31468 net.cpp:157] Top shape: 8 512 19 19 (1478656)
I0609 14:12:27.978621 31468 net.cpp:165] Memory required for data: 1751310400
I0609 14:12:27.978626 31468 layer_factory.hpp:77] Creating layer conv5_3
I0609 14:12:27.978644 31468 net.cpp:100] Creating Layer conv5_3
I0609 14:12:27.978651 31468 net.cpp:434] conv5_3 <- conv5_2
I0609 14:12:27.978673 31468 net.cpp:408] conv5_3 -> conv5_3
I0609 14:12:28.005022 31468 net.cpp:150] Setting up conv5_3
I0609 14:12:28.005074 31468 net.cpp:157] Top shape: 8 512 19 19 (1478656)
I0609 14:12:28.005080 31468 net.cpp:165] Memory required for data: 1757225024
I0609 14:12:28.005095 31468 layer_factory.hpp:77] Creating layer relu5_3
I0609 14:12:28.005127 31468 net.cpp:100] Creating Layer relu5_3
I0609 14:12:28.005137 31468 net.cpp:434] relu5_3 <- conv5_3
I0609 14:12:28.005147 31468 net.cpp:395] relu5_3 -> conv5_3 (in-place)
I0609 14:12:28.005466 31468 net.cpp:150] Setting up relu5_3
I0609 14:12:28.005487 31468 net.cpp:157] Top shape: 8 512 19 19 (1478656)
I0609 14:12:28.005494 31468 net.cpp:165] Memory required for data: 1763139648
I0609 14:12:28.005537 31468 layer_factory.hpp:77] Creating layer pool5
I0609 14:12:28.005548 31468 net.cpp:100] Creating Layer pool5
I0609 14:12:28.005554 31468 net.cpp:434] pool5 <- conv5_3
I0609 14:12:28.005566 31468 net.cpp:408] pool5 -> pool5
I0609 14:12:28.005638 31468 net.cpp:150] Setting up pool5
I0609 14:12:28.005652 31468 net.cpp:157] Top shape: 8 512 19 19 (1478656)
I0609 14:12:28.005658 31468 net.cpp:165] Memory required for data: 1769054272
I0609 14:12:28.005664 31468 layer_factory.hpp:77] Creating layer fc6
I0609 14:12:28.005684 31468 net.cpp:100] Creating Layer fc6
I0609 14:12:28.005692 31468 net.cpp:434] fc6 <- pool5
I0609 14:12:28.005700 31468 net.cpp:408] fc6 -> fc6
I0609 14:12:28.057533 31468 net.cpp:150] Setting up fc6
I0609 14:12:28.057585 31468 net.cpp:157] Top shape: 8 1024 19 19 (2957312)
I0609 14:12:28.057595 31468 net.cpp:165] Memory required for data: 1780883520
I0609 14:12:28.057607 31468 layer_factory.hpp:77] Creating layer relu6
I0609 14:12:28.057629 31468 net.cpp:100] Creating Layer relu6
I0609 14:12:28.057637 31468 net.cpp:434] relu6 <- fc6
I0609 14:12:28.057648 31468 net.cpp:395] relu6 -> fc6 (in-place)
I0609 14:12:28.058362 31468 net.cpp:150] Setting up relu6
I0609 14:12:28.058398 31468 net.cpp:157] Top shape: 8 1024 19 19 (2957312)
I0609 14:12:28.058403 31468 net.cpp:165] Memory required for data: 1792712768
I0609 14:12:28.058410 31468 layer_factory.hpp:77] Creating layer fc7
I0609 14:12:28.058435 31468 net.cpp:100] Creating Layer fc7
I0609 14:12:28.058444 31468 net.cpp:434] fc7 <- fc6
I0609 14:12:28.058454 31468 net.cpp:408] fc7 -> fc7
I0609 14:12:28.072417 31468 net.cpp:150] Setting up fc7
I0609 14:12:28.072455 31468 net.cpp:157] Top shape: 8 1024 19 19 (2957312)
I0609 14:12:28.072461 31468 net.cpp:165] Memory required for data: 1804542016
I0609 14:12:28.072473 31468 layer_factory.hpp:77] Creating layer relu7
I0609 14:12:28.072487 31468 net.cpp:100] Creating Layer relu7
I0609 14:12:28.072500 31468 net.cpp:434] relu7 <- fc7
I0609 14:12:28.072510 31468 net.cpp:395] relu7 -> fc7 (in-place)
I0609 14:12:28.072746 31468 net.cpp:150] Setting up relu7
I0609 14:12:28.072758 31468 net.cpp:157] Top shape: 8 1024 19 19 (2957312)
I0609 14:12:28.072763 31468 net.cpp:165] Memory required for data: 1816371264
I0609 14:12:28.072769 31468 layer_factory.hpp:77] Creating layer fc7_relu7_0_split
I0609 14:12:28.072777 31468 net.cpp:100] Creating Layer fc7_relu7_0_split
I0609 14:12:28.072783 31468 net.cpp:434] fc7_relu7_0_split <- fc7
I0609 14:12:28.072793 31468 net.cpp:408] fc7_relu7_0_split -> fc7_relu7_0_split_0
I0609 14:12:28.072803 31468 net.cpp:408] fc7_relu7_0_split -> fc7_relu7_0_split_1
I0609 14:12:28.072815 31468 net.cpp:408] fc7_relu7_0_split -> fc7_relu7_0_split_2
I0609 14:12:28.072825 31468 net.cpp:408] fc7_relu7_0_split -> fc7_relu7_0_split_3
I0609 14:12:28.072916 31468 net.cpp:150] Setting up fc7_relu7_0_split
I0609 14:12:28.072927 31468 net.cpp:157] Top shape: 8 1024 19 19 (2957312)
I0609 14:12:28.072935 31468 net.cpp:157] Top shape: 8 1024 19 19 (2957312)
I0609 14:12:28.072942 31468 net.cpp:157] Top shape: 8 1024 19 19 (2957312)
I0609 14:12:28.072948 31468 net.cpp:157] Top shape: 8 1024 19 19 (2957312)
I0609 14:12:28.072953 31468 net.cpp:165] Memory required for data: 1863688256
I0609 14:12:28.072958 31468 layer_factory.hpp:77] Creating layer conv6_1
I0609 14:12:28.072974 31468 net.cpp:100] Creating Layer conv6_1
I0609 14:12:28.072980 31468 net.cpp:434] conv6_1 <- fc7_relu7_0_split_0
I0609 14:12:28.072990 31468 net.cpp:408] conv6_1 -> conv6_1
I0609 14:12:28.077790 31468 net.cpp:150] Setting up conv6_1
I0609 14:12:28.077827 31468 net.cpp:157] Top shape: 8 256 19 19 (739328)
I0609 14:12:28.077833 31468 net.cpp:165] Memory required for data: 1866645568
I0609 14:12:28.077844 31468 layer_factory.hpp:77] Creating layer conv6_1_relu
I0609 14:12:28.077854 31468 net.cpp:100] Creating Layer conv6_1_relu
I0609 14:12:28.077867 31468 net.cpp:434] conv6_1_relu <- conv6_1
I0609 14:12:28.077877 31468 net.cpp:395] conv6_1_relu -> conv6_1 (in-place)
I0609 14:12:28.078531 31468 net.cpp:150] Setting up conv6_1_relu
I0609 14:12:28.078552 31468 net.cpp:157] Top shape: 8 256 19 19 (739328)
I0609 14:12:28.078559 31468 net.cpp:165] Memory required for data: 1869602880
I0609 14:12:28.078565 31468 layer_factory.hpp:77] Creating layer conv6_2
I0609 14:12:28.078582 31468 net.cpp:100] Creating Layer conv6_2
I0609 14:12:28.078593 31468 net.cpp:434] conv6_2 <- conv6_1
I0609 14:12:28.078606 31468 net.cpp:408] conv6_2 -> conv6_2
I0609 14:12:28.093914 31468 net.cpp:150] Setting up conv6_2
I0609 14:12:28.093955 31468 net.cpp:157] Top shape: 8 512 10 10 (409600)
I0609 14:12:28.093960 31468 net.cpp:165] Memory required for data: 1871241280
I0609 14:12:28.093984 31468 layer_factory.hpp:77] Creating layer conv6_2_relu
I0609 14:12:28.094003 31468 net.cpp:100] Creating Layer conv6_2_relu
I0609 14:12:28.094012 31468 net.cpp:434] conv6_2_relu <- conv6_2
I0609 14:12:28.094022 31468 net.cpp:395] conv6_2_relu -> conv6_2 (in-place)
I0609 14:12:28.094535 31468 net.cpp:150] Setting up conv6_2_relu
I0609 14:12:28.094561 31468 net.cpp:157] Top shape: 8 512 10 10 (409600)
I0609 14:12:28.094566 31468 net.cpp:165] Memory required for data: 1872879680
I0609 14:12:28.094573 31468 layer_factory.hpp:77] Creating layer conv6_2_conv6_2_relu_0_split
I0609 14:12:28.094583 31468 net.cpp:100] Creating Layer conv6_2_conv6_2_relu_0_split
I0609 14:12:28.094588 31468 net.cpp:434] conv6_2_conv6_2_relu_0_split <- conv6_2
I0609 14:12:28.094600 31468 net.cpp:408] conv6_2_conv6_2_relu_0_split -> conv6_2_conv6_2_relu_0_split_0
I0609 14:12:28.094610 31468 net.cpp:408] conv6_2_conv6_2_relu_0_split -> conv6_2_conv6_2_relu_0_split_1
I0609 14:12:28.094620 31468 net.cpp:408] conv6_2_conv6_2_relu_0_split -> conv6_2_conv6_2_relu_0_split_2
I0609 14:12:28.094630 31468 net.cpp:408] conv6_2_conv6_2_relu_0_split -> conv6_2_conv6_2_relu_0_split_3
I0609 14:12:28.094727 31468 net.cpp:150] Setting up conv6_2_conv6_2_relu_0_split
I0609 14:12:28.094738 31468 net.cpp:157] Top shape: 8 512 10 10 (409600)
I0609 14:12:28.094745 31468 net.cpp:157] Top shape: 8 512 10 10 (409600)
I0609 14:12:28.094751 31468 net.cpp:157] Top shape: 8 512 10 10 (409600)
I0609 14:12:28.094756 31468 net.cpp:157] Top shape: 8 512 10 10 (409600)
I0609 14:12:28.094761 31468 net.cpp:165] Memory required for data: 1879433280
I0609 14:12:28.094766 31468 layer_factory.hpp:77] Creating layer conv7_1
I0609 14:12:28.094784 31468 net.cpp:100] Creating Layer conv7_1
I0609 14:12:28.094789 31468 net.cpp:434] conv7_1 <- conv6_2_conv6_2_relu_0_split_0
I0609 14:12:28.094797 31468 net.cpp:408] conv7_1 -> conv7_1
I0609 14:12:28.097026 31468 net.cpp:150] Setting up conv7_1
I0609 14:12:28.097053 31468 net.cpp:157] Top shape: 8 128 10 10 (102400)
I0609 14:12:28.097059 31468 net.cpp:165] Memory required for data: 1879842880
I0609 14:12:28.097066 31468 layer_factory.hpp:77] Creating layer conv7_1_relu
I0609 14:12:28.097079 31468 net.cpp:100] Creating Layer conv7_1_relu
I0609 14:12:28.097084 31468 net.cpp:434] conv7_1_relu <- conv7_1
I0609 14:12:28.097097 31468 net.cpp:395] conv7_1_relu -> conv7_1 (in-place)
I0609 14:12:28.097331 31468 net.cpp:150] Setting up conv7_1_relu
I0609 14:12:28.097355 31468 net.cpp:157] Top shape: 8 128 10 10 (102400)
I0609 14:12:28.097362 31468 net.cpp:165] Memory required for data: 1880252480
I0609 14:12:28.097368 31468 layer_factory.hpp:77] Creating layer conv7_2
I0609 14:12:28.097383 31468 net.cpp:100] Creating Layer conv7_2
I0609 14:12:28.097398 31468 net.cpp:434] conv7_2 <- conv7_1
I0609 14:12:28.097409 31468 net.cpp:408] conv7_2 -> conv7_2
I0609 14:12:28.102653 31468 net.cpp:150] Setting up conv7_2
I0609 14:12:28.102685 31468 net.cpp:157] Top shape: 8 256 5 5 (51200)
I0609 14:12:28.102691 31468 net.cpp:165] Memory required for data: 1880457280
I0609 14:12:28.102702 31468 layer_factory.hpp:77] Creating layer conv7_2_relu
I0609 14:12:28.102716 31468 net.cpp:100] Creating Layer conv7_2_relu
I0609 14:12:28.102727 31468 net.cpp:434] conv7_2_relu <- conv7_2
I0609 14:12:28.102736 31468 net.cpp:395] conv7_2_relu -> conv7_2 (in-place)
I0609 14:12:28.103338 31468 net.cpp:150] Setting up conv7_2_relu
I0609 14:12:28.103385 31468 net.cpp:157] Top shape: 8 256 5 5 (51200)
I0609 14:12:28.103391 31468 net.cpp:165] Memory required for data: 1880662080
I0609 14:12:28.103399 31468 layer_factory.hpp:77] Creating layer conv7_2_conv7_2_relu_0_split
I0609 14:12:28.103411 31468 net.cpp:100] Creating Layer conv7_2_conv7_2_relu_0_split
I0609 14:12:28.103418 31468 net.cpp:434] conv7_2_conv7_2_relu_0_split <- conv7_2
I0609 14:12:28.103430 31468 net.cpp:408] conv7_2_conv7_2_relu_0_split -> conv7_2_conv7_2_relu_0_split_0
I0609 14:12:28.103440 31468 net.cpp:408] conv7_2_conv7_2_relu_0_split -> conv7_2_conv7_2_relu_0_split_1
I0609 14:12:28.103449 31468 net.cpp:408] conv7_2_conv7_2_relu_0_split -> conv7_2_conv7_2_relu_0_split_2
I0609 14:12:28.103461 31468 net.cpp:408] conv7_2_conv7_2_relu_0_split -> conv7_2_conv7_2_relu_0_split_3
I0609 14:12:28.103574 31468 net.cpp:150] Setting up conv7_2_conv7_2_relu_0_split
I0609 14:12:28.103590 31468 net.cpp:157] Top shape: 8 256 5 5 (51200)
I0609 14:12:28.103596 31468 net.cpp:157] Top shape: 8 256 5 5 (51200)
I0609 14:12:28.103603 31468 net.cpp:157] Top shape: 8 256 5 5 (51200)
I0609 14:12:28.103610 31468 net.cpp:157] Top shape: 8 256 5 5 (51200)
I0609 14:12:28.103615 31468 net.cpp:165] Memory required for data: 1881481280
I0609 14:12:28.103621 31468 layer_factory.hpp:77] Creating layer conv8_1
I0609 14:12:28.103636 31468 net.cpp:100] Creating Layer conv8_1
I0609 14:12:28.103643 31468 net.cpp:434] conv8_1 <- conv7_2_conv7_2_relu_0_split_0
I0609 14:12:28.103655 31468 net.cpp:408] conv8_1 -> conv8_1
I0609 14:12:28.107030 31468 net.cpp:150] Setting up conv8_1
I0609 14:12:28.107055 31468 net.cpp:157] Top shape: 8 128 5 5 (25600)
I0609 14:12:28.107061 31468 net.cpp:165] Memory required for data: 1881583680
I0609 14:12:28.107071 31468 layer_factory.hpp:77] Creating layer conv8_1_relu
I0609 14:12:28.107082 31468 net.cpp:100] Creating Layer conv8_1_relu
I0609 14:12:28.107089 31468 net.cpp:434] conv8_1_relu <- conv8_1
I0609 14:12:28.107110 31468 net.cpp:395] conv8_1_relu -> conv8_1 (in-place)
I0609 14:12:28.107376 31468 net.cpp:150] Setting up conv8_1_relu
I0609 14:12:28.107393 31468 net.cpp:157] Top shape: 8 128 5 5 (25600)
I0609 14:12:28.107398 31468 net.cpp:165] Memory required for data: 1881686080
I0609 14:12:28.107404 31468 layer_factory.hpp:77] Creating layer conv8_2
I0609 14:12:28.107420 31468 net.cpp:100] Creating Layer conv8_2
I0609 14:12:28.107426 31468 net.cpp:434] conv8_2 <- conv8_1
I0609 14:12:28.107439 31468 net.cpp:408] conv8_2 -> conv8_2
I0609 14:12:28.112726 31468 net.cpp:150] Setting up conv8_2
I0609 14:12:28.112751 31468 net.cpp:157] Top shape: 8 256 3 3 (18432)
I0609 14:12:28.112758 31468 net.cpp:165] Memory required for data: 1881759808
I0609 14:12:28.112771 31468 layer_factory.hpp:77] Creating layer conv8_2_relu
I0609 14:12:28.112782 31468 net.cpp:100] Creating Layer conv8_2_relu
I0609 14:12:28.112792 31468 net.cpp:434] conv8_2_relu <- conv8_2
I0609 14:12:28.112802 31468 net.cpp:395] conv8_2_relu -> conv8_2 (in-place)
I0609 14:12:28.113376 31468 net.cpp:150] Setting up conv8_2_relu
I0609 14:12:28.113407 31468 net.cpp:157] Top shape: 8 256 3 3 (18432)
I0609 14:12:28.113414 31468 net.cpp:165] Memory required for data: 1881833536
I0609 14:12:28.113423 31468 layer_factory.hpp:77] Creating layer conv8_2_conv8_2_relu_0_split
I0609 14:12:28.113435 31468 net.cpp:100] Creating Layer conv8_2_conv8_2_relu_0_split
I0609 14:12:28.113445 31468 net.cpp:434] conv8_2_conv8_2_relu_0_split <- conv8_2
I0609 14:12:28.113453 31468 net.cpp:408] conv8_2_conv8_2_relu_0_split -> conv8_2_conv8_2_relu_0_split_0
I0609 14:12:28.113463 31468 net.cpp:408] conv8_2_conv8_2_relu_0_split -> conv8_2_conv8_2_relu_0_split_1
I0609 14:12:28.113472 31468 net.cpp:408] conv8_2_conv8_2_relu_0_split -> conv8_2_conv8_2_relu_0_split_2
I0609 14:12:28.113483 31468 net.cpp:408] conv8_2_conv8_2_relu_0_split -> conv8_2_conv8_2_relu_0_split_3
I0609 14:12:28.113600 31468 net.cpp:150] Setting up conv8_2_conv8_2_relu_0_split
I0609 14:12:28.113612 31468 net.cpp:157] Top shape: 8 256 3 3 (18432)
I0609 14:12:28.113620 31468 net.cpp:157] Top shape: 8 256 3 3 (18432)
I0609 14:12:28.113656 31468 net.cpp:157] Top shape: 8 256 3 3 (18432)
I0609 14:12:28.113663 31468 net.cpp:157] Top shape: 8 256 3 3 (18432)
I0609 14:12:28.113668 31468 net.cpp:165] Memory required for data: 1882128448
I0609 14:12:28.113673 31468 layer_factory.hpp:77] Creating layer conv9_1
I0609 14:12:28.113689 31468 net.cpp:100] Creating Layer conv9_1
I0609 14:12:28.113695 31468 net.cpp:434] conv9_1 <- conv8_2_conv8_2_relu_0_split_0
I0609 14:12:28.113708 31468 net.cpp:408] conv9_1 -> conv9_1
I0609 14:12:28.117383 31468 net.cpp:150] Setting up conv9_1
I0609 14:12:28.117408 31468 net.cpp:157] Top shape: 8 128 3 3 (9216)
I0609 14:12:28.117414 31468 net.cpp:165] Memory required for data: 1882165312
I0609 14:12:28.117424 31468 layer_factory.hpp:77] Creating layer conv9_1_relu
I0609 14:12:28.117434 31468 net.cpp:100] Creating Layer conv9_1_relu
I0609 14:12:28.117440 31468 net.cpp:434] conv9_1_relu <- conv9_1
I0609 14:12:28.117452 31468 net.cpp:395] conv9_1_relu -> conv9_1 (in-place)
I0609 14:12:28.117979 31468 net.cpp:150] Setting up conv9_1_relu
I0609 14:12:28.118000 31468 net.cpp:157] Top shape: 8 128 3 3 (9216)
I0609 14:12:28.118005 31468 net.cpp:165] Memory required for data: 1882202176
I0609 14:12:28.118010 31468 layer_factory.hpp:77] Creating layer conv9_2
I0609 14:12:28.118029 31468 net.cpp:100] Creating Layer conv9_2
I0609 14:12:28.118036 31468 net.cpp:434] conv9_2 <- conv9_1
I0609 14:12:28.118046 31468 net.cpp:408] conv9_2 -> conv9_2
I0609 14:12:28.123363 31468 net.cpp:150] Setting up conv9_2
I0609 14:12:28.123394 31468 net.cpp:157] Top shape: 8 256 1 1 (2048)
I0609 14:12:28.123400 31468 net.cpp:165] Memory required for data: 1882210368
I0609 14:12:28.123411 31468 layer_factory.hpp:77] Creating layer conv9_2_relu
I0609 14:12:28.123421 31468 net.cpp:100] Creating Layer conv9_2_relu
I0609 14:12:28.123428 31468 net.cpp:434] conv9_2_relu <- conv9_2
I0609 14:12:28.123440 31468 net.cpp:395] conv9_2_relu -> conv9_2 (in-place)
I0609 14:12:28.123725 31468 net.cpp:150] Setting up conv9_2_relu
I0609 14:12:28.123747 31468 net.cpp:157] Top shape: 8 256 1 1 (2048)
I0609 14:12:28.123752 31468 net.cpp:165] Memory required for data: 1882218560
I0609 14:12:28.123759 31468 layer_factory.hpp:77] Creating layer conv9_2_conv9_2_relu_0_split
I0609 14:12:28.123769 31468 net.cpp:100] Creating Layer conv9_2_conv9_2_relu_0_split
I0609 14:12:28.123775 31468 net.cpp:434] conv9_2_conv9_2_relu_0_split <- conv9_2
I0609 14:12:28.123787 31468 net.cpp:408] conv9_2_conv9_2_relu_0_split -> conv9_2_conv9_2_relu_0_split_0
I0609 14:12:28.123796 31468 net.cpp:408] conv9_2_conv9_2_relu_0_split -> conv9_2_conv9_2_relu_0_split_1
I0609 14:12:28.123808 31468 net.cpp:408] conv9_2_conv9_2_relu_0_split -> conv9_2_conv9_2_relu_0_split_2
I0609 14:12:28.123901 31468 net.cpp:150] Setting up conv9_2_conv9_2_relu_0_split
I0609 14:12:28.123914 31468 net.cpp:157] Top shape: 8 256 1 1 (2048)
I0609 14:12:28.123922 31468 net.cpp:157] Top shape: 8 256 1 1 (2048)
I0609 14:12:28.123929 31468 net.cpp:157] Top shape: 8 256 1 1 (2048)
I0609 14:12:28.123934 31468 net.cpp:165] Memory required for data: 1882243136
I0609 14:12:28.123940 31468 layer_factory.hpp:77] Creating layer conv4_3_norm
I0609 14:12:28.123960 31468 net.cpp:100] Creating Layer conv4_3_norm
I0609 14:12:28.123976 31468 net.cpp:434] conv4_3_norm <- conv4_3_relu4_3_0_split_1
I0609 14:12:28.123986 31468 net.cpp:408] conv4_3_norm -> conv4_3_norm
I0609 14:12:28.124254 31468 net.cpp:150] Setting up conv4_3_norm
I0609 14:12:28.124272 31468 net.cpp:157] Top shape: 8 512 38 38 (5914624)
I0609 14:12:28.124277 31468 net.cpp:165] Memory required for data: 1905901632
I0609 14:12:28.124286 31468 layer_factory.hpp:77] Creating layer conv4_3_norm_conv4_3_norm_0_split
I0609 14:12:28.124296 31468 net.cpp:100] Creating Layer conv4_3_norm_conv4_3_norm_0_split
I0609 14:12:28.124301 31468 net.cpp:434] conv4_3_norm_conv4_3_norm_0_split <- conv4_3_norm
I0609 14:12:28.124310 31468 net.cpp:408] conv4_3_norm_conv4_3_norm_0_split -> conv4_3_norm_conv4_3_norm_0_split_0
I0609 14:12:28.124318 31468 net.cpp:408] conv4_3_norm_conv4_3_norm_0_split -> conv4_3_norm_conv4_3_norm_0_split_1
I0609 14:12:28.124351 31468 net.cpp:408] conv4_3_norm_conv4_3_norm_0_split -> conv4_3_norm_conv4_3_norm_0_split_2
I0609 14:12:28.124431 31468 net.cpp:150] Setting up conv4_3_norm_conv4_3_norm_0_split
I0609 14:12:28.124445 31468 net.cpp:157] Top shape: 8 512 38 38 (5914624)
I0609 14:12:28.124452 31468 net.cpp:157] Top shape: 8 512 38 38 (5914624)
I0609 14:12:28.124459 31468 net.cpp:157] Top shape: 8 512 38 38 (5914624)
I0609 14:12:28.124465 31468 net.cpp:165] Memory required for data: 1976877120
I0609 14:12:28.124471 31468 layer_factory.hpp:77] Creating layer conv4_3_norm_mbox_loc
I0609 14:12:28.124482 31468 net.cpp:100] Creating Layer conv4_3_norm_mbox_loc
I0609 14:12:28.124490 31468 net.cpp:434] conv4_3_norm_mbox_loc <- conv4_3_norm_conv4_3_norm_0_split_0
I0609 14:12:28.124500 31468 net.cpp:408] conv4_3_norm_mbox_loc -> conv4_3_norm_mbox_loc
I0609 14:12:28.129075 31468 net.cpp:150] Setting up conv4_3_norm_mbox_loc
I0609 14:12:28.129101 31468 net.cpp:157] Top shape: 8 16 38 38 (184832)
I0609 14:12:28.129106 31468 net.cpp:165] Memory required for data: 1977616448
I0609 14:12:28.129115 31468 layer_factory.hpp:77] Creating layer conv4_3_norm_mbox_loc_perm
I0609 14:12:28.129132 31468 net.cpp:100] Creating Layer conv4_3_norm_mbox_loc_perm
I0609 14:12:28.129142 31468 net.cpp:434] conv4_3_norm_mbox_loc_perm <- conv4_3_norm_mbox_loc
I0609 14:12:28.129150 31468 net.cpp:408] conv4_3_norm_mbox_loc_perm -> conv4_3_norm_mbox_loc_perm
I0609 14:12:28.129319 31468 net.cpp:150] Setting up conv4_3_norm_mbox_loc_perm
I0609 14:12:28.129333 31468 net.cpp:157] Top shape: 8 38 38 16 (184832)
I0609 14:12:28.129338 31468 net.cpp:165] Memory required for data: 1978355776
I0609 14:12:28.129343 31468 layer_factory.hpp:77] Creating layer conv4_3_norm_mbox_loc_flat
I0609 14:12:28.129354 31468 net.cpp:100] Creating Layer conv4_3_norm_mbox_loc_flat
I0609 14:12:28.129359 31468 net.cpp:434] conv4_3_norm_mbox_loc_flat <- conv4_3_norm_mbox_loc_perm
I0609 14:12:28.129367 31468 net.cpp:408] conv4_3_norm_mbox_loc_flat -> conv4_3_norm_mbox_loc_flat
I0609 14:12:28.129413 31468 net.cpp:150] Setting up conv4_3_norm_mbox_loc_flat
I0609 14:12:28.129426 31468 net.cpp:157] Top shape: 8 23104 (184832)
I0609 14:12:28.129431 31468 net.cpp:165] Memory required for data: 1979095104
I0609 14:12:28.129436 31468 layer_factory.hpp:77] Creating layer conv4_3_norm_mbox_conf
I0609 14:12:28.129461 31468 net.cpp:100] Creating Layer conv4_3_norm_mbox_conf
I0609 14:12:28.129474 31468 net.cpp:434] conv4_3_norm_mbox_conf <- conv4_3_norm_conv4_3_norm_0_split_1
I0609 14:12:28.129484 31468 net.cpp:408] conv4_3_norm_mbox_conf -> conv4_3_norm_mbox_conf
I0609 14:12:28.132578 31468 net.cpp:150] Setting up conv4_3_norm_mbox_conf
I0609 14:12:28.132602 31468 net.cpp:157] Top shape: 8 12 38 38 (138624)
I0609 14:12:28.132608 31468 net.cpp:165] Memory required for data: 1979649600
I0609 14:12:28.132621 31468 layer_factory.hpp:77] Creating layer conv4_3_norm_mbox_conf_perm
I0609 14:12:28.132638 31468 net.cpp:100] Creating Layer conv4_3_norm_mbox_conf_perm
I0609 14:12:28.132647 31468 net.cpp:434] conv4_3_norm_mbox_conf_perm <- conv4_3_norm_mbox_conf
I0609 14:12:28.132655 31468 net.cpp:408] conv4_3_norm_mbox_conf_perm -> conv4_3_norm_mbox_conf_perm
I0609 14:12:28.132850 31468 net.cpp:150] Setting up conv4_3_norm_mbox_conf_perm
I0609 14:12:28.132864 31468 net.cpp:157] Top shape: 8 38 38 12 (138624)
I0609 14:12:28.132869 31468 net.cpp:165] Memory required for data: 1980204096
I0609 14:12:28.132875 31468 layer_factory.hpp:77] Creating layer conv4_3_norm_mbox_conf_flat
I0609 14:12:28.132889 31468 net.cpp:100] Creating Layer conv4_3_norm_mbox_conf_flat
I0609 14:12:28.132894 31468 net.cpp:434] conv4_3_norm_mbox_conf_flat <- conv4_3_norm_mbox_conf_perm
I0609 14:12:28.132905 31468 net.cpp:408] conv4_3_norm_mbox_conf_flat -> conv4_3_norm_mbox_conf_flat
I0609 14:12:28.132939 31468 net.cpp:150] Setting up conv4_3_norm_mbox_conf_flat
I0609 14:12:28.132964 31468 net.cpp:157] Top shape: 8 17328 (138624)
I0609 14:12:28.132969 31468 net.cpp:165] Memory required for data: 1980758592
I0609 14:12:28.132997 31468 layer_factory.hpp:77] Creating layer conv4_3_norm_mbox_priorbox
I0609 14:12:28.133010 31468 net.cpp:100] Creating Layer conv4_3_norm_mbox_priorbox
I0609 14:12:28.133018 31468 net.cpp:434] conv4_3_norm_mbox_priorbox <- conv4_3_norm_conv4_3_norm_0_split_2
I0609 14:12:28.133026 31468 net.cpp:434] conv4_3_norm_mbox_priorbox <- data_data_0_split_1
I0609 14:12:28.133035 31468 net.cpp:408] conv4_3_norm_mbox_priorbox -> conv4_3_norm_mbox_priorbox
I0609 14:12:28.133082 31468 net.cpp:150] Setting up conv4_3_norm_mbox_priorbox
I0609 14:12:28.133096 31468 net.cpp:157] Top shape: 1 2 23104 (46208)
I0609 14:12:28.133101 31468 net.cpp:165] Memory required for data: 1980943424
I0609 14:12:28.133107 31468 layer_factory.hpp:77] Creating layer fc7_mbox_loc
I0609 14:12:28.133123 31468 net.cpp:100] Creating Layer fc7_mbox_loc
I0609 14:12:28.133131 31468 net.cpp:434] fc7_mbox_loc <- fc7_relu7_0_split_1
I0609 14:12:28.133142 31468 net.cpp:408] fc7_mbox_loc -> fc7_mbox_loc
I0609 14:12:28.137907 31468 net.cpp:150] Setting up fc7_mbox_loc
I0609 14:12:28.137935 31468 net.cpp:157] Top shape: 8 24 19 19 (69312)
I0609 14:12:28.137941 31468 net.cpp:165] Memory required for data: 1981220672
I0609 14:12:28.137953 31468 layer_factory.hpp:77] Creating layer fc7_mbox_loc_perm
I0609 14:12:28.137966 31468 net.cpp:100] Creating Layer fc7_mbox_loc_perm
I0609 14:12:28.137974 31468 net.cpp:434] fc7_mbox_loc_perm <- fc7_mbox_loc
I0609 14:12:28.137984 31468 net.cpp:408] fc7_mbox_loc_perm -> fc7_mbox_loc_perm
I0609 14:12:28.138177 31468 net.cpp:150] Setting up fc7_mbox_loc_perm
I0609 14:12:28.138193 31468 net.cpp:157] Top shape: 8 19 19 24 (69312)
I0609 14:12:28.138200 31468 net.cpp:165] Memory required for data: 1981497920
I0609 14:12:28.138205 31468 layer_factory.hpp:77] Creating layer fc7_mbox_loc_flat
I0609 14:12:28.138212 31468 net.cpp:100] Creating Layer fc7_mbox_loc_flat
I0609 14:12:28.138219 31468 net.cpp:434] fc7_mbox_loc_flat <- fc7_mbox_loc_perm
I0609 14:12:28.138234 31468 net.cpp:408] fc7_mbox_loc_flat -> fc7_mbox_loc_flat
I0609 14:12:28.138269 31468 net.cpp:150] Setting up fc7_mbox_loc_flat
I0609 14:12:28.138289 31468 net.cpp:157] Top shape: 8 8664 (69312)
I0609 14:12:28.138295 31468 net.cpp:165] Memory required for data: 1981775168
I0609 14:12:28.138300 31468 layer_factory.hpp:77] Creating layer fc7_mbox_conf
I0609 14:12:28.138315 31468 net.cpp:100] Creating Layer fc7_mbox_conf
I0609 14:12:28.138324 31468 net.cpp:434] fc7_mbox_conf <- fc7_relu7_0_split_2
I0609 14:12:28.138332 31468 net.cpp:408] fc7_mbox_conf -> fc7_mbox_conf
I0609 14:12:28.142509 31468 net.cpp:150] Setting up fc7_mbox_conf
I0609 14:12:28.142535 31468 net.cpp:157] Top shape: 8 18 19 19 (51984)
I0609 14:12:28.142540 31468 net.cpp:165] Memory required for data: 1981983104
I0609 14:12:28.142550 31468 layer_factory.hpp:77] Creating layer fc7_mbox_conf_perm
I0609 14:12:28.142560 31468 net.cpp:100] Creating Layer fc7_mbox_conf_perm
I0609 14:12:28.142567 31468 net.cpp:434] fc7_mbox_conf_perm <- fc7_mbox_conf
I0609 14:12:28.142585 31468 net.cpp:408] fc7_mbox_conf_perm -> fc7_mbox_conf_perm
I0609 14:12:28.142755 31468 net.cpp:150] Setting up fc7_mbox_conf_perm
I0609 14:12:28.142766 31468 net.cpp:157] Top shape: 8 19 19 18 (51984)
I0609 14:12:28.142772 31468 net.cpp:165] Memory required for data: 1982191040
I0609 14:12:28.142777 31468 layer_factory.hpp:77] Creating layer fc7_mbox_conf_flat
I0609 14:12:28.142787 31468 net.cpp:100] Creating Layer fc7_mbox_conf_flat
I0609 14:12:28.142793 31468 net.cpp:434] fc7_mbox_conf_flat <- fc7_mbox_conf_perm
I0609 14:12:28.142801 31468 net.cpp:408] fc7_mbox_conf_flat -> fc7_mbox_conf_flat
I0609 14:12:28.142832 31468 net.cpp:150] Setting up fc7_mbox_conf_flat
I0609 14:12:28.142843 31468 net.cpp:157] Top shape: 8 6498 (51984)
I0609 14:12:28.142848 31468 net.cpp:165] Memory required for data: 1982398976
I0609 14:12:28.142853 31468 layer_factory.hpp:77] Creating layer fc7_mbox_priorbox
I0609 14:12:28.142864 31468 net.cpp:100] Creating Layer fc7_mbox_priorbox
I0609 14:12:28.142873 31468 net.cpp:434] fc7_mbox_priorbox <- fc7_relu7_0_split_3
I0609 14:12:28.142901 31468 net.cpp:434] fc7_mbox_priorbox <- data_data_0_split_2
I0609 14:12:28.142910 31468 net.cpp:408] fc7_mbox_priorbox -> fc7_mbox_priorbox
I0609 14:12:28.142947 31468 net.cpp:150] Setting up fc7_mbox_priorbox
I0609 14:12:28.142958 31468 net.cpp:157] Top shape: 1 2 8664 (17328)
I0609 14:12:28.142985 31468 net.cpp:165] Memory required for data: 1982468288
I0609 14:12:28.142990 31468 layer_factory.hpp:77] Creating layer conv6_2_mbox_loc
I0609 14:12:28.143004 31468 net.cpp:100] Creating Layer conv6_2_mbox_loc
I0609 14:12:28.143012 31468 net.cpp:434] conv6_2_mbox_loc <- conv6_2_conv6_2_relu_0_split_1
I0609 14:12:28.143023 31468 net.cpp:408] conv6_2_mbox_loc -> conv6_2_mbox_loc
I0609 14:12:28.147035 31468 net.cpp:150] Setting up conv6_2_mbox_loc
I0609 14:12:28.147063 31468 net.cpp:157] Top shape: 8 24 10 10 (19200)
I0609 14:12:28.147069 31468 net.cpp:165] Memory required for data: 1982545088
I0609 14:12:28.147080 31468 layer_factory.hpp:77] Creating layer conv6_2_mbox_loc_perm
I0609 14:12:28.147099 31468 net.cpp:100] Creating Layer conv6_2_mbox_loc_perm
I0609 14:12:28.147107 31468 net.cpp:434] conv6_2_mbox_loc_perm <- conv6_2_mbox_loc
I0609 14:12:28.147116 31468 net.cpp:408] conv6_2_mbox_loc_perm -> conv6_2_mbox_loc_perm
I0609 14:12:28.147320 31468 net.cpp:150] Setting up conv6_2_mbox_loc_perm
I0609 14:12:28.147332 31468 net.cpp:157] Top shape: 8 10 10 24 (19200)
I0609 14:12:28.147338 31468 net.cpp:165] Memory required for data: 1982621888
I0609 14:12:28.147344 31468 layer_factory.hpp:77] Creating layer conv6_2_mbox_loc_flat
I0609 14:12:28.147356 31468 net.cpp:100] Creating Layer conv6_2_mbox_loc_flat
I0609 14:12:28.147362 31468 net.cpp:434] conv6_2_mbox_loc_flat <- conv6_2_mbox_loc_perm
I0609 14:12:28.147370 31468 net.cpp:408] conv6_2_mbox_loc_flat -> conv6_2_mbox_loc_flat
I0609 14:12:28.147410 31468 net.cpp:150] Setting up conv6_2_mbox_loc_flat
I0609 14:12:28.147419 31468 net.cpp:157] Top shape: 8 2400 (19200)
I0609 14:12:28.147424 31468 net.cpp:165] Memory required for data: 1982698688
I0609 14:12:28.147431 31468 layer_factory.hpp:77] Creating layer conv6_2_mbox_conf
I0609 14:12:28.147446 31468 net.cpp:100] Creating Layer conv6_2_mbox_conf
I0609 14:12:28.147454 31468 net.cpp:434] conv6_2_mbox_conf <- conv6_2_conv6_2_relu_0_split_2
I0609 14:12:28.147466 31468 net.cpp:408] conv6_2_mbox_conf -> conv6_2_mbox_conf
I0609 14:12:28.151702 31468 net.cpp:150] Setting up conv6_2_mbox_conf
I0609 14:12:28.151728 31468 net.cpp:157] Top shape: 8 18 10 10 (14400)
I0609 14:12:28.151733 31468 net.cpp:165] Memory required for data: 1982756288
I0609 14:12:28.151743 31468 layer_factory.hpp:77] Creating layer conv6_2_mbox_conf_perm
I0609 14:12:28.151753 31468 net.cpp:100] Creating Layer conv6_2_mbox_conf_perm
I0609 14:12:28.151759 31468 net.cpp:434] conv6_2_mbox_conf_perm <- conv6_2_mbox_conf
I0609 14:12:28.151775 31468 net.cpp:408] conv6_2_mbox_conf_perm -> conv6_2_mbox_conf_perm
I0609 14:12:28.151947 31468 net.cpp:150] Setting up conv6_2_mbox_conf_perm
I0609 14:12:28.151958 31468 net.cpp:157] Top shape: 8 10 10 18 (14400)
I0609 14:12:28.151963 31468 net.cpp:165] Memory required for data: 1982813888
I0609 14:12:28.151969 31468 layer_factory.hpp:77] Creating layer conv6_2_mbox_conf_flat
I0609 14:12:28.151978 31468 net.cpp:100] Creating Layer conv6_2_mbox_conf_flat
I0609 14:12:28.151985 31468 net.cpp:434] conv6_2_mbox_conf_flat <- conv6_2_mbox_conf_perm
I0609 14:12:28.151994 31468 net.cpp:408] conv6_2_mbox_conf_flat -> conv6_2_mbox_conf_flat
I0609 14:12:28.152024 31468 net.cpp:150] Setting up conv6_2_mbox_conf_flat
I0609 14:12:28.152036 31468 net.cpp:157] Top shape: 8 1800 (14400)
I0609 14:12:28.152040 31468 net.cpp:165] Memory required for data: 1982871488
I0609 14:12:28.152045 31468 layer_factory.hpp:77] Creating layer conv6_2_mbox_priorbox
I0609 14:12:28.152057 31468 net.cpp:100] Creating Layer conv6_2_mbox_priorbox
I0609 14:12:28.152062 31468 net.cpp:434] conv6_2_mbox_priorbox <- conv6_2_conv6_2_relu_0_split_3
I0609 14:12:28.152070 31468 net.cpp:434] conv6_2_mbox_priorbox <- data_data_0_split_3
I0609 14:12:28.152120 31468 net.cpp:408] conv6_2_mbox_priorbox -> conv6_2_mbox_priorbox
I0609 14:12:28.152164 31468 net.cpp:150] Setting up conv6_2_mbox_priorbox
I0609 14:12:28.152178 31468 net.cpp:157] Top shape: 1 2 2400 (4800)
I0609 14:12:28.152184 31468 net.cpp:165] Memory required for data: 1982890688
I0609 14:12:28.152189 31468 layer_factory.hpp:77] Creating layer conv7_2_mbox_loc
I0609 14:12:28.152204 31468 net.cpp:100] Creating Layer conv7_2_mbox_loc
I0609 14:12:28.152212 31468 net.cpp:434] conv7_2_mbox_loc <- conv7_2_conv7_2_relu_0_split_1
I0609 14:12:28.152223 31468 net.cpp:408] conv7_2_mbox_loc -> conv7_2_mbox_loc
I0609 14:12:28.154677 31468 net.cpp:150] Setting up conv7_2_mbox_loc
I0609 14:12:28.154711 31468 net.cpp:157] Top shape: 8 24 5 5 (4800)
I0609 14:12:28.154716 31468 net.cpp:165] Memory required for data: 1982909888
I0609 14:12:28.154726 31468 layer_factory.hpp:77] Creating layer conv7_2_mbox_loc_perm
I0609 14:12:28.154739 31468 net.cpp:100] Creating Layer conv7_2_mbox_loc_perm
I0609 14:12:28.154747 31468 net.cpp:434] conv7_2_mbox_loc_perm <- conv7_2_mbox_loc
I0609 14:12:28.154757 31468 net.cpp:408] conv7_2_mbox_loc_perm -> conv7_2_mbox_loc_perm
I0609 14:12:28.154988 31468 net.cpp:150] Setting up conv7_2_mbox_loc_perm
I0609 14:12:28.155000 31468 net.cpp:157] Top shape: 8 5 5 24 (4800)
I0609 14:12:28.155005 31468 net.cpp:165] Memory required for data: 1982929088
I0609 14:12:28.155011 31468 layer_factory.hpp:77] Creating layer conv7_2_mbox_loc_flat
I0609 14:12:28.155019 31468 net.cpp:100] Creating Layer conv7_2_mbox_loc_flat
I0609 14:12:28.155026 31468 net.cpp:434] conv7_2_mbox_loc_flat <- conv7_2_mbox_loc_perm
I0609 14:12:28.155035 31468 net.cpp:408] conv7_2_mbox_loc_flat -> conv7_2_mbox_loc_flat
I0609 14:12:28.155072 31468 net.cpp:150] Setting up conv7_2_mbox_loc_flat
I0609 14:12:28.155083 31468 net.cpp:157] Top shape: 8 600 (4800)
I0609 14:12:28.155088 31468 net.cpp:165] Memory required for data: 1982948288
I0609 14:12:28.155094 31468 layer_factory.hpp:77] Creating layer conv7_2_mbox_conf
I0609 14:12:28.155108 31468 net.cpp:100] Creating Layer conv7_2_mbox_conf
I0609 14:12:28.155134 31468 net.cpp:434] conv7_2_mbox_conf <- conv7_2_conv7_2_relu_0_split_2
I0609 14:12:28.155146 31468 net.cpp:408] conv7_2_mbox_conf -> conv7_2_mbox_conf
I0609 14:12:28.157486 31468 net.cpp:150] Setting up conv7_2_mbox_conf
I0609 14:12:28.157510 31468 net.cpp:157] Top shape: 8 18 5 5 (3600)
I0609 14:12:28.157516 31468 net.cpp:165] Memory required for data: 1982962688
I0609 14:12:28.157526 31468 layer_factory.hpp:77] Creating layer conv7_2_mbox_conf_perm
I0609 14:12:28.157537 31468 net.cpp:100] Creating Layer conv7_2_mbox_conf_perm
I0609 14:12:28.157544 31468 net.cpp:434] conv7_2_mbox_conf_perm <- conv7_2_mbox_conf
I0609 14:12:28.157557 31468 net.cpp:408] conv7_2_mbox_conf_perm -> conv7_2_mbox_conf_perm
I0609 14:12:28.157729 31468 net.cpp:150] Setting up conv7_2_mbox_conf_perm
I0609 14:12:28.157742 31468 net.cpp:157] Top shape: 8 5 5 18 (3600)
I0609 14:12:28.157748 31468 net.cpp:165] Memory required for data: 1982977088
I0609 14:12:28.157753 31468 layer_factory.hpp:77] Creating layer conv7_2_mbox_conf_flat
I0609 14:12:28.157760 31468 net.cpp:100] Creating Layer conv7_2_mbox_conf_flat
I0609 14:12:28.157766 31468 net.cpp:434] conv7_2_mbox_conf_flat <- conv7_2_mbox_conf_perm
I0609 14:12:28.157773 31468 net.cpp:408] conv7_2_mbox_conf_flat -> conv7_2_mbox_conf_flat
I0609 14:12:28.157805 31468 net.cpp:150] Setting up conv7_2_mbox_conf_flat
I0609 14:12:28.157814 31468 net.cpp:157] Top shape: 8 450 (3600)
I0609 14:12:28.157819 31468 net.cpp:165] Memory required for data: 1982991488
I0609 14:12:28.157824 31468 layer_factory.hpp:77] Creating layer conv7_2_mbox_priorbox
I0609 14:12:28.157832 31468 net.cpp:100] Creating Layer conv7_2_mbox_priorbox
I0609 14:12:28.157838 31468 net.cpp:434] conv7_2_mbox_priorbox <- conv7_2_conv7_2_relu_0_split_3
I0609 14:12:28.157845 31468 net.cpp:434] conv7_2_mbox_priorbox <- data_data_0_split_4
I0609 14:12:28.157851 31468 net.cpp:408] conv7_2_mbox_priorbox -> conv7_2_mbox_priorbox
I0609 14:12:28.157917 31468 net.cpp:150] Setting up conv7_2_mbox_priorbox
I0609 14:12:28.157924 31468 net.cpp:157] Top shape: 1 2 600 (1200)
I0609 14:12:28.157929 31468 net.cpp:165] Memory required for data: 1982996288
I0609 14:12:28.157934 31468 layer_factory.hpp:77] Creating layer conv8_2_mbox_loc
I0609 14:12:28.157948 31468 net.cpp:100] Creating Layer conv8_2_mbox_loc
I0609 14:12:28.157954 31468 net.cpp:434] conv8_2_mbox_loc <- conv8_2_conv8_2_relu_0_split_1
I0609 14:12:28.157964 31468 net.cpp:408] conv8_2_mbox_loc -> conv8_2_mbox_loc
I0609 14:12:28.160233 31468 net.cpp:150] Setting up conv8_2_mbox_loc
I0609 14:12:28.160257 31468 net.cpp:157] Top shape: 8 16 3 3 (1152)
I0609 14:12:28.160264 31468 net.cpp:165] Memory required for data: 1983000896
I0609 14:12:28.160290 31468 layer_factory.hpp:77] Creating layer conv8_2_mbox_loc_perm
I0609 14:12:28.160307 31468 net.cpp:100] Creating Layer conv8_2_mbox_loc_perm
I0609 14:12:28.160315 31468 net.cpp:434] conv8_2_mbox_loc_perm <- conv8_2_mbox_loc
I0609 14:12:28.160322 31468 net.cpp:408] conv8_2_mbox_loc_perm -> conv8_2_mbox_loc_perm
I0609 14:12:28.160502 31468 net.cpp:150] Setting up conv8_2_mbox_loc_perm
I0609 14:12:28.160516 31468 net.cpp:157] Top shape: 8 3 3 16 (1152)
I0609 14:12:28.160522 31468 net.cpp:165] Memory required for data: 1983005504
I0609 14:12:28.160527 31468 layer_factory.hpp:77] Creating layer conv8_2_mbox_loc_flat
I0609 14:12:28.160534 31468 net.cpp:100] Creating Layer conv8_2_mbox_loc_flat
I0609 14:12:28.160539 31468 net.cpp:434] conv8_2_mbox_loc_flat <- conv8_2_mbox_loc_perm
I0609 14:12:28.160548 31468 net.cpp:408] conv8_2_mbox_loc_flat -> conv8_2_mbox_loc_flat
I0609 14:12:28.160579 31468 net.cpp:150] Setting up conv8_2_mbox_loc_flat
I0609 14:12:28.160588 31468 net.cpp:157] Top shape: 8 144 (1152)
I0609 14:12:28.160593 31468 net.cpp:165] Memory required for data: 1983010112
I0609 14:12:28.160598 31468 layer_factory.hpp:77] Creating layer conv8_2_mbox_conf
I0609 14:12:28.160610 31468 net.cpp:100] Creating Layer conv8_2_mbox_conf
I0609 14:12:28.160617 31468 net.cpp:434] conv8_2_mbox_conf <- conv8_2_conv8_2_relu_0_split_2
I0609 14:12:28.160625 31468 net.cpp:408] conv8_2_mbox_conf -> conv8_2_mbox_conf
I0609 14:12:28.162822 31468 net.cpp:150] Setting up conv8_2_mbox_conf
I0609 14:12:28.162847 31468 net.cpp:157] Top shape: 8 12 3 3 (864)
I0609 14:12:28.162853 31468 net.cpp:165] Memory required for data: 1983013568
I0609 14:12:28.162863 31468 layer_factory.hpp:77] Creating layer conv8_2_mbox_conf_perm
I0609 14:12:28.162873 31468 net.cpp:100] Creating Layer conv8_2_mbox_conf_perm
I0609 14:12:28.162879 31468 net.cpp:434] conv8_2_mbox_conf_perm <- conv8_2_mbox_conf
I0609 14:12:28.162889 31468 net.cpp:408] conv8_2_mbox_conf_perm -> conv8_2_mbox_conf_perm
I0609 14:12:28.163080 31468 net.cpp:150] Setting up conv8_2_mbox_conf_perm
I0609 14:12:28.163095 31468 net.cpp:157] Top shape: 8 3 3 12 (864)
I0609 14:12:28.163100 31468 net.cpp:165] Memory required for data: 1983017024
I0609 14:12:28.163105 31468 layer_factory.hpp:77] Creating layer conv8_2_mbox_conf_flat
I0609 14:12:28.163112 31468 net.cpp:100] Creating Layer conv8_2_mbox_conf_flat
I0609 14:12:28.163118 31468 net.cpp:434] conv8_2_mbox_conf_flat <- conv8_2_mbox_conf_perm
I0609 14:12:28.163127 31468 net.cpp:408] conv8_2_mbox_conf_flat -> conv8_2_mbox_conf_flat
I0609 14:12:28.163161 31468 net.cpp:150] Setting up conv8_2_mbox_conf_flat
I0609 14:12:28.163168 31468 net.cpp:157] Top shape: 8 108 (864)
I0609 14:12:28.163173 31468 net.cpp:165] Memory required for data: 1983020480
I0609 14:12:28.163178 31468 layer_factory.hpp:77] Creating layer conv8_2_mbox_priorbox
I0609 14:12:28.163187 31468 net.cpp:100] Creating Layer conv8_2_mbox_priorbox
I0609 14:12:28.163192 31468 net.cpp:434] conv8_2_mbox_priorbox <- conv8_2_conv8_2_relu_0_split_3
I0609 14:12:28.163198 31468 net.cpp:434] conv8_2_mbox_priorbox <- data_data_0_split_5
I0609 14:12:28.163208 31468 net.cpp:408] conv8_2_mbox_priorbox -> conv8_2_mbox_priorbox
I0609 14:12:28.163244 31468 net.cpp:150] Setting up conv8_2_mbox_priorbox
I0609 14:12:28.163256 31468 net.cpp:157] Top shape: 1 2 144 (288)
I0609 14:12:28.163278 31468 net.cpp:165] Memory required for data: 1983021632
I0609 14:12:28.163283 31468 layer_factory.hpp:77] Creating layer conv9_2_mbox_loc
I0609 14:12:28.163296 31468 net.cpp:100] Creating Layer conv9_2_mbox_loc
I0609 14:12:28.163302 31468 net.cpp:434] conv9_2_mbox_loc <- conv9_2_conv9_2_relu_0_split_0
I0609 14:12:28.163313 31468 net.cpp:408] conv9_2_mbox_loc -> conv9_2_mbox_loc
I0609 14:12:28.165665 31468 net.cpp:150] Setting up conv9_2_mbox_loc
I0609 14:12:28.165696 31468 net.cpp:157] Top shape: 8 16 1 1 (128)
I0609 14:12:28.165702 31468 net.cpp:165] Memory required for data: 1983022144
I0609 14:12:28.165715 31468 layer_factory.hpp:77] Creating layer conv9_2_mbox_loc_perm
I0609 14:12:28.165726 31468 net.cpp:100] Creating Layer conv9_2_mbox_loc_perm
I0609 14:12:28.165736 31468 net.cpp:434] conv9_2_mbox_loc_perm <- conv9_2_mbox_loc
I0609 14:12:28.165747 31468 net.cpp:408] conv9_2_mbox_loc_perm -> conv9_2_mbox_loc_perm
I0609 14:12:28.165968 31468 net.cpp:150] Setting up conv9_2_mbox_loc_perm
I0609 14:12:28.165987 31468 net.cpp:157] Top shape: 8 1 1 16 (128)
I0609 14:12:28.165992 31468 net.cpp:165] Memory required for data: 1983022656
I0609 14:12:28.165998 31468 layer_factory.hpp:77] Creating layer conv9_2_mbox_loc_flat
I0609 14:12:28.166007 31468 net.cpp:100] Creating Layer conv9_2_mbox_loc_flat
I0609 14:12:28.166013 31468 net.cpp:434] conv9_2_mbox_loc_flat <- conv9_2_mbox_loc_perm
I0609 14:12:28.166021 31468 net.cpp:408] conv9_2_mbox_loc_flat -> conv9_2_mbox_loc_flat
I0609 14:12:28.166059 31468 net.cpp:150] Setting up conv9_2_mbox_loc_flat
I0609 14:12:28.166072 31468 net.cpp:157] Top shape: 8 16 (128)
I0609 14:12:28.166077 31468 net.cpp:165] Memory required for data: 1983023168
I0609 14:12:28.166084 31468 layer_factory.hpp:77] Creating layer conv9_2_mbox_conf
I0609 14:12:28.166098 31468 net.cpp:100] Creating Layer conv9_2_mbox_conf
I0609 14:12:28.166105 31468 net.cpp:434] conv9_2_mbox_conf <- conv9_2_conv9_2_relu_0_split_1
I0609 14:12:28.166116 31468 net.cpp:408] conv9_2_mbox_conf -> conv9_2_mbox_conf
I0609 14:12:28.168702 31468 net.cpp:150] Setting up conv9_2_mbox_conf
I0609 14:12:28.168728 31468 net.cpp:157] Top shape: 8 12 1 1 (96)
I0609 14:12:28.168733 31468 net.cpp:165] Memory required for data: 1983023552
I0609 14:12:28.168743 31468 layer_factory.hpp:77] Creating layer conv9_2_mbox_conf_perm
I0609 14:12:28.168756 31468 net.cpp:100] Creating Layer conv9_2_mbox_conf_perm
I0609 14:12:28.168761 31468 net.cpp:434] conv9_2_mbox_conf_perm <- conv9_2_mbox_conf
I0609 14:12:28.168771 31468 net.cpp:408] conv9_2_mbox_conf_perm -> conv9_2_mbox_conf_perm
I0609 14:12:28.168984 31468 net.cpp:150] Setting up conv9_2_mbox_conf_perm
I0609 14:12:28.168999 31468 net.cpp:157] Top shape: 8 1 1 12 (96)
I0609 14:12:28.169005 31468 net.cpp:165] Memory required for data: 1983023936
I0609 14:12:28.169011 31468 layer_factory.hpp:77] Creating layer conv9_2_mbox_conf_flat
I0609 14:12:28.169020 31468 net.cpp:100] Creating Layer conv9_2_mbox_conf_flat
I0609 14:12:28.169026 31468 net.cpp:434] conv9_2_mbox_conf_flat <- conv9_2_mbox_conf_perm
I0609 14:12:28.169034 31468 net.cpp:408] conv9_2_mbox_conf_flat -> conv9_2_mbox_conf_flat
I0609 14:12:28.169073 31468 net.cpp:150] Setting up conv9_2_mbox_conf_flat
I0609 14:12:28.169085 31468 net.cpp:157] Top shape: 8 12 (96)
I0609 14:12:28.169090 31468 net.cpp:165] Memory required for data: 1983024320
I0609 14:12:28.169096 31468 layer_factory.hpp:77] Creating layer conv9_2_mbox_priorbox
I0609 14:12:28.169108 31468 net.cpp:100] Creating Layer conv9_2_mbox_priorbox
I0609 14:12:28.169114 31468 net.cpp:434] conv9_2_mbox_priorbox <- conv9_2_conv9_2_relu_0_split_2
I0609 14:12:28.169121 31468 net.cpp:434] conv9_2_mbox_priorbox <- data_data_0_split_6
I0609 14:12:28.169129 31468 net.cpp:408] conv9_2_mbox_priorbox -> conv9_2_mbox_priorbox
I0609 14:12:28.169170 31468 net.cpp:150] Setting up conv9_2_mbox_priorbox
I0609 14:12:28.169183 31468 net.cpp:157] Top shape: 1 2 16 (32)
I0609 14:12:28.169188 31468 net.cpp:165] Memory required for data: 1983024448
I0609 14:12:28.169193 31468 layer_factory.hpp:77] Creating layer mbox_loc
I0609 14:12:28.169225 31468 net.cpp:100] Creating Layer mbox_loc
I0609 14:12:28.169232 31468 net.cpp:434] mbox_loc <- conv4_3_norm_mbox_loc_flat
I0609 14:12:28.169240 31468 net.cpp:434] mbox_loc <- fc7_mbox_loc_flat
I0609 14:12:28.169247 31468 net.cpp:434] mbox_loc <- conv6_2_mbox_loc_flat
I0609 14:12:28.169255 31468 net.cpp:434] mbox_loc <- conv7_2_mbox_loc_flat
I0609 14:12:28.169262 31468 net.cpp:434] mbox_loc <- conv8_2_mbox_loc_flat
I0609 14:12:28.169268 31468 net.cpp:434] mbox_loc <- conv9_2_mbox_loc_flat
I0609 14:12:28.169277 31468 net.cpp:408] mbox_loc -> mbox_loc
I0609 14:12:28.169332 31468 net.cpp:150] Setting up mbox_loc
I0609 14:12:28.169345 31468 net.cpp:157] Top shape: 8 34928 (279424)
I0609 14:12:28.169351 31468 net.cpp:165] Memory required for data: 1984142144
I0609 14:12:28.169356 31468 layer_factory.hpp:77] Creating layer mbox_conf
I0609 14:12:28.169365 31468 net.cpp:100] Creating Layer mbox_conf
I0609 14:12:28.169376 31468 net.cpp:434] mbox_conf <- conv4_3_norm_mbox_conf_flat
I0609 14:12:28.169383 31468 net.cpp:434] mbox_conf <- fc7_mbox_conf_flat
I0609 14:12:28.169389 31468 net.cpp:434] mbox_conf <- conv6_2_mbox_conf_flat
I0609 14:12:28.169395 31468 net.cpp:434] mbox_conf <- conv7_2_mbox_conf_flat
I0609 14:12:28.169400 31468 net.cpp:434] mbox_conf <- conv8_2_mbox_conf_flat
I0609 14:12:28.169406 31468 net.cpp:434] mbox_conf <- conv9_2_mbox_conf_flat
I0609 14:12:28.169414 31468 net.cpp:408] mbox_conf -> mbox_conf
I0609 14:12:28.169445 31468 net.cpp:150] Setting up mbox_conf
I0609 14:12:28.169457 31468 net.cpp:157] Top shape: 8 26196 (209568)
I0609 14:12:28.169462 31468 net.cpp:165] Memory required for data: 1984980416
I0609 14:12:28.169466 31468 layer_factory.hpp:77] Creating layer mbox_priorbox
I0609 14:12:28.169476 31468 net.cpp:100] Creating Layer mbox_priorbox
I0609 14:12:28.169482 31468 net.cpp:434] mbox_priorbox <- conv4_3_norm_mbox_priorbox
I0609 14:12:28.169488 31468 net.cpp:434] mbox_priorbox <- fc7_mbox_priorbox
I0609 14:12:28.169494 31468 net.cpp:434] mbox_priorbox <- conv6_2_mbox_priorbox
I0609 14:12:28.169500 31468 net.cpp:434] mbox_priorbox <- conv7_2_mbox_priorbox
I0609 14:12:28.169505 31468 net.cpp:434] mbox_priorbox <- conv8_2_mbox_priorbox
I0609 14:12:28.169510 31468 net.cpp:434] mbox_priorbox <- conv9_2_mbox_priorbox
I0609 14:12:28.169517 31468 net.cpp:408] mbox_priorbox -> mbox_priorbox
I0609 14:12:28.169549 31468 net.cpp:150] Setting up mbox_priorbox
I0609 14:12:28.169560 31468 net.cpp:157] Top shape: 1 2 34928 (69856)
I0609 14:12:28.169565 31468 net.cpp:165] Memory required for data: 1985259840
I0609 14:12:28.169570 31468 layer_factory.hpp:77] Creating layer mbox_loss
I0609 14:12:28.169589 31468 net.cpp:100] Creating Layer mbox_loss
I0609 14:12:28.169602 31468 net.cpp:434] mbox_loss <- mbox_loc
I0609 14:12:28.169610 31468 net.cpp:434] mbox_loss <- mbox_conf
I0609 14:12:28.169615 31468 net.cpp:434] mbox_loss <- mbox_priorbox
…
  phase: TEST
}
layer {
  name: "data"
  type: "AnnotatedData"
  top: "data"
  top: "label"
  include {
    phase: TEST
  }
  transform_param {
    mean_value: 104
    mean_value: 117
    mean_value: 123
    resize_param {
      prob: 1
      resize_mode: WARP
      height: 300
      width: 300
      interp_mode: LINEAR
    }
  }
  data_param {
    source: "examples/TOTEBALL/TOTEBALL_test_lmdb"
    batch_size: 4
    backend: LMDB
  }
  annotated_data_param {
    batch_sampler {
    }
    label_map_file: "data/TOTEBALL/labelmap_toteball.prototxt"
  }
}
layer {
  name: "conv1_1"
  type: "Convolution"
  bottom: "data"
  top: "conv1_1"
  param {
    lr_mult: 1
    decay_mult: 1
  }
  param {
    lr_mult: 2
    decay_mult: 0
  }
  convolution_param {
    num_output: 64
    pad: 1
    kernel_size: 3
    weight_filler {
      type: "xavier"
    }
    bias_filler {
      type: "constant"
      value: 0
    }
  }
}
layer {
  name: "relu1_1"
  type: "ReLU"
  bottom: "conv1_1"
  top: "conv1_1"
}
layer {
  name: "conv1_2"
  type: "Convolution"
  bottom: "conv1_1"
  top: "conv1_2"
  param {
    lr_mult: 1
    decay_mult: 1
  }
  param {
    lr_mult: 2
    decay_mult: 0
  }
  convolution_param {
    num_output: 64
    pad: 1
    kernel_size: 3
    weight_filler {
      type: "xavier"
    }
    bias_filler {
      type: "constant"
      value: 0
    }
  }
}
layer {
  name: "relu1_2"
  type: "ReLU"
  bottom: "conv1_2"
  top: "conv1_2"
}
layer {
  name: "pool1"
  type: "Pooling"
  bottom: "conv1_2"
  top: "pool1"
  pooling_param {
    pool: MAX
    kernel_size: 2
    stride: 2
  }
}
layer {
  name: "conv2_1"
  type: "Convolution"
  bottom: "pool1"
  top: "conv2_1"
  param {
    lr_mult: 1
    decay_mult: 1
  }
  param {
    lr_mult: 2
    decay_mult: 0
  }
  convolution_param {
    num_output: 128
    pad: 1
    kernel_size: 3
    weight_filler {
      type: "xavier"
    }
    bias_filler {
      type: "constant"
      value: 0
    }
  }
}
layer {
  name: "relu2_1"
  type: "ReLU"
  bottom: "conv2_1"
  top: "conv2_1"
}
layer {
  name: "conv2_2"
  type: "Convolution"
  bottom: "conv2_1"
  top: "conv2_2"
  param {
    lr_mult: 1
    decay_mult: 1
  }
  param {
    lr_mult: 2
    decay_mult: 0
  }
  convolution_param {
    num_output: 128
    pad: 1
    kernel_size: 3
    weight_filler {
      type: "xavier"
    }
    bias_filler {
      type: "constant"
      value: 0
    }
  }
}
layer {
  name: "relu2_2"
  type: "ReLU"
  bottom: "conv2_2"
  top: "conv2_2"
}
layer {
  name: "pool2"
  type: "Pooling"
  bottom: "conv2_2"
  top: "pool2"
  pooling_param {
    pool: MAX
    kernel_size: 2
    stride: 2
  }
}
layer {
  name: "conv3_1"
  type: "Convolution"
  bottom: "pool2"
  top: "conv3_1"
  param {
    lr_mult: 1
    decay_mult: 1
  }
  param {
    lr_mult: 2
    decay_mult: 0
  }
  convolution_param {
    num_output: 256
    pad: 1
    kernel_size: 3
    weight_filler {
      type: "xavier"
    }
    bias_filler {
      type: "constant"
      value: 0
    }
  }
}
layer {
  name: "relu3_1"
  type: "ReLU"
  bottom: "conv3_1"
  top: "conv3_1"
}
layer {
  name: "conv3_2"
  type: "Convolution"
  bottom: "conv3_1"
  top: "conv3_2"
  param {
    lr_mult: 1
    decay_mult: 1
  }
  param {
    lr_mult: 2
    decay_mult: 0
  }
  convolution_param {
    num_output: 256
    pad: 1
    kernel_size: 3
    weight_filler {
      type: "xavier"
    }
    bias_filler {
      type: "constant"
      value: 0
    }
  }
}
layer {
  name: "relu3_2"
  type: "ReLU"
  bottom: "conv3_2"
  top: "conv3_2"
}
layer {
  name: "conv3_3"
  type: "Convolution"
  bottom: "conv3_2"
  top: "conv3_3"
  param {
    lr_mult: 1
    decay_mult: 1
  }
  param {
    lr_mult: 2
    decay_mult: 0
  }
  convolution_param {
    num_output: 256
    pad: 1
    kernel_size: 3
    weight_filler {
      type: "xavier"
    }
    bias_filler {
      type: "constant"
      value: 0
    }
  }
}
layer {
  name: "relu3_3"
  type: "ReLU"
  bottom: "conv3_3"
  top: "conv3_3"
}
layer {
  name: "pool3"
  type: "Pooling"
  bottom: "conv3_3"
  top: "pool3"
  pooling_param {
    pool: MAX
    kernel_size: 2
    stride: 2
  }
}
layer {
  name: "conv4_1"
  type: "Convolution"
  bottom: "pool3"
  top: "conv4_1"
  param {
    lr_mult: 1
    decay_mult: 1
  }
  param {
    lr_mult: 2
    decay_mult: 0
  }
  convolution_param {
    num_output: 512
    pad: 1
    kernel_size: 3
    weight_filler {
      type: "xavier"
    }
    bias_filler {
      type: "constant"
      value: 0
    }
  }
}
layer {
  name: "relu4_1"
  type: "ReLU"
  bottom: "conv4_1"
  top: "conv4_1"
}
layer {
  name: "conv4_2"
  type: "Convolution"
  bottom: "conv4_1"
  top: "conv4_2"
  param {
    lr_mult: 1
    decay_mult: 1
  }
  param {
    lr_mult: 2
    decay_mult: 0
  }
  convolution_param {
    num_output: 512
    pad: 1
    kernel_size: 3
    weight_filler {
      type: "xavier"
    }
    bias_filler {
      type: "constant"
      value: 0
    }
  }
}
layer {
  name: "relu4_2"
  type: "ReLU"
  bottom: "conv4_2"
  top: "conv4_2"
}
layer {
  name: "conv4_3"
  type: "Convolution"
  bottom: "conv4_2"
  top: "conv4_3"
  param {
    lr_mult: 1
    decay_mult: 1
  }
  param {
    lr_mult: 2
    decay_mult: 0
  }
  convolution_param {
    num_output: 512
    pad: 1
    kernel_size: 3
    weight_filler {
      type: "xavier"
    }
    bias_filler {
      type: "constant"
      value: 0
    }
  }
}
layer {
  name: "relu4_3"
  type: "ReLU"
  bottom: "conv4_3"
  top: "conv4_3"
}
layer {
  name: "pool4"
  type: "Pooling"
  bottom: "conv4_3"
  top: "pool4"
  pooling_param {
    pool: MAX
    kernel_size: 2
    stride: 2
  }
}
layer {
  name: "conv5_1"
  type: "Convolution"
  bottom: "pool4"
  top: "conv5_1"
  param {
    lr_mult: 1
    decay_mult: 1
  }
  param {
    lr_mult: 2
    decay_mult: 0
  }
  convolution_param {
    num_output: 512
    pad: 1
    kernel_size: 3
    weight_filler {
      type: "xavier"
    }
    bias_filler {
      type: "constant"
      value: 0
    }
    dilation: 1
  }
}
layer {
  name: "relu5_1"
  type: "ReLU"
  bottom: "conv5_1"
  top: "conv5_1"
}
layer {
  name: "conv5_2"
  type: "Convolution"
  bottom: "conv5_1"
  top: "conv5_2"
  param {
    lr_mult: 1
    decay_mult: 1
  }
  param {
    lr_mult: 2
    decay_mult: 0
  }
  convolution_param {
    num_output: 512
    pad: 1
    kernel_size: 3
    weight_filler {
      type: "xavier"
    }
    bias_filler {
      type: "constant"
      value: 0
    }
    dilation: 1
  }
}
layer {
  name: "relu5_2"
  type: "ReLU"
  bottom: "conv5_2"
  top: "conv5_2"
}
layer {
  name: "conv5_3"
  type: "Convolution"
  bottom: "conv5_2"
  top: "conv5_3"
  param {
    lr_mult: 1
    decay_mult: 1
  }
  param {
    lr_mult: 2
    decay_mult: 0
  }
  convolution_param {
    num_output: 512
    pad: 1
    kernel_size: 3
    weight_filler {
      type: "xavier"
    }
    bias_filler {
      type: "constant"
      value: 0
    }
    dilation: 1
  }
}
layer {
  name: "relu5_3"
  type: "ReLU"
  bottom: "conv5_3"
  top: "conv5_3"
}
layer {
  name: "pool5"
  type: "Pooling"
  bottom: "conv5_3"
  top: "pool5"
  pooling_param {
    pool: MAX
    kernel_size: 3
    stride: 1
    pad: 1
  }
}
layer {
  name: "fc6"
  type: "Convolution"
  bottom: "pool5"
  top: "fc6"
  param {
    lr_mult: 1
    decay_mult: 1
  }
  param {
    lr_mult: 2
    decay_mult: 0
  }
  convolution_param {
    num_output: 1024
    pad: 6
    kernel_size: 3
    weight_filler {
      type: "xavier"
    }
    bias_filler {
      type: "constant"
      value: 0
    }
    dilation: 6
  }
}
layer {
  name: "relu6"
  type: "ReLU"
  bottom: "fc6"
  top: "fc6"
}
layer {
  name: "fc7"
  type: "Convolution"
  bottom: "fc6"
  top: "fc7"
  param {
    lr_mult: 1
    decay_mult: 1
  }
  param {
    lr_mult: 2
    decay_mult: 0
  }
  convolution_param {
    num_output: 1024
    kernel_size: 1
    weight_filler {
      type: "xavier"
    }
    bias_filler {
      type: "constant"
      value: 0
    }
  }
}
layer {
  name: "relu7"
  type: "ReLU"
  bottom: "fc7"
  top: "fc7"
}
layer {
  name: "conv6_1"
  type: "Convolution"
  bottom: "fc7"
  top: "conv6_1"
  param {
    lr_mult: 1
    decay_mult: 1
  }
  param {
    lr_mult: 2
    decay_mult: 0
  }
  convolution_param {
    num_output: 256
    pad: 0
    kernel_size: 1
    stride: 1
    weight_filler {
      type: "xavier"
    }
    bias_filler {
      type: "constant"
      value: 0
    }
  }
}
layer {
  name: "conv6_1_relu"
  type: "ReLU"
  bottom: "conv6_1"
  top: "conv6_1"
}
layer {
  name: "conv6_2"
  type: "Convolution"
  bottom: "conv6_1"
  top: "conv6_2"
  param {
    lr_mult: 1
    decay_mult: 1
  }
  param {
    lr_mult: 2
    decay_mult: 0
  }
  convolution_param {
    num_output: 512
    pad: 1
    kernel_size: 3
    stride: 2
    weight_filler {
      type: "xavier"
    }
    bias_filler {
      type: "constant"
      value: 0
    }
  }
}
layer {
  name: "conv6_2_relu"
  type: "ReLU"
  bottom: "conv6_2"
  top: "conv6_2"
}
layer {
  name: "conv7_1"
  type: "Convolution"
  bottom: "conv6_2"
  top: "conv7_1"
  param {
    lr_mult: 1
    decay_mult: 1
  }
  param {
    lr_mult: 2
    decay_mult: 0
  }
  convolution_param {
    num_output: 128
    pad: 0
    kernel_size: 1
    stride: 1
    weight_filler {
      type: "xavier"
    }
    bias_filler {
      type: "constant"
      value: 0
    }
  }
}
layer {
  name: "conv7_1_relu"
  type: "ReLU"
  bottom: "conv7_1"
  top: "conv7_1"
}
layer {
  name: "conv7_2"
  type: "Convolution"
  bottom: "conv7_1"
  top: "conv7_2"
  param {
    lr_mult: 1
    decay_mult: 1
  }
  param {
    lr_mult: 2
    decay_mult: 0
  }
  convolution_param {
    num_output: 256
    pad: 1
    kernel_size: 3
    stride: 2
    weight_filler {
      type: "xavier"
    }
    bias_filler {
      type: "constant"
      value: 0
    }
  }
}
layer {
  name: "conv7_2_relu"
  type: "ReLU"
  bottom: "conv7_2"
  top: "conv7_2"
}
layer {
  name: "conv8_1"
  type: "Convolution"
  bottom: "conv7_2"
  top: "conv8_1"
  param {
    lr_mult: 1
    decay_mult: 1
  }
  param {
    lr_mult: 2
    decay_mult: 0
  }
  convolution_param {
    num_output: 128
    pad: 0
    kernel_size: 1
    stride: 1
    weight_filler {
      type: "xavier"
    }
    bias_filler {
      type: "constant"
      value: 0
    }
  }
}
layer {
  name: "conv8_1_relu"
  type: "ReLU"
  bottom: "conv8_1"
  top: "conv8_1"
}
layer {
  name: "conv8_2"
  type: "Convolution"
  bottom: "conv8_1"
  top: "conv8_2"
  param {
    lr_mult: 1
    decay_mult: 1
  }
  param {
    lr_mult: 2
    decay_mult: 0
  }
  convolution_param {
    num_output: 256
    pad: 0
    kernel_size: 3
    stride: 1
    weight_filler {
      type: "xavier"
    }
    bias_filler {
      type: "constant"
      value: 0
    }
  }
}
layer {
  name: "conv8_2_relu"
  type: "ReLU"
  bottom: "conv8_2"
  top: "conv8_2"
}
layer {
  name: "conv9_1"
  type: "Convolution"
  bottom: "conv8_2"
  top: "conv9_1"
  param {
    lr_mult: 1
    decay_mult: 1
  }
  param {
    lr_mult: 2
    decay_mult: 0
  }
  convolution_param {
    num_output: 128
    pad: 0
    kernel_size: 1
    stride: 1
    weight_filler {
      type: "xavier"
    }
    bias_filler {
      type: "constant"
      value: 0
    }
  }
}
layer {
  name: "conv9_1_relu"
  type: "ReLU"
  bottom: "conv9_1"
  top: "conv9_1"
}
layer {
  name: "conv9_2"
  type: "Convolution"
  bottom: "conv9_1"
  top: "conv9_2"
  param {
    lr_mult: 1
    decay_mult: 1
  }
  param {
    lr_mult: 2
    decay_mult: 0
  }
  convolution_param {
    num_output: 256
    pad: 0
    kernel_size: 3
    stride: 1
    weight_filler {
      type: "xavier"
    }
    bias_filler {
      type: "constant"
      value: 0
    }
  }
}
layer {
  name: "conv9_2_relu"
  type: "ReLU"
  bottom: "conv9_2"
  top: "conv9_2"
}
layer {
  name: "conv4_3_norm"
  type: "Normalize"
  bottom: "conv4_3"
  top: "conv4_3_norm"
  norm_param {
    across_spatial: false
    scale_filler {
      type: "constant"
      value: 20
    }
    channel_shared: false
  }
}
layer {
  name: "conv4_3_norm_mbox_loc"
  type: "Convolution"
  bottom: "conv4_3_norm"
  top: "conv4_3_norm_mbox_loc"
  param {
    lr_mult: 1
    decay_mult: 1
  }
  param {
    lr_mult: 2
    decay_mult: 0
  }
  convolution_param {
    num_output: 16
    pad: 1
    kernel_size: 3
    stride: 1
    weight_filler {
      type: "xavier"
    }
    bias_filler {
      type: "constant"
      value: 0
    }
  }
}
layer {
  name: "conv4_3_norm_mbox_loc_perm"
  type: "Permute"
  bottom: "conv4_3_norm_mbox_loc"
  top: "conv4_3_norm_mbox_loc_perm"
  permute_param {
    order: 0
    order: 2
    order: 3
    order: 1
  }
}
layer {
  name: "conv4_3_norm_mbox_loc_flat"
  type: "Flatten"
  bottom: "conv4_3_norm_mbox_loc_perm"
  top: "conv4_3_norm_mbox_loc_flat"
  flatten_param {
    axis: 1
  }
}
layer {
  name: "conv4_3_norm_mbox_conf"
  type: "Convolution"
  bottom: "conv4_3_norm"
  top: "conv4_3_norm_mbox_conf"
  param {
    lr_mult: 1
    decay_mult: 1
  }
  param {
    lr_mult: 2
    decay_mult: 0
  }
  convolution_param {
    num_output: 12
    pad: 1
    kernel_size: 3
    stride: 1
    weight_filler {
      type: "xavier"
    }
    bias_filler {
      type: "constant"
      value: 0
    }
  }
}
layer {
  name: "conv4_3_norm_mbox_conf_perm"
  type: "Permute"
  bottom: "conv4_3_norm_mbox_conf"
  top: "conv4_3_norm_mbox_conf_perm"
  permute_param {
    order: 0
    order: 2
    order: 3
    order: 1
  }
}
layer {
  name: "conv4_3_norm_mbox_conf_flat"
  type: "Flatten"
  bottom: "conv4_3_norm_mbox_conf_perm"
  top: "conv4_3_norm_mbox_conf_flat"
  flatten_param {
    axis: 1
  }
}
layer {
  name: "conv4_3_norm_mbox_priorbox"
  type: "PriorBox"
  bottom: "conv4_3_norm"
  bottom: "data"
  top: "conv4_3_norm_mbox_priorbox"
  prior_box_param {
    min_size: 30
    max_size: 60
    aspect_ratio: 2
    flip: true
    clip: false
    variance: 0.1
    variance: 0.1
    variance: 0.2
    variance: 0.2
    step: 8
    offset: 0.5
  }
}
layer {
  name: "fc7_mbox_loc"
  type: "Convolution"
  bottom: "fc7"
  top: "fc7_mbox_loc"
  param {
    lr_mult: 1
    decay_mult: 1
  }
  param {
    lr_mult: 2
    decay_mult: 0
  }
  convolution_param {
    num_output: 24
    pad: 1
    kernel_size: 3
    stride: 1
    weight_filler {
      type: "xavier"
    }
    bias_filler {
      type: "constant"
      value: 0
    }
  }
}
layer {
  name: "fc7_mbox_loc_perm"
  type: "Permute"
  bottom: "fc7_mbox_loc"
  top: "fc7_mbox_loc_perm"
  permute_param {
    order: 0
    order: 2
    order: 3
    order: 1
  }
}
layer {
  name: "fc7_mbox_loc_flat"
  type: "Flatten"
  bottom: "fc7_mbox_loc_perm"
  top: "fc7_mbox_loc_flat"
  flatten_param {
    axis: 1
  }
}
layer {
  name: "fc7_mbox_conf"
  type: "Convolution"
  bottom: "fc7"
  top: "fc7_mbox_conf"
  param {
    lr_mult: 1
    decay_mult: 1
  }
  param {
    lr_mult: 2
    decay_mult: 0
  }
  convolution_param {
    num_output: 18
    pad: 1
    kernel_size: 3
    stride: 1
    weight_filler {
      type: "xavier"
    }
    bias_filler {
      type: "constant"
      value: 0
    }
  }
}
layer {
  name: "fc7_mbox_conf_perm"
  type: "Permute"
  bottom: "fc7_mbox_conf"
  top: "fc7_mbox_conf_perm"
  permute_param {
    order: 0
    order: 2
    order: 3
    order: 1
  }
}
layer {
  name: "fc7_mbox_conf_flat"
  type: "Flatten"
  bottom: "fc7_mbox_conf_perm"
  top: "fc7_mbox_conf_flat"
  flatten_param {
    axis: 1
  }
}
layer {
  name: "fc7_mbox_priorbox"
  type: "PriorBox"
  bottom: "fc7"
  bottom: "data"
  top: "fc7_mbox_priorbox"
  prior_box_param {
    min_size: 60
    max_size: 111
    aspect_ratio: 2
    aspect_ratio: 3
    flip: true
    clip: false
    variance: 0.1
    variance: 0.1
    variance: 0.2
    variance: 0.2
    step: 16
    offset: 0.5
  }
}
layer {
  name: "conv6_2_mbox_loc"
  type: "Convolution"
  bottom: "conv6_2"
  top: "conv6_2_mbox_loc"
  param {
    lr_mult: 1
    decay_mult: 1
  }
  param {
    lr_mult: 2
    decay_mult: 0
  }
  convolution_param {
    num_output: 24
    pad: 1
    kernel_size: 3
    stride: 1
    weight_filler {
      type: "xavier"
    }
    bias_filler {
      type: "constant"
      value: 0
    }
  }
}
layer {
  name: "conv6_2_mbox_loc_perm"
  type: "Permute"
  bottom: "conv6_2_mbox_loc"
  top: "conv6_2_mbox_loc_perm"
  permute_param {
    order: 0
    order: 2
    order: 3
    order: 1
  }
}
layer {
  name: "conv6_2_mbox_loc_flat"
  type: "Flatten"
  bottom: "conv6_2_mbox_loc_perm"
  top: "conv6_2_mbox_loc_flat"
  flatten_param {
    axis: 1
  }
}
layer {
  name: "conv6_2_mbox_conf"
  type: "Convolution"
  bottom: "conv6_2"
  top: "conv6_2_mbox_conf"
  param {
    lr_mult: 1
    decay_mult: 1
  }
  param {
    lr_mult: 2
    decay_mult: 0
  }
  convolution_param {
    num_output: 18
    pad: 1
    kernel_size: 3
    stride: 1
    weight_filler {
      type: "xavier"
    }
    bias_filler {
      type: "constant"
      value: 0
    }
  }
}
layer {
  name: "conv6_2_mbox_conf_perm"
  type: "Permute"
  bottom: "conv6_2_mbox_conf"
  top: "conv6_2_mbox_conf_perm"
  permute_param {
    order: 0
    order: 2
    order: 3
    order: 1
  }
}
layer {
  name: "conv6_2_mbox_conf_flat"
  type: "Flatten"
  bottom: "conv6_2_mbox_conf_perm"
  top: "conv6_2_mbox_conf_flat"
  flatten_param {
    axis: 1
  }
}
layer {
  name: "conv6_2_mbox_priorbox"
  type: "PriorBox"
  bottom: "conv6_2"
  bottom: "data"
  top: "conv6_2_mbox_priorbox"
  prior_box_param {
    min_size: 111
    max_size: 162
    aspect_ratio: 2
    aspect_ratio: 3
    flip: true
    clip: false
    variance: 0.1
    variance: 0.1
    variance: 0.2
    variance: 0.2
    step: 32
    offset: 0.5
  }
}
layer {
  name: "conv7_2_mbox_loc"
  type: "Convolution"
  bottom: "conv7_2"
  top: "conv7_2_mbox_loc"
  param {
    lr_mult: 1
    decay_mult: 1
  }
  param {
    lr_mult: 2
    decay_mult: 0
  }
  convolution_param {
    num_output: 24
    pad: 1
    kernel_size: 3
    stride: 1
    weight_filler {
      type: "xavier"
    }
    bias_filler {
      type: "constant"
      value: 0
    }
  }
}
layer {
  name: "conv7_2_mbox_loc_perm"
  type: "Permute"
  bottom: "conv7_2_mbox_loc"
  top: "conv7_2_mbox_loc_perm"
  permute_param {
    order: 0
    order: 2
    order: 3
    order: 1
  }
}
layer {
  name: "conv7_2_mbox_loc_flat"
  type: "Flatten"
  bottom: "conv7_2_mbox_loc_perm"
  top: "conv7_2_mbox_loc_flat"
  flatten_param {
    axis: 1
  }
}
layer {
  name: "conv7_2_mbox_conf"
  type: "Convolution"
  bottom: "conv7_2"
  top: "conv7_2_mbox_conf"
  param {
    lr_mult: 1
    decay_mult: 1
  }
  param {
    lr_mult: 2
    decay_mult: 0
  }
  convolution_param {
    num_output: 18
    pad: 1
    kernel_size: 3
    stride: 1
    weight_filler {
      type: "xavier"
    }
    bias_filler {
      type: "constant"
      value: 0
    }
  }
}
layer {
  name: "conv7_2_mbox_conf_perm"
  type: "Permute"
  bottom: "conv7_2_mbox_conf"
  top: "conv7_2_mbox_conf_perm"
  permute_param {
    order: 0
    order: 2
    order: 3
    order: 1
  }
}
layer {
  name: "conv7_2_mbox_conf_flat"
  type: "Flatten"
  bottom: "conv7_2_mbox_conf_perm"
  top: "conv7_2_mbox_conf_flat"
  flatten_param {
    axis: 1
  }
}
layer {
  name: "conv7_2_mbox_priorbox"
  type: "PriorBox"
  bottom: "conv7_2"
  bottom: "data"
  top: "conv7_2_mbox_priorbox"
  prior_box_param {
    min_size: 162
    max_size: 213
    aspect_ratio: 2
    aspect_ratio: 3
    flip: true
    clip: false
    variance: 0.1
    variance: 0.1
    variance: 0.2
    variance: 0.2
    step: 64
    offset: 0.5
  }
}
layer {
  name: "conv8_2_mbox_loc"
  type: "Convolution"
  bottom: "conv8_2"
  top: "conv8_2_mbox_loc"
  param {
    lr_mult: 1
    decay_mult: 1
  }
  param {
    lr_mult: 2
    decay_mult: 0
  }
  convolution_param {
    num_output: 16
    pad: 1
    kernel_size: 3
    stride: 1
    weight_filler {
      type: "xavier"
    }
    bias_filler {
      type: "constant"
      value: 0
    }
  }
}
layer {
  name: "conv8_2_mbox_loc_perm"
  type: "Permute"
  bottom: "conv8_2_mbox_loc"
  top: "conv8_2_mbox_loc_perm"
  permute_param {
    order: 0
    order: 2
    order: 3
    order: 1
  }
}
layer {
  name: "conv8_2_mbox_loc_flat"
  type: "Flatten"
  bottom: "conv8_2_mbox_loc_perm"
  top: "conv8_2_mbox_loc_flat"
  flatten_param {
    axis: 1
  }
}
layer {
  name: "conv8_2_mbox_conf"
  type: "Convolution"
  bottom: "conv8_2"
  top: "conv8_2_mbox_conf"
  param {
    lr_mult: 1
    decay_mult: 1
  }
  param {
    lr_mult: 2
    decay_mult: 0
  }
  convolution_param {
    num_output: 12
    pad: 1
    kernel_size: 3
    stride: 1
    weight_filler {
      type: "xavier"
    }
    bias_filler {
      type: "constant"
      value: 0
    }
  }
}
layer {
  name: "conv8_2_mbox_conf_perm"
  type: "Permute"
  bottom: "conv8_2_mbox_conf"
  top: "conv8_2_mbox_conf_perm"
  permute_param {
    order: 0
    order: 2
    order: 3
    order: 1
  }
}
layer {
  name: "conv8_2_mbox_conf_flat"
  type: "Flatten"
  bottom: "conv8_2_mbox_conf_perm"
  top: "conv8_2_mbox_conf_flat"
  flatten_param {
    axis: 1
  }
}
layer {
  name: "conv8_2_mbox_priorbox"
  type: "PriorBox"
  bottom: "conv8_2"
  bottom: "data"
  top: "conv8_2_mbox_priorbox"
  prior_box_param {
    min_size: 213
    max_size: 264
    aspect_ratio: 2
    flip: true
    clip: false
    variance: 0.1
    variance: 0.1
    variance: 0.2
    variance: 0.2
    step: 100
    offset: 0.5
  }
}
layer {
  name: "conv9_2_mbox_loc"
  type: "Convolution"
  bottom: "conv9_2"
  top: "conv9_2_mbox_loc"
  param {
    lr_mult: 1
    decay_mult: 1
  }
  param {
    lr_mult: 2
    decay_mult: 0
  }
  convolution_param {
    num_output: 16
    pad: 1
    kernel_size: 3
    stride: 1
    weight_filler {
      type: "xavier"
    }
    bias_filler {
      type: "constant"
      value: 0
    }
  }
}
layer {
  name: "conv9_2_mbox_loc_perm"
  type: "Permute"
  bottom: "conv9_2_mbox_loc"
  top: "conv9_2_mbox_loc_perm"
  permute_param {
    order: 0
    order: 2
    order: 3
    order: 1
  }
}
layer {
  name: "conv9_2_mbox_loc_flat"
  type: "Flatten"
  bottom: "conv9_2_mbox_loc_perm"
  top: "conv9_2_mbox_loc_flat"
  flatten_param {
    axis: 1
  }
}
layer {
  name: "conv9_2_mbox_conf"
  type: "Convolution"
  bottom: "conv9_2"
  top: "conv9_2_mbox_conf"
  param {
    lr_mult: 1
    decay_mult: 1
  }
  param {
    lr_mult: 2
    decay_mult: 0
  }
  convolution_param {
    num_output: 12
    pad: 1
    kernel_size: 3
    stride: 1
    weight_filler {
      type: "xavier"
    }
    bias_filler {
      type: "constant"
      value: 0
    }
  }
}
layer {
  name: "conv9_2_mbox_conf_perm"
  type: "Permute"
  bottom: "conv9_2_mbox_conf"
  top: "conv9_2_mbox_conf_perm"
  permute_param {
    order: 0
    order: 2
    order: 3
    order: 1
  }
}
layer {
  name: "conv9_2_mbox_conf_flat"
  type: "Flatten"
  bottom: "conv9_2_mbox_conf_perm"
  top: "conv9_2_mbox_conf_flat"
  flatten_param {
    axis: 1
  }
}
layer {
  name: "conv9_2_mbox_priorbox"
  type: "PriorBox"
  bottom: "conv9_2"
  bottom: "data"
  top: "conv9_2_mbox_priorbox"
  prior_box_param {
    min_size: 264
    max_size: 315
    aspect_ratio: 2
    flip: true
    clip: false
    variance: 0.1
    variance: 0.1
    variance: 0.2
    variance: 0.2
    step: 300
    offset: 0.5
  }
}
layer {
  name: "mbox_loc"
  type: "Concat"
  bottom: "conv4_3_norm_mbox_loc_flat"
  bottom: "fc7_mbox_loc_flat"
  bottom: "conv6_2_mbox_loc_flat"
  bottom: "conv7_2_mbox_loc_flat"
  bottom: "conv8_2_mbox_loc_flat"
  bottom: "conv9_2_mbox_loc_flat"
  top: "mbox_loc"
  concat_param {
    axis: 1
  }
}
layer {
  name: "mbox_conf"
  type: "Concat"
  bottom: "conv4_3_norm_mbox_conf_flat"
  bottom: "fc7_mbox_conf_flat"
  bottom: "conv6_2_mbox_conf_flat"
  bottom: "conv7_2_mbox_conf_flat"
  bottom: "conv8_2_mbox_conf_flat"
  bottom: "conv9_2_mbox_conf_flat"
  top: "mbox_conf"
  concat_param {
    axis: 1
  }
}
layer {
  name: "mbox_priorbox"
  type: "Concat"
  bottom: "conv4_3_norm_mbox_priorbox"
  bottom: "fc7_mbox_priorbox"
  bottom: "conv6_2_mbox_priorbox"
  bottom: "conv7_2_mbox_priorbox"
  bottom: "conv8_2_mbox_priorbox"
  bottom: "conv9_2_mbox_priorbox"
  top: "mbox_priorbox"
  concat_param {
    axis: 2
  }
}
layer {
  name: "mbox_conf_reshape"
  type: "Reshape"
  bottom: "mbox_conf"
  top: "mbox_conf_reshape"
  reshape_param {
    shape {
      dim: 0
      dim: -1
      dim: 3
    }
  }
}
layer {
  name: "mbox_conf_softmax"
  type: "Softmax"
  bottom: "mbox_conf_reshape"
  top: "mbox_conf_softmax"
  softmax_param {
    axis: 2
  }
}
layer {
  name: "mbox_conf_flatten"
  type: "Flatten"
  bottom: "mbox_conf_softmax"
  top: "mbox_conf_flatten"
  flatten_param {
    axis: 1
  }
}
layer {
  name: "detection_out"
  type: "DetectionOutput"
  bottom: "mbox_loc"
  bottom: "mbox_conf_flatten"
  bottom: "mbox_priorbox"
  top: "detection_out"
  include {
    phase: TEST
  }
  detection_output_param {
    num_classes: 3
    share_location: true
    background_label_id: 2
    nms_param {
      nms_threshold: 0.45
      top_k: 400
    }
    save_output_param {
      output_directory: "/home/dean/data/frc-robotics/BallToteData/results/SSD_300x300/Main"
      output_name_prefix: "comp4_det_test_"
      output_format: "VOC"
      label_map_file: "data/TOTEBALL/labelmap_toteball.prototxt"
      name_size_file: "data/TOTEBALL/test_name_size.txt"
      num_test_image: 8
    }
    code_type: CENTER_SIZE
    keep_top_k: 200
    confidence_threshold: 0.01
  }
}
layer {
  name: "detection_eval"
  type: "DetectionEvaluate"
  bottom: "detection_out"
  bottom: "label"
  top: "detection_eval"
  include {
    phase: TEST
  }
  detection_evaluate_param {
    num_classes: 3
    background_label_id: 2
    overlap_threshold: 0.5
    evaluate_difficult_gt: false
    name_size_file: "data/TOTEBALL/test_name_size.txt"
  }
}
I0609 14:12:28.175561 31468 layer_factory.hpp:77] Creating layer data
I0609 14:12:28.175657 31468 net.cpp:100] Creating Layer data
I0609 14:12:28.175673 31468 net.cpp:408] data -> data
I0609 14:12:28.175688 31468 net.cpp:408] data -> label
I0609 14:12:28.176720 31489 db_lmdb.cpp:35] Opened lmdb examples/TOTEBALL/TOTEBALL_test_lmdb
I0609 14:12:28.177870 31468 annotated_data_layer.cpp:62] output data size: 4,3,300,300
I0609 14:12:28.189458 31468 net.cpp:150] Setting up data
I0609 14:12:28.189501 31468 net.cpp:157] Top shape: 4 3 300 300 (1080000)
I0609 14:12:28.189509 31468 net.cpp:157] Top shape: 1 1 1 8 (8)
I0609 14:12:28.189519 31468 net.cpp:165] Memory required for data: 4320032
I0609 14:12:28.189528 31468 layer_factory.hpp:77] Creating layer data_data_0_split
I0609 14:12:28.189548 31468 net.cpp:100] Creating Layer data_data_0_split
I0609 14:12:28.189555 31468 net.cpp:434] data_data_0_split <- data
I0609 14:12:28.189568 31468 net.cpp:408] data_data_0_split -> data_data_0_split_0
I0609 14:12:28.189584 31468 net.cpp:408] data_data_0_split -> data_data_0_split_1
I0609 14:12:28.189604 31468 net.cpp:408] data_data_0_split -> data_data_0_split_2
I0609 14:12:28.189615 31468 net.cpp:408] data_data_0_split -> data_data_0_split_3
I0609 14:12:28.189623 31468 net.cpp:408] data_data_0_split -> data_data_0_split_4
I0609 14:12:28.189632 31468 net.cpp:408] data_data_0_split -> data_data_0_split_5
I0609 14:12:28.189640 31468 net.cpp:408] data_data_0_split -> data_data_0_split_6
I0609 14:12:28.189956 31468 net.cpp:150] Setting up data_data_0_split
I0609 14:12:28.189976 31468 net.cpp:157] Top shape: 4 3 300 300 (1080000)
I0609 14:12:28.189983 31468 net.cpp:157] Top shape: 4 3 300 300 (1080000)
I0609 14:12:28.189991 31468 net.cpp:157] Top shape: 4 3 300 300 (1080000)
I0609 14:12:28.189998 31468 net.cpp:157] Top shape: 4 3 300 300 (1080000)
I0609 14:12:28.190006 31468 net.cpp:157] Top shape: 4 3 300 300 (1080000)
I0609 14:12:28.190012 31468 net.cpp:157] Top shape: 4 3 300 300 (1080000)
I0609 14:12:28.190021 31468 net.cpp:157] Top shape: 4 3 300 300 (1080000)
I0609 14:12:28.190026 31468 net.cpp:165] Memory required for data: 34560032
I0609 14:12:28.190033 31468 layer_factory.hpp:77] Creating layer conv1_1
I0609 14:12:28.190052 31468 net.cpp:100] Creating Layer conv1_1
I0609 14:12:28.190094 31468 net.cpp:434] conv1_1 <- data_data_0_split_0
I0609 14:12:28.190104 31468 net.cpp:408] conv1_1 -> conv1_1
I0609 14:12:28.206876 31468 net.cpp:150] Setting up conv1_1
I0609 14:12:28.206907 31468 net.cpp:157] Top shape: 4 64 300 300 (23040000)
I0609 14:12:28.206912 31468 net.cpp:165] Memory required for data: 126720032
I0609 14:12:28.206928 31468 layer_factory.hpp:77] Creating layer relu1_1
I0609 14:12:28.206939 31468 net.cpp:100] Creating Layer relu1_1
I0609 14:12:28.206949 31468 net.cpp:434] relu1_1 <- conv1_1
I0609 14:12:28.206990 31468 net.cpp:395] relu1_1 -> conv1_1 (in-place)
I0609 14:12:28.208652 31468 net.cpp:150] Setting up relu1_1
I0609 14:12:28.208716 31468 net.cpp:157] Top shape: 4 64 300 300 (23040000)
I0609 14:12:28.208734 31468 net.cpp:165] Memory required for data: 218880032
I0609 14:12:28.208753 31468 layer_factory.hpp:77] Creating layer conv1_2
I0609 14:12:28.208801 31468 net.cpp:100] Creating Layer conv1_2
I0609 14:12:28.208828 31468 net.cpp:434] conv1_2 <- conv1_1
I0609 14:12:28.208865 31468 net.cpp:408] conv1_2 -> conv1_2
I0609 14:12:28.217525 31468 net.cpp:150] Setting up conv1_2
I0609 14:12:28.217571 31468 net.cpp:157] Top shape: 4 64 300 300 (23040000)
I0609 14:12:28.217577 31468 net.cpp:165] Memory required for data: 311040032
I0609 14:12:28.217599 31468 layer_factory.hpp:77] Creating layer relu1_2
I0609 14:12:28.217615 31468 net.cpp:100] Creating Layer relu1_2
I0609 14:12:28.217622 31468 net.cpp:434] relu1_2 <- conv1_2
I0609 14:12:28.217633 31468 net.cpp:395] relu1_2 -> conv1_2 (in-place)
I0609 14:12:28.217942 31468 net.cpp:150] Setting up relu1_2
I0609 14:12:28.217962 31468 net.cpp:157] Top shape: 4 64 300 300 (23040000)
I0609 14:12:28.217967 31468 net.cpp:165] Memory required for data: 403200032
I0609 14:12:28.217973 31468 layer_factory.hpp:77] Creating layer pool1
I0609 14:12:28.217988 31468 net.cpp:100] Creating Layer pool1
I0609 14:12:28.217994 31468 net.cpp:434] pool1 <- conv1_2
I0609 14:12:28.218005 31468 net.cpp:408] pool1 -> pool1
I0609 14:12:28.218098 31468 net.cpp:150] Setting up pool1
I0609 14:12:28.218111 31468 net.cpp:157] Top shape: 4 64 150 150 (5760000)
I0609 14:12:28.218116 31468 net.cpp:165] Memory required for data: 426240032
I0609 14:12:28.218122 31468 layer_factory.hpp:77] Creating layer conv2_1
I0609 14:12:28.218142 31468 net.cpp:100] Creating Layer conv2_1
I0609 14:12:28.218150 31468 net.cpp:434] conv2_1 <- pool1
I0609 14:12:28.218158 31468 net.cpp:408] conv2_1 -> conv2_1
I0609 14:12:28.220924 31468 net.cpp:150] Setting up conv2_1
I0609 14:12:28.220969 31468 net.cpp:157] Top shape: 4 128 150 150 (11520000)
I0609 14:12:28.220978 31468 net.cpp:165] Memory required for data: 472320032
I0609 14:12:28.220993 31468 layer_factory.hpp:77] Creating layer relu2_1
I0609 14:12:28.221009 31468 net.cpp:100] Creating Layer relu2_1
I0609 14:12:28.221021 31468 net.cpp:434] relu2_1 <- conv2_1
I0609 14:12:28.221037 31468 net.cpp:395] relu2_1 -> conv2_1 (in-place)
I0609 14:12:28.221817 31468 net.cpp:150] Setting up relu2_1
I0609 14:12:28.221850 31468 net.cpp:157] Top shape: 4 128 150 150 (11520000)
I0609 14:12:28.221856 31468 net.cpp:165] Memory required for data: 518400032
I0609 14:12:28.221864 31468 layer_factory.hpp:77] Creating layer conv2_2
I0609 14:12:28.221886 31468 net.cpp:100] Creating Layer conv2_2
I0609 14:12:28.221894 31468 net.cpp:434] conv2_2 <- conv2_1
I0609 14:12:28.221906 31468 net.cpp:408] conv2_2 -> conv2_2
I0609 14:12:28.226455 31468 net.cpp:150] Setting up conv2_2
I0609 14:12:28.226482 31468 net.cpp:157] Top shape: 4 128 150 150 (11520000)
I0609 14:12:28.226487 31468 net.cpp:165] Memory required for data: 564480032
I0609 14:12:28.226497 31468 layer_factory.hpp:77] Creating layer relu2_2
I0609 14:12:28.226523 31468 net.cpp:100] Creating Layer relu2_2
I0609 14:12:28.226531 31468 net.cpp:434] relu2_2 <- conv2_2
I0609 14:12:28.226538 31468 net.cpp:395] relu2_2 -> conv2_2 (in-place)
I0609 14:12:28.226835 31468 net.cpp:150] Setting up relu2_2
I0609 14:12:28.226850 31468 net.cpp:157] Top shape: 4 128 150 150 (11520000)
I0609 14:12:28.226893 31468 net.cpp:165] Memory required for data: 610560032
I0609 14:12:28.226899 31468 layer_factory.hpp:77] Creating layer pool2
I0609 14:12:28.226910 31468 net.cpp:100] Creating Layer pool2
I0609 14:12:28.226917 31468 net.cpp:434] pool2 <- conv2_2
I0609 14:12:28.226928 31468 net.cpp:408] pool2 -> pool2
I0609 14:12:28.227039 31468 net.cpp:150] Setting up pool2
I0609 14:12:28.227054 31468 net.cpp:157] Top shape: 4 128 75 75 (2880000)
I0609 14:12:28.227061 31468 net.cpp:165] Memory required for data: 622080032
I0609 14:12:28.227066 31468 layer_factory.hpp:77] Creating layer conv3_1
I0609 14:12:28.227083 31468 net.cpp:100] Creating Layer conv3_1
I0609 14:12:28.227098 31468 net.cpp:434] conv3_1 <- pool2
I0609 14:12:28.227108 31468 net.cpp:408] conv3_1 -> conv3_1
I0609 14:12:28.232491 31468 net.cpp:150] Setting up conv3_1
I0609 14:12:28.232522 31468 net.cpp:157] Top shape: 4 256 75 75 (5760000)
I0609 14:12:28.232527 31468 net.cpp:165] Memory required for data: 645120032
I0609 14:12:28.232556 31468 layer_factory.hpp:77] Creating layer relu3_1
I0609 14:12:28.232571 31468 net.cpp:100] Creating Layer relu3_1
I0609 14:12:28.232578 31468 net.cpp:434] relu3_1 <- conv3_1
I0609 14:12:28.232586 31468 net.cpp:395] relu3_1 -> conv3_1 (in-place)
I0609 14:12:28.233162 31468 net.cpp:150] Setting up relu3_1
I0609 14:12:28.233186 31468 net.cpp:157] Top shape: 4 256 75 75 (5760000)
I0609 14:12:28.233191 31468 net.cpp:165] Memory required for data: 668160032
I0609 14:12:28.233197 31468 layer_factory.hpp:77] Creating layer conv3_2
I0609 14:12:28.233229 31468 net.cpp:100] Creating Layer conv3_2
I0609 14:12:28.233237 31468 net.cpp:434] conv3_2 <- conv3_1
I0609 14:12:28.233245 31468 net.cpp:408] conv3_2 -> conv3_2
I0609 14:12:28.242146 31468 net.cpp:150] Setting up conv3_2
I0609 14:12:28.242183 31468 net.cpp:157] Top shape: 4 256 75 75 (5760000)
I0609 14:12:28.242188 31468 net.cpp:165] Memory required for data: 691200032
I0609 14:12:28.242215 31468 layer_factory.hpp:77] Creating layer relu3_2
I0609 14:12:28.242231 31468 net.cpp:100] Creating Layer relu3_2
I0609 14:12:28.242239 31468 net.cpp:434] relu3_2 <- conv3_2
I0609 14:12:28.242249 31468 net.cpp:395] relu3_2 -> conv3_2 (in-place)
I0609 14:12:28.242872 31468 net.cpp:150] Setting up relu3_2
I0609 14:12:28.242897 31468 net.cpp:157] Top shape: 4 256 75 75 (5760000)
I0609 14:12:28.242902 31468 net.cpp:165] Memory required for data: 714240032
I0609 14:12:28.242908 31468 layer_factory.hpp:77] Creating layer conv3_3
I0609 14:12:28.242946 31468 net.cpp:100] Creating Layer conv3_3
I0609 14:12:28.242974 31468 net.cpp:434] conv3_3 <- conv3_2
I0609 14:12:28.242985 31468 net.cpp:408] conv3_3 -> conv3_3
I0609 14:12:28.251873 31468 net.cpp:150] Setting up conv3_3
I0609 14:12:28.251909 31468 net.cpp:157] Top shape: 4 256 75 75 (5760000)
I0609 14:12:28.251917 31468 net.cpp:165] Memory required for data: 737280032
I0609 14:12:28.251945 31468 layer_factory.hpp:77] Creating layer relu3_3
I0609 14:12:28.251957 31468 net.cpp:100] Creating Layer relu3_3
I0609 14:12:28.251965 31468 net.cpp:434] relu3_3 <- conv3_3
I0609 14:12:28.251977 31468 net.cpp:395] relu3_3 -> conv3_3 (in-place)
I0609 14:12:28.252575 31468 net.cpp:150] Setting up relu3_3
I0609 14:12:28.252609 31468 net.cpp:157] Top shape: 4 256 75 75 (5760000)
I0609 14:12:28.252615 31468 net.cpp:165] Memory required for data: 760320032
I0609 14:12:28.252622 31468 layer_factory.hpp:77] Creating layer pool3
I0609 14:12:28.252634 31468 net.cpp:100] Creating Layer pool3
I0609 14:12:28.252640 31468 net.cpp:434] pool3 <- conv3_3
I0609 14:12:28.252651 31468 net.cpp:408] pool3 -> pool3
I0609 14:12:28.252763 31468 net.cpp:150] Setting up pool3
I0609 14:12:28.252779 31468 net.cpp:157] Top shape: 4 256 38 38 (1478656)
I0609 14:12:28.252784 31468 net.cpp:165] Memory required for data: 766234656
I0609 14:12:28.252789 31468 layer_factory.hpp:77] Creating layer conv4_1
I0609 14:12:28.252807 31468 net.cpp:100] Creating Layer conv4_1
I0609 14:12:28.252817 31468 net.cpp:434] conv4_1 <- pool3
I0609 14:12:28.252825 31468 net.cpp:408] conv4_1 -> conv4_1
I0609 14:12:28.270117 31468 net.cpp:150] Setting up conv4_1
I0609 14:12:28.270159 31468 net.cpp:157] Top shape: 4 512 38 38 (2957312)
I0609 14:12:28.270164 31468 net.cpp:165] Memory required for data: 778063904
I0609 14:12:28.270179 31468 layer_factory.hpp:77] Creating layer relu4_1
I0609 14:12:28.270196 31468 net.cpp:100] Creating Layer relu4_1
I0609 14:12:28.270203 31468 net.cpp:434] relu4_1 <- conv4_1
I0609 14:12:28.270215 31468 net.cpp:395] relu4_1 -> conv4_1 (in-place)
I0609 14:12:28.270833 31468 net.cpp:150] Setting up relu4_1
I0609 14:12:28.270862 31468 net.cpp:157] Top shape: 4 512 38 38 (2957312)
I0609 14:12:28.270869 31468 net.cpp:165] Memory required for data: 789893152
I0609 14:12:28.270875 31468 layer_factory.hpp:77] Creating layer conv4_2
I0609 14:12:28.270900 31468 net.cpp:100] Creating Layer conv4_2
I0609 14:12:28.270907 31468 net.cpp:434] conv4_2 <- conv4_1
I0609 14:12:28.270917 31468 net.cpp:408] conv4_2 -> conv4_2
I0609 14:12:28.298100 31468 net.cpp:150] Setting up conv4_2
I0609 14:12:28.298141 31468 net.cpp:157] Top shape: 4 512 38 38 (2957312)
I0609 14:12:28.298147 31468 net.cpp:165] Memory required for data: 801722400
I0609 14:12:28.298180 31468 layer_factory.hpp:77] Creating layer relu4_2
I0609 14:12:28.298195 31468 net.cpp:100] Creating Layer relu4_2
I0609 14:12:28.298205 31468 net.cpp:434] relu4_2 <- conv4_2
I0609 14:12:28.298214 31468 net.cpp:395] relu4_2 -> conv4_2 (in-place)
I0609 14:12:28.298522 31468 net.cpp:150] Setting up relu4_2
I0609 14:12:28.298537 31468 net.cpp:157] Top shape: 4 512 38 38 (2957312)
I0609 14:12:28.298543 31468 net.cpp:165] Memory required for data: 813551648
I0609 14:12:28.298549 31468 layer_factory.hpp:77] Creating layer conv4_3
I0609 14:12:28.298573 31468 net.cpp:100] Creating Layer conv4_3
I0609 14:12:28.298579 31468 net.cpp:434] conv4_3 <- conv4_2
I0609 14:12:28.298591 31468 net.cpp:408] conv4_3 -> conv4_3
I0609 14:12:28.328667 31468 net.cpp:150] Setting up conv4_3
I0609 14:12:28.328707 31468 net.cpp:157] Top shape: 4 512 38 38 (2957312)
I0609 14:12:28.328713 31468 net.cpp:165] Memory required for data: 825380896
I0609 14:12:28.328740 31468 layer_factory.hpp:77] Creating layer relu4_3
I0609 14:12:28.328754 31468 net.cpp:100] Creating Layer relu4_3
I0609 14:12:28.328763 31468 net.cpp:434] relu4_3 <- conv4_3
I0609 14:12:28.328775 31468 net.cpp:395] relu4_3 -> conv4_3 (in-place)
I0609 14:12:28.329383 31468 net.cpp:150] Setting up relu4_3
I0609 14:12:28.329408 31468 net.cpp:157] Top shape: 4 512 38 38 (2957312)
I0609 14:12:28.329413 31468 net.cpp:165] Memory required for data: 837210144
I0609 14:12:28.329421 31468 layer_factory.hpp:77] Creating layer conv4_3_relu4_3_0_split
I0609 14:12:28.329447 31468 net.cpp:100] Creating Layer conv4_3_relu4_3_0_split
I0609 14:12:28.329452 31468 net.cpp:434] conv4_3_relu4_3_0_split <- conv4_3
I0609 14:12:28.329462 31468 net.cpp:408] conv4_3_relu4_3_0_split -> conv4_3_relu4_3_0_split_0
I0609 14:12:28.329483 31468 net.cpp:408] conv4_3_relu4_3_0_split -> conv4_3_relu4_3_0_split_1
I0609 14:12:28.329578 31468 net.cpp:150] Setting up conv4_3_relu4_3_0_split
I0609 14:12:28.329598 31468 net.cpp:157] Top shape: 4 512 38 38 (2957312)
I0609 14:12:28.329607 31468 net.cpp:157] Top shape: 4 512 38 38 (2957312)
I0609 14:12:28.329612 31468 net.cpp:165] Memory required for data: 860868640
I0609 14:12:28.329622 31468 layer_factory.hpp:77] Creating layer pool4
I0609 14:12:28.329632 31468 net.cpp:100] Creating Layer pool4
I0609 14:12:28.329643 31468 net.cpp:434] pool4 <- conv4_3_relu4_3_0_split_0
I0609 14:12:28.329658 31468 net.cpp:408] pool4 -> pool4
I0609 14:12:28.329736 31468 net.cpp:150] Setting up pool4
I0609 14:12:28.329749 31468 net.cpp:157] Top shape: 4 512 19 19 (739328)
I0609 14:12:28.329756 31468 net.cpp:165] Memory required for data: 863825952
I0609 14:12:28.329761 31468 layer_factory.hpp:77] Creating layer conv5_1
I0609 14:12:28.329780 31468 net.cpp:100] Creating Layer conv5_1
I0609 14:12:28.329790 31468 net.cpp:434] conv5_1 <- pool4
I0609 14:12:28.329802 31468 net.cpp:408] conv5_1 -> conv5_1
I0609 14:12:28.360671 31468 net.cpp:150] Setting up conv5_1
I0609 14:12:28.360774 31468 net.cpp:157] Top shape: 4 512 19 19 (739328)
I0609 14:12:28.360782 31468 net.cpp:165] Memory required for data: 866783264
I0609 14:12:28.360802 31468 layer_factory.hpp:77] Creating layer relu5_1
I0609 14:12:28.360822 31468 net.cpp:100] Creating Layer relu5_1
I0609 14:12:28.360833 31468 net.cpp:434] relu5_1 <- conv5_1
I0609 14:12:28.360848 31468 net.cpp:395] relu5_1 -> conv5_1 (in-place)
I0609 14:12:28.361650 31468 net.cpp:150] Setting up relu5_1
I0609 14:12:28.361680 31468 net.cpp:157] Top shape: 4 512 19 19 (739328)
I0609 14:12:28.361687 31468 net.cpp:165] Memory required for data: 869740576
I0609 14:12:28.361701 31468 layer_factory.hpp:77] Creating layer conv5_2
I0609 14:12:28.361724 31468 net.cpp:100] Creating Layer conv5_2
I0609 14:12:28.361737 31468 net.cpp:434] conv5_2 <- conv5_1
I0609 14:12:28.361768 31468 net.cpp:408] conv5_2 -> conv5_2
I0609 14:12:28.396162 31468 net.cpp:150] Setting up conv5_2
I0609 14:12:28.396208 31468 net.cpp:157] Top shape: 4 512 19 19 (739328)
I0609 14:12:28.396214 31468 net.cpp:165] Memory required for data: 872697888
I0609 14:12:28.396244 31468 layer_factory.hpp:77] Creating layer relu5_2
I0609 14:12:28.396258 31468 net.cpp:100] Creating Layer relu5_2
I0609 14:12:28.396266 31468 net.cpp:434] relu5_2 <- conv5_2
I0609 14:12:28.396286 31468 net.cpp:395] relu5_2 -> conv5_2 (in-place)
I0609 14:12:28.396577 31468 net.cpp:150] Setting up relu5_2
I0609 14:12:28.396596 31468 net.cpp:157] Top shape: 4 512 19 19 (739328)
I0609 14:12:28.396602 31468 net.cpp:165] Memory required for data: 875655200
I0609 14:12:28.396608 31468 layer_factory.hpp:77] Creating layer conv5_3
I0609 14:12:28.396627 31468 net.cpp:100] Creating Layer conv5_3
I0609 14:12:28.396637 31468 net.cpp:434] conv5_3 <- conv5_2
I0609 14:12:28.396649 31468 net.cpp:408] conv5_3 -> conv5_3
I0609 14:12:28.425513 31468 net.cpp:150] Setting up conv5_3
I0609 14:12:28.425554 31468 net.cpp:157] Top shape: 4 512 19 19 (739328)
I0609 14:12:28.425559 31468 net.cpp:165] Memory required for data: 878612512
I0609 14:12:28.425575 31468 layer_factory.hpp:77] Creating layer relu5_3
I0609 14:12:28.425601 31468 net.cpp:100] Creating Layer relu5_3
I0609 14:12:28.425611 31468 net.cpp:434] relu5_3 <- conv5_3
I0609 14:12:28.425621 31468 net.cpp:395] relu5_3 -> conv5_3 (in-place)
I0609 14:12:28.426177 31468 net.cpp:150] Setting up relu5_3
I0609 14:12:28.426200 31468 net.cpp:157] Top shape: 4 512 19 19 (739328)
I0609 14:12:28.426206 31468 net.cpp:165] Memory required for data: 881569824
I0609 14:12:28.426213 31468 layer_factory.hpp:77] Creating layer pool5
I0609 14:12:28.426229 31468 net.cpp:100] Creating Layer pool5
I0609 14:12:28.426234 31468 net.cpp:434] pool5 <- conv5_3
I0609 14:12:28.426245 31468 net.cpp:408] pool5 -> pool5
I0609 14:12:28.426326 31468 net.cpp:150] Setting up pool5
I0609 14:12:28.426338 31468 net.cpp:157] Top shape: 4 512 19 19 (739328)
I0609 14:12:28.426343 31468 net.cpp:165] Memory required for data: 884527136
I0609 14:12:28.426349 31468 layer_factory.hpp:77] Creating layer fc6
I0609 14:12:28.426367 31468 net.cpp:100] Creating Layer fc6
I0609 14:12:28.426375 31468 net.cpp:434] fc6 <- pool5
I0609 14:12:28.426385 31468 net.cpp:408] fc6 -> fc6
I0609 14:12:28.475895 31468 net.cpp:150] Setting up fc6
I0609 14:12:28.475944 31468 net.cpp:157] Top shape: 4 1024 19 19 (1478656)
I0609 14:12:28.475950 31468 net.cpp:165] Memory required for data: 890441760
I0609 14:12:28.475965 31468 layer_factory.hpp:77] Creating layer relu6
I0609 14:12:28.475982 31468 net.cpp:100] Creating Layer relu6
I0609 14:12:28.475992 31468 net.cpp:434] relu6 <- fc6
I0609 14:12:28.476003 31468 net.cpp:395] relu6 -> fc6 (in-place)
I0609 14:12:28.476377 31468 net.cpp:150] Setting up relu6
I0609 14:12:28.476397 31468 net.cpp:157] Top shape: 4 1024 19 19 (1478656)
I0609 14:12:28.476403 31468 net.cpp:165] Memory required for data: 896356384
I0609 14:12:28.476408 31468 layer_factory.hpp:77] Creating layer fc7
I0609 14:12:28.476424 31468 net.cpp:100] Creating Layer fc7
I0609 14:12:28.476430 31468 net.cpp:434] fc7 <- fc6
I0609 14:12:28.476454 31468 net.cpp:408] fc7 -> fc7
I0609 14:12:28.489936 31468 net.cpp:150] Setting up fc7
I0609 14:12:28.489981 31468 net.cpp:157] Top shape: 4 1024 19 19 (1478656)
I0609 14:12:28.489987 31468 net.cpp:165] Memory required for data: 902271008
I0609 14:12:28.490005 31468 layer_factory.hpp:77] Creating layer relu7
I0609 14:12:28.490021 31468 net.cpp:100] Creating Layer relu7
I0609 14:12:28.490030 31468 net.cpp:434] relu7 <- fc7
I0609 14:12:28.490049 31468 net.cpp:395] relu7 -> fc7 (in-place)
I0609 14:12:28.490660 31468 net.cpp:150] Setting up relu7
I0609 14:12:28.490689 31468 net.cpp:157] Top shape: 4 1024 19 19 (1478656)
I0609 14:12:28.490695 31468 net.cpp:165] Memory required for data: 908185632
I0609 14:12:28.490708 31468 layer_factory.hpp:77] Creating layer fc7_relu7_0_split
I0609 14:12:28.490721 31468 net.cpp:100] Creating Layer fc7_relu7_0_split
I0609 14:12:28.490734 31468 net.cpp:434] fc7_relu7_0_split <- fc7
I0609 14:12:28.490747 31468 net.cpp:408] fc7_relu7_0_split -> fc7_relu7_0_split_0
I0609 14:12:28.490759 31468 net.cpp:408] fc7_relu7_0_split -> fc7_relu7_0_split_1
I0609 14:12:28.490778 31468 net.cpp:408] fc7_relu7_0_split -> fc7_relu7_0_split_2
I0609 14:12:28.490790 31468 net.cpp:408] fc7_relu7_0_split -> fc7_relu7_0_split_3
I0609 14:12:28.490937 31468 net.cpp:150] Setting up fc7_relu7_0_split
I0609 14:12:28.490949 31468 net.cpp:157] Top shape: 4 1024 19 19 (1478656)
I0609 14:12:28.490958 31468 net.cpp:157] Top shape: 4 1024 19 19 (1478656)
I0609 14:12:28.491004 31468 net.cpp:157] Top shape: 4 1024 19 19 (1478656)
I0609 14:12:28.491011 31468 net.cpp:157] Top shape: 4 1024 19 19 (1478656)
I0609 14:12:28.491017 31468 net.cpp:165] Memory required for data: 931844128
I0609 14:12:28.491024 31468 layer_factory.hpp:77] Creating layer conv6_1
I0609 14:12:28.491044 31468 net.cpp:100] Creating Layer conv6_1
I0609 14:12:28.491051 31468 net.cpp:434] conv6_1 <- fc7_relu7_0_split_0
I0609 14:12:28.491065 31468 net.cpp:408] conv6_1 -> conv6_1
I0609 14:12:28.497365 31468 net.cpp:150] Setting up conv6_1
I0609 14:12:28.497404 31468 net.cpp:157] Top shape: 4 256 19 19 (369664)
I0609 14:12:28.497411 31468 net.cpp:165] Memory required for data: 933322784
I0609 14:12:28.497421 31468 layer_factory.hpp:77] Creating layer conv6_1_relu
I0609 14:12:28.497432 31468 net.cpp:100] Creating Layer conv6_1_relu
I0609 14:12:28.497443 31468 net.cpp:434] conv6_1_relu <- conv6_1
I0609 14:12:28.497453 31468 net.cpp:395] conv6_1_relu -> conv6_1 (in-place)
I0609 14:12:28.498092 31468 net.cpp:150] Setting up conv6_1_relu
I0609 14:12:28.498126 31468 net.cpp:157] Top shape: 4 256 19 19 (369664)
I0609 14:12:28.498131 31468 net.cpp:165] Memory required for data: 934801440
I0609 14:12:28.498138 31468 layer_factory.hpp:77] Creating layer conv6_2
I0609 14:12:28.498159 31468 net.cpp:100] Creating Layer conv6_2
I0609 14:12:28.498167 31468 net.cpp:434] conv6_2 <- conv6_1
I0609 14:12:28.498178 31468 net.cpp:408] conv6_2 -> conv6_2
I0609 14:12:28.512804 31468 net.cpp:150] Setting up conv6_2
I0609 14:12:28.512842 31468 net.cpp:157] Top shape: 4 512 10 10 (204800)
I0609 14:12:28.512847 31468 net.cpp:165] Memory required for data: 935620640
I0609 14:12:28.512871 31468 layer_factory.hpp:77] Creating layer conv6_2_relu
I0609 14:12:28.512888 31468 net.cpp:100] Creating Layer conv6_2_relu
I0609 14:12:28.512897 31468 net.cpp:434] conv6_2_relu <- conv6_2
I0609 14:12:28.512908 31468 net.cpp:395] conv6_2_relu -> conv6_2 (in-place)
I0609 14:12:28.513164 31468 net.cpp:150] Setting up conv6_2_relu
I0609 14:12:28.513180 31468 net.cpp:157] Top shape: 4 512 10 10 (204800)
I0609 14:12:28.513185 31468 net.cpp:165] Memory required for data: 936439840
I0609 14:12:28.513191 31468 layer_factory.hpp:77] Creating layer conv6_2_conv6_2_relu_0_split
I0609 14:12:28.513200 31468 net.cpp:100] Creating Layer conv6_2_conv6_2_relu_0_split
I0609 14:12:28.513206 31468 net.cpp:434] conv6_2_conv6_2_relu_0_split <- conv6_2
I0609 14:12:28.513212 31468 net.cpp:408] conv6_2_conv6_2_relu_0_split -> conv6_2_conv6_2_relu_0_split_0
I0609 14:12:28.513226 31468 net.cpp:408] conv6_2_conv6_2_relu_0_split -> conv6_2_conv6_2_relu_0_split_1
I0609 14:12:28.513265 31468 net.cpp:408] conv6_2_conv6_2_relu_0_split -> conv6_2_conv6_2_relu_0_split_2
I0609 14:12:28.513274 31468 net.cpp:408] conv6_2_conv6_2_relu_0_split -> conv6_2_conv6_2_relu_0_split_3
I0609 14:12:28.513406 31468 net.cpp:150] Setting up conv6_2_conv6_2_relu_0_split
I0609 14:12:28.513418 31468 net.cpp:157] Top shape: 4 512 10 10 (204800)
I0609 14:12:28.513427 31468 net.cpp:157] Top shape: 4 512 10 10 (204800)
I0609 14:12:28.513433 31468 net.cpp:157] Top shape: 4 512 10 10 (204800)
I0609 14:12:28.513439 31468 net.cpp:157] Top shape: 4 512 10 10 (204800)
I0609 14:12:28.513444 31468 net.cpp:165] Memory required for data: 939716640
I0609 14:12:28.513449 31468 layer_factory.hpp:77] Creating layer conv7_1
I0609 14:12:28.513464 31468 net.cpp:100] Creating Layer conv7_1
I0609 14:12:28.513473 31468 net.cpp:434] conv7_1 <- conv6_2_conv6_2_relu_0_split_0
I0609 14:12:28.513480 31468 net.cpp:408] conv7_1 -> conv7_1
I0609 14:12:28.515918 31468 net.cpp:150] Setting up conv7_1
I0609 14:12:28.515943 31468 net.cpp:157] Top shape: 4 128 10 10 (51200)
I0609 14:12:28.515947 31468 net.cpp:165] Memory required for data: 939921440
I0609 14:12:28.515956 31468 layer_factory.hpp:77] Creating layer conv7_1_relu
I0609 14:12:28.515969 31468 net.cpp:100] Creating Layer conv7_1_relu
I0609 14:12:28.515975 31468 net.cpp:434] conv7_1_relu <- conv7_1
I0609 14:12:28.515987 31468 net.cpp:395] conv7_1_relu -> conv7_1 (in-place)
I0609 14:12:28.516593 31468 net.cpp:150] Setting up conv7_1_relu
I0609 14:12:28.516618 31468 net.cpp:157] Top shape: 4 128 10 10 (51200)
I0609 14:12:28.516624 31468 net.cpp:165] Memory required for data: 940126240
I0609 14:12:28.516629 31468 layer_factory.hpp:77] Creating layer conv7_2
I0609 14:12:28.516659 31468 net.cpp:100] Creating Layer conv7_2
I0609 14:12:28.516666 31468 net.cpp:434] conv7_2 <- conv7_1
I0609 14:12:28.516682 31468 net.cpp:408] conv7_2 -> conv7_2
I0609 14:12:28.523927 31468 net.cpp:150] Setting up conv7_2
I0609 14:12:28.523962 31468 net.cpp:157] Top shape: 4 256 5 5 (25600)
I0609 14:12:28.523967 31468 net.cpp:165] Memory required for data: 940228640
I0609 14:12:28.523978 31468 layer_factory.hpp:77] Creating layer conv7_2_relu
I0609 14:12:28.523993 31468 net.cpp:100] Creating Layer conv7_2_relu
I0609 14:12:28.524003 31468 net.cpp:434] conv7_2_relu <- conv7_2
I0609 14:12:28.524015 31468 net.cpp:395] conv7_2_relu -> conv7_2 (in-place)
I0609 14:12:28.524319 31468 net.cpp:150] Setting up conv7_2_relu
I0609 14:12:28.524339 31468 net.cpp:157] Top shape: 4 256 5 5 (25600)
I0609 14:12:28.524345 31468 net.cpp:165] Memory required for data: 940331040
I0609 14:12:28.524351 31468 layer_factory.hpp:77] Creating layer conv7_2_conv7_2_relu_0_split
I0609 14:12:28.524363 31468 net.cpp:100] Creating Layer conv7_2_conv7_2_relu_0_split
I0609 14:12:28.524369 31468 net.cpp:434] conv7_2_conv7_2_relu_0_split <- conv7_2
I0609 14:12:28.524382 31468 net.cpp:408] conv7_2_conv7_2_relu_0_split -> conv7_2_conv7_2_relu_0_split_0
I0609 14:12:28.524394 31468 net.cpp:408] conv7_2_conv7_2_relu_0_split -> conv7_2_conv7_2_relu_0_split_1
I0609 14:12:28.524402 31468 net.cpp:408] conv7_2_conv7_2_relu_0_split -> conv7_2_conv7_2_relu_0_split_2
I0609 14:12:28.524411 31468 net.cpp:408] conv7_2_conv7_2_relu_0_split -> conv7_2_conv7_2_relu_0_split_3
I0609 14:12:28.524562 31468 net.cpp:150] Setting up conv7_2_conv7_2_relu_0_split
I0609 14:12:28.524579 31468 net.cpp:157] Top shape: 4 256 5 5 (25600)
I0609 14:12:28.524586 31468 net.cpp:157] Top shape: 4 256 5 5 (25600)
I0609 14:12:28.524593 31468 net.cpp:157] Top shape: 4 256 5 5 (25600)
I0609 14:12:28.524600 31468 net.cpp:157] Top shape: 4 256 5 5 (25600)
I0609 14:12:28.524605 31468 net.cpp:165] Memory required for data: 940740640
I0609 14:12:28.524611 31468 layer_factory.hpp:77] Creating layer conv8_1
I0609 14:12:28.524626 31468 net.cpp:100] Creating Layer conv8_1
I0609 14:12:28.524633 31468 net.cpp:434] conv8_1 <- conv7_2_conv7_2_relu_0_split_0
I0609 14:12:28.524647 31468 net.cpp:408] conv8_1 -> conv8_1
I0609 14:12:28.526870 31468 net.cpp:150] Setting up conv8_1
I0609 14:12:28.526913 31468 net.cpp:157] Top shape: 4 128 5 5 (12800)
I0609 14:12:28.526919 31468 net.cpp:165] Memory required for data: 940791840
I0609 14:12:28.526938 31468 layer_factory.hpp:77] Creating layer conv8_1_relu
I0609 14:12:28.526949 31468 net.cpp:100] Creating Layer conv8_1_relu
I0609 14:12:28.526959 31468 net.cpp:434] conv8_1_relu <- conv8_1
I0609 14:12:28.526991 31468 net.cpp:395] conv8_1_relu -> conv8_1 (in-place)
I0609 14:12:28.527609 31468 net.cpp:150] Setting up conv8_1_relu
I0609 14:12:28.527643 31468 net.cpp:157] Top shape: 4 128 5 5 (12800)
I0609 14:12:28.527648 31468 net.cpp:165] Memory required for data: 940843040
I0609 14:12:28.527655 31468 layer_factory.hpp:77] Creating layer conv8_2
I0609 14:12:28.527673 31468 net.cpp:100] Creating Layer conv8_2
I0609 14:12:28.527679 31468 net.cpp:434] conv8_2 <- conv8_1
I0609 14:12:28.527693 31468 net.cpp:408] conv8_2 -> conv8_2
I0609 14:12:28.533300 31468 net.cpp:150] Setting up conv8_2
I0609 14:12:28.533334 31468 net.cpp:157] Top shape: 4 256 3 3 (9216)
I0609 14:12:28.533339 31468 net.cpp:165] Memory required for data: 940879904
I0609 14:12:28.533349 31468 layer_factory.hpp:77] Creating layer conv8_2_relu
I0609 14:12:28.533365 31468 net.cpp:100] Creating Layer conv8_2_relu
I0609 14:12:28.533375 31468 net.cpp:434] conv8_2_relu <- conv8_2
I0609 14:12:28.533385 31468 net.cpp:395] conv8_2_relu -> conv8_2 (in-place)
I0609 14:12:28.534021 31468 net.cpp:150] Setting up conv8_2_relu
I0609 14:12:28.534045 31468 net.cpp:157] Top shape: 4 256 3 3 (9216)
I0609 14:12:28.534051 31468 net.cpp:165] Memory required for data: 940916768
I0609 14:12:28.534059 31468 layer_factory.hpp:77] Creating layer conv8_2_conv8_2_relu_0_split
I0609 14:12:28.534070 31468 net.cpp:100] Creating Layer conv8_2_conv8_2_relu_0_split
I0609 14:12:28.534075 31468 net.cpp:434] conv8_2_conv8_2_relu_0_split <- conv8_2
I0609 14:12:28.534091 31468 net.cpp:408] conv8_2_conv8_2_relu_0_split -> conv8_2_conv8_2_relu_0_split_0
I0609 14:12:28.534103 31468 net.cpp:408] conv8_2_conv8_2_relu_0_split -> conv8_2_conv8_2_relu_0_split_1
I0609 14:12:28.534112 31468 net.cpp:408] conv8_2_conv8_2_relu_0_split -> conv8_2_conv8_2_relu_0_split_2
I0609 14:12:28.534121 31468 net.cpp:408] conv8_2_conv8_2_relu_0_split -> conv8_2_conv8_2_relu_0_split_3
I0609 14:12:28.534273 31468 net.cpp:150] Setting up conv8_2_conv8_2_relu_0_split
I0609 14:12:28.534289 31468 net.cpp:157] Top shape: 4 256 3 3 (9216)
I0609 14:12:28.534297 31468 net.cpp:157] Top shape: 4 256 3 3 (9216)
I0609 14:12:28.534303 31468 net.cpp:157] Top shape: 4 256 3 3 (9216)
I0609 14:12:28.534312 31468 net.cpp:157] Top shape: 4 256 3 3 (9216)
I0609 14:12:28.534317 31468 net.cpp:165] Memory required for data: 941064224
I0609 14:12:28.534322 31468 layer_factory.hpp:77] Creating layer conv9_1
I0609 14:12:28.534338 31468 net.cpp:100] Creating Layer conv9_1
I0609 14:12:28.534345 31468 net.cpp:434] conv9_1 <- conv8_2_conv8_2_relu_0_split_0
I0609 14:12:28.534358 31468 net.cpp:408] conv9_1 -> conv9_1
I0609 14:12:28.537763 31468 net.cpp:150] Setting up conv9_1
I0609 14:12:28.537789 31468 net.cpp:157] Top shape: 4 128 3 3 (4608)
I0609 14:12:28.537793 31468 net.cpp:165] Memory required for data: 941082656
I0609 14:12:28.537803 31468 layer_factory.hpp:77] Creating layer conv9_1_relu
I0609 14:12:28.537812 31468 net.cpp:100] Creating Layer conv9_1_relu
I0609 14:12:28.537818 31468 net.cpp:434] conv9_1_relu <- conv9_1
I0609 14:12:28.537842 31468 net.cpp:395] conv9_1_relu -> conv9_1 (in-place)
I0609 14:12:28.538131 31468 net.cpp:150] Setting up conv9_1_relu
I0609 14:12:28.538151 31468 net.cpp:157] Top shape: 4 128 3 3 (4608)
I0609 14:12:28.538156 31468 net.cpp:165] Memory required for data: 941101088
I0609 14:12:28.538163 31468 layer_factory.hpp:77] Creating layer conv9_2
I0609 14:12:28.538178 31468 net.cpp:100] Creating Layer conv9_2
I0609 14:12:28.538187 31468 net.cpp:434] conv9_2 <- conv9_1
I0609 14:12:28.538199 31468 net.cpp:408] conv9_2 -> conv9_2
I0609 14:12:28.543879 31468 net.cpp:150] Setting up conv9_2
I0609 14:12:28.543907 31468 net.cpp:157] Top shape: 4 256 1 1 (1024)
I0609 14:12:28.543913 31468 net.cpp:165] Memory required for data: 941105184
I0609 14:12:28.543951 31468 layer_factory.hpp:77] Creating layer conv9_2_relu
I0609 14:12:28.543962 31468 net.cpp:100] Creating Layer conv9_2_relu
I0609 14:12:28.543968 31468 net.cpp:434] conv9_2_relu <- conv9_2
I0609 14:12:28.543977 31468 net.cpp:395] conv9_2_relu -> conv9_2 (in-place)
I0609 14:12:28.544595 31468 net.cpp:150] Setting up conv9_2_relu
I0609 14:12:28.544628 31468 net.cpp:157] Top shape: 4 256 1 1 (1024)
I0609 14:12:28.544636 31468 net.cpp:165] Memory required for data: 941109280
I0609 14:12:28.544646 31468 layer_factory.hpp:77] Creating layer conv9_2_conv9_2_relu_0_split
I0609 14:12:28.544656 31468 net.cpp:100] Creating Layer conv9_2_conv9_2_relu_0_split
I0609 14:12:28.544662 31468 net.cpp:434] conv9_2_conv9_2_relu_0_split <- conv9_2
I0609 14:12:28.544674 31468 net.cpp:408] conv9_2_conv9_2_relu_0_split -> conv9_2_conv9_2_relu_0_split_0
I0609 14:12:28.544685 31468 net.cpp:408] conv9_2_conv9_2_relu_0_split -> conv9_2_conv9_2_relu_0_split_1
I0609 14:12:28.544694 31468 net.cpp:408] conv9_2_conv9_2_relu_0_split -> conv9_2_conv9_2_relu_0_split_2
I0609 14:12:28.544821 31468 net.cpp:150] Setting up conv9_2_conv9_2_relu_0_split
I0609 14:12:28.544834 31468 net.cpp:157] Top shape: 4 256 1 1 (1024)
I0609 14:12:28.544843 31468 net.cpp:157] Top shape: 4 256 1 1 (1024)
I0609 14:12:28.544849 31468 net.cpp:157] Top shape: 4 256 1 1 (1024)
I0609 14:12:28.544854 31468 net.cpp:165] Memory required for data: 941121568
I0609 14:12:28.544862 31468 layer_factory.hpp:77] Creating layer conv4_3_norm
I0609 14:12:28.544875 31468 net.cpp:100] Creating Layer conv4_3_norm
I0609 14:12:28.544883 31468 net.cpp:434] conv4_3_norm <- conv4_3_relu4_3_0_split_1
I0609 14:12:28.544894 31468 net.cpp:408] conv4_3_norm -> conv4_3_norm
I0609 14:12:28.545251 31468 net.cpp:150] Setting up conv4_3_norm
I0609 14:12:28.545267 31468 net.cpp:157] Top shape: 4 512 38 38 (2957312)
I0609 14:12:28.545272 31468 net.cpp:165] Memory required for data: 952950816
I0609 14:12:28.545280 31468 layer_factory.hpp:77] Creating layer conv4_3_norm_conv4_3_norm_0_split
I0609 14:12:28.545289 31468 net.cpp:100] Creating Layer conv4_3_norm_conv4_3_norm_0_split
I0609 14:12:28.545295 31468 net.cpp:434] conv4_3_norm_conv4_3_norm_0_split <- conv4_3_norm
I0609 14:12:28.545305 31468 net.cpp:408] conv4_3_norm_conv4_3_norm_0_split -> conv4_3_norm_conv4_3_norm_0_split_0
I0609 14:12:28.545315 31468 net.cpp:408] conv4_3_norm_conv4_3_norm_0_split -> conv4_3_norm_conv4_3_norm_0_split_1
I0609 14:12:28.545323 31468 net.cpp:408] conv4_3_norm_conv4_3_norm_0_split -> conv4_3_norm_conv4_3_norm_0_split_2
I0609 14:12:28.545430 31468 net.cpp:150] Setting up conv4_3_norm_conv4_3_norm_0_split
I0609 14:12:28.545444 31468 net.cpp:157] Top shape: 4 512 38 38 (2957312)
I0609 14:12:28.545450 31468 net.cpp:157] Top shape: 4 512 38 38 (2957312)
I0609 14:12:28.545457 31468 net.cpp:157] Top shape: 4 512 38 38 (2957312)
I0609 14:12:28.545462 31468 net.cpp:165] Memory required for data: 988438560
I0609 14:12:28.545469 31468 layer_factory.hpp:77] Creating layer conv4_3_norm_mbox_loc
I0609 14:12:28.545485 31468 net.cpp:100] Creating Layer conv4_3_norm_mbox_loc
I0609 14:12:28.545491 31468 net.cpp:434] conv4_3_norm_mbox_loc <- conv4_3_norm_conv4_3_norm_0_split_0
I0609 14:12:28.545500 31468 net.cpp:408] conv4_3_norm_mbox_loc -> conv4_3_norm_mbox_loc
I0609 14:12:28.548616 31468 net.cpp:150] Setting up conv4_3_norm_mbox_loc
I0609 14:12:28.548641 31468 net.cpp:157] Top shape: 4 16 38 38 (92416)
I0609 14:12:28.548647 31468 net.cpp:165] Memory required for data: 988808224
I0609 14:12:28.548658 31468 layer_factory.hpp:77] Creating layer conv4_3_norm_mbox_loc_perm
I0609 14:12:28.548671 31468 net.cpp:100] Creating Layer conv4_3_norm_mbox_loc_perm
I0609 14:12:28.548676 31468 net.cpp:434] conv4_3_norm_mbox_loc_perm <- conv4_3_norm_mbox_loc
I0609 14:12:28.548686 31468 net.cpp:408] conv4_3_norm_mbox_loc_perm -> conv4_3_norm_mbox_loc_perm
I0609 14:12:28.548907 31468 net.cpp:150] Setting up conv4_3_norm_mbox_loc_perm
I0609 14:12:28.548921 31468 net.cpp:157] Top shape: 4 38 38 16 (92416)
I0609 14:12:28.548944 31468 net.cpp:165] Memory required for data: 989177888
I0609 14:12:28.548949 31468 layer_factory.hpp:77] Creating layer conv4_3_norm_mbox_loc_flat
I0609 14:12:28.548959 31468 net.cpp:100] Creating Layer conv4_3_norm_mbox_loc_flat
I0609 14:12:28.548964 31468 net.cpp:434] conv4_3_norm_mbox_loc_flat <- conv4_3_norm_mbox_loc_perm
I0609 14:12:28.548971 31468 net.cpp:408] conv4_3_norm_mbox_loc_flat -> conv4_3_norm_mbox_loc_flat
I0609 14:12:28.549026 31468 net.cpp:150] Setting up conv4_3_norm_mbox_loc_flat
I0609 14:12:28.549036 31468 net.cpp:157] Top shape: 4 23104 (92416)
I0609 14:12:28.549041 31468 net.cpp:165] Memory required for data: 989547552
I0609 14:12:28.549046 31468 layer_factory.hpp:77] Creating layer conv4_3_norm_mbox_conf
I0609 14:12:28.549073 31468 net.cpp:100] Creating Layer conv4_3_norm_mbox_conf
I0609 14:12:28.549079 31468 net.cpp:434] conv4_3_norm_mbox_conf <- conv4_3_norm_conv4_3_norm_0_split_1
I0609 14:12:28.549090 31468 net.cpp:408] conv4_3_norm_mbox_conf -> conv4_3_norm_mbox_conf
I0609 14:12:28.552520 31468 net.cpp:150] Setting up conv4_3_norm_mbox_conf
I0609 14:12:28.552551 31468 net.cpp:157] Top shape: 4 12 38 38 (69312)
I0609 14:12:28.552557 31468 net.cpp:165] Memory required for data: 989824800
I0609 14:12:28.552570 31468 layer_factory.hpp:77] Creating layer conv4_3_norm_mbox_conf_perm
I0609 14:12:28.552583 31468 net.cpp:100] Creating Layer conv4_3_norm_mbox_conf_perm
I0609 14:12:28.552595 31468 net.cpp:434] conv4_3_norm_mbox_conf_perm <- conv4_3_norm_mbox_conf
I0609 14:12:28.552609 31468 net.cpp:408] conv4_3_norm_mbox_conf_perm -> conv4_3_norm_mbox_conf_perm
I0609 14:12:28.552870 31468 net.cpp:150] Setting up conv4_3_norm_mbox_conf_perm
I0609 14:12:28.552883 31468 net.cpp:157] Top shape: 4 38 38 12 (69312)
I0609 14:12:28.552892 31468 net.cpp:165] Memory required for data: 990102048
I0609 14:12:28.552898 31468 layer_factory.hpp:77] Creating layer conv4_3_norm_mbox_conf_flat
I0609 14:12:28.552908 31468 net.cpp:100] Creating Layer conv4_3_norm_mbox_conf_flat
I0609 14:12:28.552914 31468 net.cpp:434] conv4_3_norm_mbox_conf_flat <- conv4_3_norm_mbox_conf_perm
I0609 14:12:28.552922 31468 net.cpp:408] conv4_3_norm_mbox_conf_flat -> conv4_3_norm_mbox_conf_flat
I0609 14:12:28.552969 31468 net.cpp:150] Setting up conv4_3_norm_mbox_conf_flat
I0609 14:12:28.552985 31468 net.cpp:157] Top shape: 4 17328 (69312)
I0609 14:12:28.552991 31468 net.cpp:165] Memory required for data: 990379296
I0609 14:12:28.552996 31468 layer_factory.hpp:77] Creating layer conv4_3_norm_mbox_priorbox
I0609 14:12:28.553009 31468 net.cpp:100] Creating Layer conv4_3_norm_mbox_priorbox
I0609 14:12:28.553016 31468 net.cpp:434] conv4_3_norm_mbox_priorbox <- conv4_3_norm_conv4_3_norm_0_split_2
I0609 14:12:28.553025 31468 net.cpp:434] conv4_3_norm_mbox_priorbox <- data_data_0_split_1
I0609 14:12:28.553035 31468 net.cpp:408] conv4_3_norm_mbox_priorbox -> conv4_3_norm_mbox_priorbox
I0609 14:12:28.553086 31468 net.cpp:150] Setting up conv4_3_norm_mbox_priorbox
I0609 14:12:28.553097 31468 net.cpp:157] Top shape: 1 2 23104 (46208)
I0609 14:12:28.553103 31468 net.cpp:165] Memory required for data: 990564128
I0609 14:12:28.553109 31468 layer_factory.hpp:77] Creating layer fc7_mbox_loc
I0609 14:12:28.553124 31468 net.cpp:100] Creating Layer fc7_mbox_loc
I0609 14:12:28.553131 31468 net.cpp:434] fc7_mbox_loc <- fc7_relu7_0_split_1
I0609 14:12:28.553143 31468 net.cpp:408] fc7_mbox_loc -> fc7_mbox_loc
I0609 14:12:28.558365 31468 net.cpp:150] Setting up fc7_mbox_loc
I0609 14:12:28.558394 31468 net.cpp:157] Top shape: 4 24 19 19 (34656)
I0609 14:12:28.558400 31468 net.cpp:165] Memory required for data: 990702752
I0609 14:12:28.558414 31468 layer_factory.hpp:77] Creating layer fc7_mbox_loc_perm
I0609 14:12:28.558426 31468 net.cpp:100] Creating Layer fc7_mbox_loc_perm
I0609 14:12:28.558434 31468 net.cpp:434] fc7_mbox_loc_perm <- fc7_mbox_loc
I0609 14:12:28.558445 31468 net.cpp:408] fc7_mbox_loc_perm -> fc7_mbox_loc_perm
I0609 14:12:28.558706 31468 net.cpp:150] Setting up fc7_mbox_loc_perm
I0609 14:12:28.558720 31468 net.cpp:157] Top shape: 4 19 19 24 (34656)
I0609 14:12:28.558745 31468 net.cpp:165] Memory required for data: 990841376
I0609 14:12:28.558753 31468 layer_factory.hpp:77] Creating layer fc7_mbox_loc_flat
I0609 14:12:28.558765 31468 net.cpp:100] Creating Layer fc7_mbox_loc_flat
I0609 14:12:28.558773 31468 net.cpp:434] fc7_mbox_loc_flat <- fc7_mbox_loc_perm
I0609 14:12:28.558779 31468 net.cpp:408] fc7_mbox_loc_flat -> fc7_mbox_loc_flat
I0609 14:12:28.558827 31468 net.cpp:150] Setting up fc7_mbox_loc_flat
I0609 14:12:28.558838 31468 net.cpp:157] Top shape: 4 8664 (34656)
I0609 14:12:28.558845 31468 net.cpp:165] Memory required for data: 990980000
I0609 14:12:28.558850 31468 layer_factory.hpp:77] Creating layer fc7_mbox_conf
I0609 14:12:28.558864 31468 net.cpp:100] Creating Layer fc7_mbox_conf
I0609 14:12:28.558871 31468 net.cpp:434] fc7_mbox_conf <- fc7_relu7_0_split_2
I0609 14:12:28.558886 31468 net.cpp:408] fc7_mbox_conf -> fc7_mbox_conf
I0609 14:12:28.563640 31468 net.cpp:150] Setting up fc7_mbox_conf
I0609 14:12:28.563683 31468 net.cpp:157] Top shape: 4 18 19 19 (25992)
I0609 14:12:28.563690 31468 net.cpp:165] Memory required for data: 991083968
I0609 14:12:28.563702 31468 layer_factory.hpp:77] Creating layer fc7_mbox_conf_perm
I0609 14:12:28.563724 31468 net.cpp:100] Creating Layer fc7_mbox_conf_perm
I0609 14:12:28.563733 31468 net.cpp:434] fc7_mbox_conf_perm <- fc7_mbox_conf
I0609 14:12:28.563745 31468 net.cpp:408] fc7_mbox_conf_perm -> fc7_mbox_conf_perm
I0609 14:12:28.564007 31468 net.cpp:150] Setting up fc7_mbox_conf_perm
I0609 14:12:28.564018 31468 net.cpp:157] Top shape: 4 19 19 18 (25992)
I0609 14:12:28.564024 31468 net.cpp:165] Memory required for data: 991187936
I0609 14:12:28.564030 31468 layer_factory.hpp:77] Creating layer fc7_mbox_conf_flat
I0609 14:12:28.564043 31468 net.cpp:100] Creating Layer fc7_mbox_conf_flat
I0609 14:12:28.564050 31468 net.cpp:434] fc7_mbox_conf_flat <- fc7_mbox_conf_perm
I0609 14:12:28.564059 31468 net.cpp:408] fc7_mbox_conf_flat -> fc7_mbox_conf_flat
I0609 14:12:28.564105 31468 net.cpp:150] Setting up fc7_mbox_conf_flat
I0609 14:12:28.564121 31468 net.cpp:157] Top shape: 4 6498 (25992)
I0609 14:12:28.564126 31468 net.cpp:165] Memory required for data: 991291904
I0609 14:12:28.564132 31468 layer_factory.hpp:77] Creating layer fc7_mbox_priorbox
I0609 14:12:28.564142 31468 net.cpp:100] Creating Layer fc7_mbox_priorbox
I0609 14:12:28.564148 31468 net.cpp:434] fc7_mbox_priorbox <- fc7_relu7_0_split_3
I0609 14:12:28.564158 31468 net.cpp:434] fc7_mbox_priorbox <- data_data_0_split_2
I0609 14:12:28.564168 31468 net.cpp:408] fc7_mbox_priorbox -> fc7_mbox_priorbox
I0609 14:12:28.564223 31468 net.cpp:150] Setting up fc7_mbox_priorbox
I0609 14:12:28.564234 31468 net.cpp:157] Top shape: 1 2 8664 (17328)
I0609 14:12:28.564240 31468 net.cpp:165] Memory required for data: 991361216
I0609 14:12:28.564246 31468 layer_factory.hpp:77] Creating layer conv6_2_mbox_loc
I0609 14:12:28.564261 31468 net.cpp:100] Creating Layer conv6_2_mbox_loc
I0609 14:12:28.564270 31468 net.cpp:434] conv6_2_mbox_loc <- conv6_2_conv6_2_relu_0_split_1
I0609 14:12:28.564281 31468 net.cpp:408] conv6_2_mbox_loc -> conv6_2_mbox_loc
I0609 14:12:28.568414 31468 net.cpp:150] Setting up conv6_2_mbox_loc
I0609 14:12:28.568444 31468 net.cpp:157] Top shape: 4 24 10 10 (9600)
I0609 14:12:28.568451 31468 net.cpp:165] Memory required for data: 991399616
I0609 14:12:28.568461 31468 layer_factory.hpp:77] Creating layer conv6_2_mbox_loc_perm
I0609 14:12:28.568473 31468 net.cpp:100] Creating Layer conv6_2_mbox_loc_perm
I0609 14:12:28.568480 31468 net.cpp:434] conv6_2_mbox_loc_perm <- conv6_2_mbox_loc
I0609 14:12:28.568493 31468 net.cpp:408] conv6_2_mbox_loc_perm -> conv6_2_mbox_loc_perm
I0609 14:12:28.568763 31468 net.cpp:150] Setting up conv6_2_mbox_loc_perm
I0609 14:12:28.568781 31468 net.cpp:157] Top shape: 4 10 10 24 (9600)
I0609 14:12:28.568787 31468 net.cpp:165] Memory required for data: 991438016
I0609 14:12:28.568792 31468 layer_factory.hpp:77] Creating layer conv6_2_mbox_loc_flat
I0609 14:12:28.568801 31468 net.cpp:100] Creating Layer conv6_2_mbox_loc_flat
I0609 14:12:28.568830 31468 net.cpp:434] conv6_2_mbox_loc_flat <- conv6_2_mbox_loc_perm
I0609 14:12:28.568840 31468 net.cpp:408] conv6_2_mbox_loc_flat -> conv6_2_mbox_loc_flat
I0609 14:12:28.568886 31468 net.cpp:150] Setting up conv6_2_mbox_loc_flat
I0609 14:12:28.568894 31468 net.cpp:157] Top shape: 4 2400 (9600)
I0609 14:12:28.568899 31468 net.cpp:165] Memory required for data: 991476416
I0609 14:12:28.568905 31468 layer_factory.hpp:77] Creating layer conv6_2_mbox_conf
I0609 14:12:28.568922 31468 net.cpp:100] Creating Layer conv6_2_mbox_conf
I0609 14:12:28.568929 31468 net.cpp:434] conv6_2_mbox_conf <- conv6_2_conv6_2_relu_0_split_2
I0609 14:12:28.568938 31468 net.cpp:408] conv6_2_mbox_conf -> conv6_2_mbox_conf
I0609 14:12:28.572912 31468 net.cpp:150] Setting up conv6_2_mbox_conf
I0609 14:12:28.572934 31468 net.cpp:157] Top shape: 4 18 10 10 (7200)
I0609 14:12:28.572940 31468 net.cpp:165] Memory required for data: 991505216
I0609 14:12:28.572952 31468 layer_factory.hpp:77] Creating layer conv6_2_mbox_conf_perm
I0609 14:12:28.572962 31468 net.cpp:100] Creating Layer conv6_2_mbox_conf_perm
I0609 14:12:28.572968 31468 net.cpp:434] conv6_2_mbox_conf_perm <- conv6_2_mbox_conf
I0609 14:12:28.572976 31468 net.cpp:408] conv6_2_mbox_conf_perm -> conv6_2_mbox_conf_perm
I0609 14:12:28.573213 31468 net.cpp:150] Setting up conv6_2_mbox_conf_perm
I0609 14:12:28.573226 31468 net.cpp:157] Top shape: 4 10 10 18 (7200)
I0609 14:12:28.573231 31468 net.cpp:165] Memory required for data: 991534016
I0609 14:12:28.573235 31468 layer_factory.hpp:77] Creating layer conv6_2_mbox_conf_flat
I0609 14:12:28.573243 31468 net.cpp:100] Creating Layer conv6_2_mbox_conf_flat
I0609 14:12:28.573249 31468 net.cpp:434] conv6_2_mbox_conf_flat <- conv6_2_mbox_conf_perm
I0609 14:12:28.573257 31468 net.cpp:408] conv6_2_mbox_conf_flat -> conv6_2_mbox_conf_flat
I0609 14:12:28.573304 31468 net.cpp:150] Setting up conv6_2_mbox_conf_flat
I0609 14:12:28.573312 31468 net.cpp:157] Top shape: 4 1800 (7200)
I0609 14:12:28.573317 31468 net.cpp:165] Memory required for data: 991562816
I0609 14:12:28.573323 31468 layer_factory.hpp:77] Creating layer conv6_2_mbox_priorbox
I0609 14:12:28.573331 31468 net.cpp:100] Creating Layer conv6_2_mbox_priorbox
I0609 14:12:28.573338 31468 net.cpp:434] conv6_2_mbox_priorbox <- conv6_2_conv6_2_relu_0_split_3
I0609 14:12:28.573343 31468 net.cpp:434] conv6_2_mbox_priorbox <- data_data_0_split_3
I0609 14:12:28.573354 31468 net.cpp:408] conv6_2_mbox_priorbox -> conv6_2_mbox_priorbox
I0609 14:12:28.573396 31468 net.cpp:150] Setting up conv6_2_mbox_priorbox
I0609 14:12:28.573408 31468 net.cpp:157] Top shape: 1 2 2400 (4800)
I0609 14:12:28.573413 31468 net.cpp:165] Memory required for data: 991582016
I0609 14:12:28.573418 31468 layer_factory.hpp:77] Creating layer conv7_2_mbox_loc
I0609 14:12:28.573431 31468 net.cpp:100] Creating Layer conv7_2_mbox_loc
I0609 14:12:28.573438 31468 net.cpp:434] conv7_2_mbox_loc <- conv7_2_conv7_2_relu_0_split_1
I0609 14:12:28.573448 31468 net.cpp:408] conv7_2_mbox_loc -> conv7_2_mbox_loc
I0609 14:12:28.576305 31468 net.cpp:150] Setting up conv7_2_mbox_loc
I0609 14:12:28.576329 31468 net.cpp:157] Top shape: 4 24 5 5 (2400)
I0609 14:12:28.576335 31468 net.cpp:165] Memory required for data: 991591616
I0609 14:12:28.576349 31468 layer_factory.hpp:77] Creating layer conv7_2_mbox_loc_perm
I0609 14:12:28.576359 31468 net.cpp:100] Creating Layer conv7_2_mbox_loc_perm
I0609 14:12:28.576367 31468 net.cpp:434] conv7_2_mbox_loc_perm <- conv7_2_mbox_loc
I0609 14:12:28.576378 31468 net.cpp:408] conv7_2_mbox_loc_perm -> conv7_2_mbox_loc_perm
I0609 14:12:28.576644 31468 net.cpp:150] Setting up conv7_2_mbox_loc_perm
I0609 14:12:28.576659 31468 net.cpp:157] Top shape: 4 5 5 24 (2400)
I0609 14:12:28.576664 31468 net.cpp:165] Memory required for data: 991601216
I0609 14:12:28.576671 31468 layer_factory.hpp:77] Creating layer conv7_2_mbox_loc_flat
I0609 14:12:28.576680 31468 net.cpp:100] Creating Layer conv7_2_mbox_loc_flat
I0609 14:12:28.576688 31468 net.cpp:434] conv7_2_mbox_loc_flat <- conv7_2_mbox_loc_perm
I0609 14:12:28.576714 31468 net.cpp:408] conv7_2_mbox_loc_flat -> conv7_2_mbox_loc_flat
I0609 14:12:28.576762 31468 net.cpp:150] Setting up conv7_2_mbox_loc_flat
I0609 14:12:28.576786 31468 net.cpp:157] Top shape: 4 600 (2400)
I0609 14:12:28.576792 31468 net.cpp:165] Memory required for data: 991610816
I0609 14:12:28.576797 31468 layer_factory.hpp:77] Creating layer conv7_2_mbox_conf
I0609 14:12:28.576813 31468 net.cpp:100] Creating Layer conv7_2_mbox_conf
I0609 14:12:28.576827 31468 net.cpp:434] conv7_2_mbox_conf <- conv7_2_conv7_2_relu_0_split_2
I0609 14:12:28.576838 31468 net.cpp:408] conv7_2_mbox_conf -> conv7_2_mbox_conf
I0609 14:12:28.579641 31468 net.cpp:150] Setting up conv7_2_mbox_conf
I0609 14:12:28.579664 31468 net.cpp:157] Top shape: 4 18 5 5 (1800)
I0609 14:12:28.579670 31468 net.cpp:165] Memory required for data: 991618016
I0609 14:12:28.579681 31468 layer_factory.hpp:77] Creating layer conv7_2_mbox_conf_perm
I0609 14:12:28.579694 31468 net.cpp:100] Creating Layer conv7_2_mbox_conf_perm
I0609 14:12:28.579701 31468 net.cpp:434] conv7_2_mbox_conf_perm <- conv7_2_mbox_conf
I0609 14:12:28.579713 31468 net.cpp:408] conv7_2_mbox_conf_perm -> conv7_2_mbox_conf_perm
I0609 14:12:28.579979 31468 net.cpp:150] Setting up conv7_2_mbox_conf_perm
I0609 14:12:28.579991 31468 net.cpp:157] Top shape: 4 5 5 18 (1800)
I0609 14:12:28.579998 31468 net.cpp:165] Memory required for data: 991625216
I0609 14:12:28.580003 31468 layer_factory.hpp:77] Creating layer conv7_2_mbox_conf_flat
I0609 14:12:28.580014 31468 net.cpp:100] Creating Layer conv7_2_mbox_conf_flat
I0609 14:12:28.580021 31468 net.cpp:434] conv7_2_mbox_conf_flat <- conv7_2_mbox_conf_perm
I0609 14:12:28.580029 31468 net.cpp:408] conv7_2_mbox_conf_flat -> conv7_2_mbox_conf_flat
I0609 14:12:28.580075 31468 net.cpp:150] Setting up conv7_2_mbox_conf_flat
I0609 14:12:28.580094 31468 net.cpp:157] Top shape: 4 450 (1800)
I0609 14:12:28.580099 31468 net.cpp:165] Memory required for data: 991632416
I0609 14:12:28.580106 31468 layer_factory.hpp:77] Creating layer conv7_2_mbox_priorbox
I0609 14:12:28.580114 31468 net.cpp:100] Creating Layer conv7_2_mbox_priorbox
I0609 14:12:28.580123 31468 net.cpp:434] conv7_2_mbox_priorbox <- conv7_2_conv7_2_relu_0_split_3
I0609 14:12:28.580132 31468 net.cpp:434] conv7_2_mbox_priorbox <- data_data_0_split_4
I0609 14:12:28.580140 31468 net.cpp:408] conv7_2_mbox_priorbox -> conv7_2_mbox_priorbox
I0609 14:12:28.580193 31468 net.cpp:150] Setting up conv7_2_mbox_priorbox
I0609 14:12:28.580206 31468 net.cpp:157] Top shape: 1 2 600 (1200)
I0609 14:12:28.580211 31468 net.cpp:165] Memory required for data: 991637216
I0609 14:12:28.580217 31468 layer_factory.hpp:77] Creating layer conv8_2_mbox_loc
I0609 14:12:28.580232 31468 net.cpp:100] Creating Layer conv8_2_mbox_loc
I0609 14:12:28.580240 31468 net.cpp:434] conv8_2_mbox_loc <- conv8_2_conv8_2_relu_0_split_1
I0609 14:12:28.580250 31468 net.cpp:408] conv8_2_mbox_loc -> conv8_2_mbox_loc
I0609 14:12:28.583097 31468 net.cpp:150] Setting up conv8_2_mbox_loc
I0609 14:12:28.583122 31468 net.cpp:157] Top shape: 4 16 3 3 (576)
I0609 14:12:28.583127 31468 net.cpp:165] Memory required for data: 991639520
I0609 14:12:28.583155 31468 layer_factory.hpp:77] Creating layer conv8_2_mbox_loc_perm
I0609 14:12:28.583169 31468 net.cpp:100] Creating Layer conv8_2_mbox_loc_perm
I0609 14:12:28.583176 31468 net.cpp:434] conv8_2_mbox_loc_perm <- conv8_2_mbox_loc
I0609 14:12:28.583186 31468 net.cpp:408] conv8_2_mbox_loc_perm -> conv8_2_mbox_loc_perm
I0609 14:12:28.583423 31468 net.cpp:150] Setting up conv8_2_mbox_loc_perm
I0609 14:12:28.583436 31468 net.cpp:157] Top shape: 4 3 3 16 (576)
I0609 14:12:28.583441 31468 net.cpp:165] Memory required for data: 991641824
I0609 14:12:28.583446 31468 layer_factory.hpp:77] Creating layer conv8_2_mbox_loc_flat
I0609 14:12:28.583454 31468 net.cpp:100] Creating Layer conv8_2_mbox_loc_flat
I0609 14:12:28.583461 31468 net.cpp:434] conv8_2_mbox_loc_flat <- conv8_2_mbox_loc_perm
I0609 14:12:28.583467 31468 net.cpp:408] conv8_2_mbox_loc_flat -> conv8_2_mbox_loc_flat
I0609 14:12:28.583508 31468 net.cpp:150] Setting up conv8_2_mbox_loc_flat
I0609 14:12:28.583533 31468 net.cpp:157] Top shape: 4 144 (576)
I0609 14:12:28.583539 31468 net.cpp:165] Memory required for data: 991644128
I0609 14:12:28.583544 31468 layer_factory.hpp:77] Creating layer conv8_2_mbox_conf
I0609 14:12:28.583556 31468 net.cpp:100] Creating Layer conv8_2_mbox_conf
I0609 14:12:28.583580 31468 net.cpp:434] conv8_2_mbox_conf <- conv8_2_conv8_2_relu_0_split_2
I0609 14:12:28.583592 31468 net.cpp:408] conv8_2_mbox_conf -> conv8_2_mbox_conf
I0609 14:12:28.586019 31468 net.cpp:150] Setting up conv8_2_mbox_conf
I0609 14:12:28.586040 31468 net.cpp:157] Top shape: 4 12 3 3 (432)
I0609 14:12:28.586045 31468 net.cpp:165] Memory required for data: 991645856
I0609 14:12:28.586055 31468 layer_factory.hpp:77] Creating layer conv8_2_mbox_conf_perm
I0609 14:12:28.586076 31468 net.cpp:100] Creating Layer conv8_2_mbox_conf_perm
I0609 14:12:28.586083 31468 net.cpp:434] conv8_2_mbox_conf_perm <- conv8_2_mbox_conf
I0609 14:12:28.586092 31468 net.cpp:408] conv8_2_mbox_conf_perm -> conv8_2_mbox_conf_perm
I0609 14:12:28.586364 31468 net.cpp:150] Setting up conv8_2_mbox_conf_perm
I0609 14:12:28.586376 31468 net.cpp:157] Top shape: 4 3 3 12 (432)
I0609 14:12:28.586383 31468 net.cpp:165] Memory required for data: 991647584
I0609 14:12:28.586388 31468 layer_factory.hpp:77] Creating layer conv8_2_mbox_conf_flat
I0609 14:12:28.586396 31468 net.cpp:100] Creating Layer conv8_2_mbox_conf_flat
I0609 14:12:28.586403 31468 net.cpp:434] conv8_2_mbox_conf_flat <- conv8_2_mbox_conf_perm
I0609 14:12:28.586413 31468 net.cpp:408] conv8_2_mbox_conf_flat -> conv8_2_mbox_conf_flat
I0609 14:12:28.586457 31468 net.cpp:150] Setting up conv8_2_mbox_conf_flat
I0609 14:12:28.586477 31468 net.cpp:157] Top shape: 4 108 (432)
I0609 14:12:28.586482 31468 net.cpp:165] Memory required for data: 991649312
I0609 14:12:28.586488 31468 layer_factory.hpp:77] Creating layer conv8_2_mbox_priorbox
I0609 14:12:28.586499 31468 net.cpp:100] Creating Layer conv8_2_mbox_priorbox
I0609 14:12:28.586506 31468 net.cpp:434] conv8_2_mbox_priorbox <- conv8_2_conv8_2_relu_0_split_3
I0609 14:12:28.586514 31468 net.cpp:434] conv8_2_mbox_priorbox <- data_data_0_split_5
I0609 14:12:28.586522 31468 net.cpp:408] conv8_2_mbox_priorbox -> conv8_2_mbox_priorbox
I0609 14:12:28.586571 31468 net.cpp:150] Setting up conv8_2_mbox_priorbox
I0609 14:12:28.586585 31468 net.cpp:157] Top shape: 1 2 144 (288)
I0609 14:12:28.586591 31468 net.cpp:165] Memory required for data: 991650464
I0609 14:12:28.586596 31468 layer_factory.hpp:77] Creating layer conv9_2_mbox_loc
I0609 14:12:28.586611 31468 net.cpp:100] Creating Layer conv9_2_mbox_loc
I0609 14:12:28.586618 31468 net.cpp:434] conv9_2_mbox_loc <- conv9_2_conv9_2_relu_0_split_0
I0609 14:12:28.586630 31468 net.cpp:408] conv9_2_mbox_loc -> conv9_2_mbox_loc
I0609 14:12:28.589766 31468 net.cpp:150] Setting up conv9_2_mbox_loc
I0609 14:12:28.589797 31468 net.cpp:157] Top shape: 4 16 1 1 (64)
I0609 14:12:28.589802 31468 net.cpp:165] Memory required for data: 991650720
I0609 14:12:28.589813 31468 layer_factory.hpp:77] Creating layer conv9_2_mbox_loc_perm
I0609 14:12:28.589826 31468 net.cpp:100] Creating Layer conv9_2_mbox_loc_perm
I0609 14:12:28.589836 31468 net.cpp:434] conv9_2_mbox_loc_perm <- conv9_2_mbox_loc
I0609 14:12:28.589845 31468 net.cpp:408] conv9_2_mbox_loc_perm -> conv9_2_mbox_loc_perm
I0609 14:12:28.590114 31468 net.cpp:150] Setting up conv9_2_mbox_loc_perm
I0609 14:12:28.590127 31468 net.cpp:157] Top shape: 4 1 1 16 (64)
I0609 14:12:28.590132 31468 net.cpp:165] Memory required for data: 991650976
I0609 14:12:28.590138 31468 layer_factory.hpp:77] Creating layer conv9_2_mbox_loc_flat
I0609 14:12:28.590147 31468 net.cpp:100] Creating Layer conv9_2_mbox_loc_flat
I0609 14:12:28.590154 31468 net.cpp:434] conv9_2_mbox_loc_flat <- conv9_2_mbox_loc_perm
I0609 14:12:28.590165 31468 net.cpp:408] conv9_2_mbox_loc_flat -> conv9_2_mbox_loc_flat
I0609 14:12:28.590214 31468 net.cpp:150] Setting up conv9_2_mbox_loc_flat
I0609 14:12:28.590240 31468 net.cpp:157] Top shape: 4 16 (64)
I0609 14:12:28.590245 31468 net.cpp:165] Memory required for data: 991651232
I0609 14:12:28.590270 31468 layer_factory.hpp:77] Creating layer conv9_2_mbox_conf
I0609 14:12:28.590286 31468 net.cpp:100] Creating Layer conv9_2_mbox_conf
I0609 14:12:28.590293 31468 net.cpp:434] conv9_2_mbox_conf <- conv9_2_conv9_2_relu_0_split_1
I0609 14:12:28.590302 31468 net.cpp:408] conv9_2_mbox_conf -> conv9_2_mbox_conf
I0609 14:12:28.592998 31468 net.cpp:150] Setting up conv9_2_mbox_conf
I0609 14:12:28.593025 31468 net.cpp:157] Top shape: 4 12 1 1 (48)
I0609 14:12:28.593031 31468 net.cpp:165] Memory required for data: 991651424
I0609 14:12:28.593044 31468 layer_factory.hpp:77] Creating layer conv9_2_mbox_conf_perm
I0609 14:12:28.593055 31468 net.cpp:100] Creating Layer conv9_2_mbox_conf_perm
I0609 14:12:28.593062 31468 net.cpp:434] conv9_2_mbox_conf_perm <- conv9_2_mbox_conf
I0609 14:12:28.593075 31468 net.cpp:408] conv9_2_mbox_conf_perm -> conv9_2_mbox_conf_perm
I0609 14:12:28.593340 31468 net.cpp:150] Setting up conv9_2_mbox_conf_perm
I0609 14:12:28.593354 31468 net.cpp:157] Top shape: 4 1 1 12 (48)
I0609 14:12:28.593360 31468 net.cpp:165] Memory required for data: 991651616
I0609 14:12:28.593366 31468 layer_factory.hpp:77] Creating layer conv9_2_mbox_conf_flat
I0609 14:12:28.593375 31468 net.cpp:100] Creating Layer conv9_2_mbox_conf_flat
I0609 14:12:28.593381 31468 net.cpp:434] conv9_2_mbox_conf_flat <- conv9_2_mbox_conf_perm
I0609 14:12:28.593389 31468 net.cpp:408] conv9_2_mbox_conf_flat -> conv9_2_mbox_conf_flat
I0609 14:12:28.593441 31468 net.cpp:150] Setting up conv9_2_mbox_conf_flat
I0609 14:12:28.593462 31468 net.cpp:157] Top shape: 4 12 (48)
I0609 14:12:28.593467 31468 net.cpp:165] Memory required for data: 991651808
I0609 14:12:28.593473 31468 layer_factory.hpp:77] Creating layer conv9_2_mbox_priorbox
I0609 14:12:28.593487 31468 net.cpp:100] Creating Layer conv9_2_mbox_priorbox
I0609 14:12:28.593492 31468 net.cpp:434] conv9_2_mbox_priorbox <- conv9_2_conv9_2_relu_0_split_2
I0609 14:12:28.593499 31468 net.cpp:434] conv9_2_mbox_priorbox <- data_data_0_split_6
I0609 14:12:28.593508 31468 net.cpp:408] conv9_2_mbox_priorbox -> conv9_2_mbox_priorbox
I0609 14:12:28.593557 31468 net.cpp:150] Setting up conv9_2_mbox_priorbox
I0609 14:12:28.593570 31468 net.cpp:157] Top shape: 1 2 16 (32)
I0609 14:12:28.593576 31468 net.cpp:165] Memory required for data: 991651936
I0609 14:12:28.593582 31468 layer_factory.hpp:77] Creating layer mbox_loc
I0609 14:12:28.593595 31468 net.cpp:100] Creating Layer mbox_loc
I0609 14:12:28.593602 31468 net.cpp:434] mbox_loc <- conv4_3_norm_mbox_loc_flat
I0609 14:12:28.593611 31468 net.cpp:434] mbox_loc <- fc7_mbox_loc_flat
I0609 14:12:28.593619 31468 net.cpp:434] mbox_loc <- conv6_2_mbox_loc_flat
I0609 14:12:28.593626 31468 net.cpp:434] mbox_loc <- conv7_2_mbox_loc_flat
I0609 14:12:28.593633 31468 net.cpp:434] mbox_loc <- conv8_2_mbox_loc_flat
I0609 14:12:28.593641 31468 net.cpp:434] mbox_loc <- conv9_2_mbox_loc_flat
I0609 14:12:28.593648 31468 net.cpp:408] mbox_loc -> mbox_loc
I0609 14:12:28.593699 31468 net.cpp:150] Setting up mbox_loc
I0609 14:12:28.593713 31468 net.cpp:157] Top shape: 4 34928 (139712)
I0609 14:12:28.593719 31468 net.cpp:165] Memory required for data: 992210784
I0609 14:12:28.593725 31468 layer_factory.hpp:77] Creating layer mbox_conf
I0609 14:12:28.593734 31468 net.cpp:100] Creating Layer mbox_conf
I0609 14:12:28.593741 31468 net.cpp:434] mbox_conf <- conv4_3_norm_mbox_conf_flat
I0609 14:12:28.593750 31468 net.cpp:434] mbox_conf <- fc7_mbox_conf_flat
I0609 14:12:28.593756 31468 net.cpp:434] mbox_conf <- conv6_2_mbox_conf_flat
I0609 14:12:28.593763 31468 net.cpp:434] mbox_conf <- conv7_2_mbox_conf_flat
I0609 14:12:28.593770 31468 net.cpp:434] mbox_conf <- conv8_2_mbox_conf_flat
I0609 14:12:28.593777 31468 net.cpp:434] mbox_conf <- conv9_2_mbox_conf_flat
I0609 14:12:28.593785 31468 net.cpp:408] mbox_conf -> mbox_conf
I0609 14:12:28.593830 31468 net.cpp:150] Setting up mbox_conf
I0609 14:12:28.593843 31468 net.cpp:157] Top shape: 4 26196 (104784)
I0609 14:12:28.593848 31468 net.cpp:165] Memory required for data: 992629920
I0609 14:12:28.593878 31468 layer_factory.hpp:77] Creating layer mbox_priorbox
I0609 14:12:28.593890 31468 net.cpp:100] Creating Layer mbox_priorbox
I0609 14:12:28.593897 31468 net.cpp:434] mbox_priorbox <- conv4_3_norm_mbox_priorbox
I0609 14:12:28.593904 31468 net.cpp:434] mbox_priorbox <- fc7_mbox_priorbox
I0609 14:12:28.593911 31468 net.cpp:434] mbox_priorbox <- conv6_2_mbox_priorbox
I0609 14:12:28.593919 31468 net.cpp:434] mbox_priorbox <- conv7_2_mbox_priorbox
I0609 14:12:28.593924 31468 net.cpp:434] mbox_priorbox <- conv8_2_mbox_priorbox
I0609 14:12:28.593931 31468 net.cpp:434] mbox_priorbox <- conv9_2_mbox_priorbox
I0609 14:12:28.593938 31468 net.cpp:408] mbox_priorbox -> mbox_priorbox
I0609 14:12:28.593987 31468 net.cpp:150] Setting up mbox_priorbox
I0609 14:12:28.594000 31468 net.cpp:157] Top shape: 1 2 34928 (69856)
I0609 14:12:28.594007 31468 net.cpp:165] Memory required for data: 992909344
I0609 14:12:28.594012 31468 layer_factory.hpp:77] Creating layer mbox_conf_reshape
I0609 14:12:28.594028 31468 net.cpp:100] Creating Layer mbox_conf_reshape
I0609 14:12:28.594035 31468 net.cpp:434] mbox_conf_reshape <- mbox_conf
I0609 14:12:28.594046 31468 net.cpp:408] mbox_conf_reshape -> mbox_conf_reshape
I0609 14:12:28.594110 31468 net.cpp:150] Setting up mbox_conf_reshape
I0609 14:12:28.594125 31468 net.cpp:157] Top shape: 4 8732 3 (104784)
I0609 14:12:28.594130 31468 net.cpp:165] Memory required for data: 993328480
I0609 14:12:28.594135 31468 layer_factory.hpp:77] Creating layer mbox_conf_softmax
I0609 14:12:28.594146 31468 net.cpp:100] Creating Layer mbox_conf_softmax
I0609 14:12:28.594151 31468 net.cpp:434] mbox_conf_softmax <- mbox_conf_reshape
I0609 14:12:28.594161 31468 net.cpp:408] mbox_conf_softmax -> mbox_conf_softmax
I0609 14:12:28.594606 31468 net.cpp:150] Setting up mbox_conf_softmax
I0609 14:12:28.594629 31468 net.cpp:157] Top shape: 4 8732 3 (104784)
I0609 14:12:28.594640 31468 net.cpp:165] Memory required for data: 993747616
I0609 14:12:28.594645 31468 layer_factory.hpp:77] Creating layer mbox_conf_flatten
I0609 14:12:28.594655 31468 net.cpp:100] Creating Layer mbox_conf_flatten
I0609 14:12:28.594662 31468 net.cpp:434] mbox_conf_flatten <- mbox_conf_softmax
I0609 14:12:28.594673 31468 net.cpp:408] mbox_conf_flatten -> mbox_conf_flatten
I0609 14:12:28.594723 31468 net.cpp:150] Setting up mbox_conf_flatten
I0609 14:12:28.594736 31468 net.cpp:157] Top shape: 4 26196 (104784)
I0609 14:12:28.594743 31468 net.cpp:165] Memory required for data: 994166752
I0609 14:12:28.594748 31468 layer_factory.hpp:77] Creating layer detection_out
I0609 14:12:28.594774 31468 net.cpp:100] Creating Layer detection_out
I0609 14:12:28.594789 31468 net.cpp:434] detection_out <- mbox_loc
I0609 14:12:28.594796 31468 net.cpp:434] detection_out <- mbox_conf_flatten
I0609 14:12:28.594804 31468 net.cpp:434] detection_out <- mbox_priorbox
I0609 14:12:28.594813 31468 net.cpp:408] detection_out -> detection_out
I0609 14:12:28.595542 31468 net.cpp:150] Setting up detection_out
I0609 14:12:28.595566 31468 net.cpp:157] Top shape: 1 1 1 7 (7)
I0609 14:12:28.595572 31468 net.cpp:165] Memory required for data: 994166780
I0609 14:12:28.595578 31468 layer_factory.hpp:77] Creating layer detection_eval
I0609 14:12:28.595593 31468 net.cpp:100] Creating Layer detection_eval
I0609 14:12:28.595600 31468 net.cpp:434] detection_eval <- detection_out
I0609 14:12:28.595610 31468 net.cpp:434] detection_eval <- label
I0609 14:12:28.595618 31468 net.cpp:408] detection_eval -> detection_eval
I0609 14:12:28.595718 31468 net.cpp:150] Setting up detection_eval
I0609 14:12:28.595731 31468 net.cpp:157] Top shape: 1 1 3 5 (15)
I0609 14:12:28.595736 31468 net.cpp:165] Memory required for data: 994166840
I0609 14:12:28.595742 31468 net.cpp:228] detection_eval does not need backward computation.
I0609 14:12:28.595748 31468 net.cpp:228] detection_out does not need backward computation.
I0609 14:12:28.595754 31468 net.cpp:228] mbox_conf_flatten does not need backward computation.
I0609 14:12:28.595760 31468 net.cpp:228] mbox_conf_softmax does not need backward computation.
…
