…
      sampler {
        min_scale: 0.3
        max_scale: 1
        min_aspect_ratio: 0.5
        max_aspect_ratio: 2
      }
      sample_constraint {
        min_jaccard_overlap: 0.9
      }
      max_sample: 1
      max_trials: 50
    }
    batch_sampler {
      sampler {
        min_scale: 0.3
        max_scale: 1
        min_aspect_ratio: 0.5
        max_aspect_ratio: 2
      }
      sample_constraint {
        max_jaccard_overlap: 1
      }
      max_sample: 1
      max_trials: 50
    }
    label_map_file: "data/VOC0712/labelmap_voc.prototxt"
  }
}
layer {
  name: "conv1_1"
  type: "Convolution"
  bottom: "data"
  top: "conv1_1"
  param {
    lr_mult: 1
    decay_mult: 1
  }
  param {
    lr_mult: 2
    decay_mult: 0
  }
  convolution_param {
    num_output: 64
    pad: 1
    kernel_size: 3
    weight_filler {
      type: "xavier"
    }
    bias_filler {
      type: "constant"
      value: 0
    }
  }
}
layer {
  name: "relu1_1"
  type: "ReLU"
  bottom: "conv1_1"
  top: "conv1_1"
}
layer {
  name: "conv1_2"
  type: "Convolution"
  bottom: "conv1_1"
  top: "conv1_2"
  param {
    lr_mult: 1
    decay_mult: 1
  }
  param {
    lr_mult: 2
    decay_mult: 0
  }
  convolution_param {
    num_output: 64
    pad: 1
    kernel_size: 3
    weight_filler {
      type: "xavier"
    }
    bias_filler {
      type: "constant"
      value: 0
    }
  }
}
layer {
  name: "relu1_2"
  type: "ReLU"
  bottom: "conv1_2"
  top: "conv1_2"
}
layer {
  name: "pool1"
  type: "Pooling"
  bottom: "conv1_2"
  top: "pool1"
  pooling_param {
    pool: MAX
    kernel_size: 2
    stride: 2
  }
}
layer {
  name: "conv2_1"
  type: "Convolution"
  bottom: "pool1"
  top: "conv2_1"
  param {
    lr_mult: 1
    decay_mult: 1
  }
  param {
    lr_mult: 2
    decay_mult: 0
  }
  convolution_param {
    num_output: 128
    pad: 1
    kernel_size: 3
    weight_filler {
      type: "xavier"
    }
    bias_filler {
      type: "constant"
      value: 0
    }
  }
}
layer {
  name: "relu2_1"
  type: "ReLU"
  bottom: "conv2_1"
  top: "conv2_1"
}
layer {
  name: "conv2_2"
  type: "Convolution"
  bottom: "conv2_1"
  top: "conv2_2"
  param {
    lr_mult: 1
    decay_mult: 1
  }
  param {
    lr_mult: 2
    decay_mult: 0
  }
  convolution_param {
    num_output: 128
    pad: 1
    kernel_size: 3
    weight_filler {
      type: "xavier"
    }
    bias_filler {
      type: "constant"
      value: 0
    }
  }
}
layer {
  name: "relu2_2"
  type: "ReLU"
  bottom: "conv2_2"
  top: "conv2_2"
}
layer {
  name: "pool2"
  type: "Pooling"
  bottom: "conv2_2"
  top: "pool2"
  pooling_param {
    pool: MAX
    kernel_size: 2
    stride: 2
  }
}
layer {
  name: "conv3_1"
  type: "Convolution"
  bottom: "pool2"
  top: "conv3_1"
  param {
    lr_mult: 1
    decay_mult: 1
  }
  param {
    lr_mult: 2
    decay_mult: 0
  }
  convolution_param {
    num_output: 256
    pad: 1
    kernel_size: 3
    weight_filler {
      type: "xavier"
    }
    bias_filler {
      type: "constant"
      value: 0
    }
  }
}
layer {
  name: "relu3_1"
  type: "ReLU"
  bottom: "conv3_1"
  top: "conv3_1"
}
layer {
  name: "conv3_2"
  type: "Convolution"
  bottom: "conv3_1"
  top: "conv3_2"
  param {
    lr_mult: 1
    decay_mult: 1
  }
  param {
    lr_mult: 2
    decay_mult: 0
  }
  convolution_param {
    num_output: 256
    pad: 1
    kernel_size: 3
    weight_filler {
      type: "xavier"
    }
    bias_filler {
      type: "constant"
      value: 0
    }
  }
}
layer {
  name: "relu3_2"
  type: "ReLU"
  bottom: "conv3_2"
  top: "conv3_2"
}
layer {
  name: "conv3_3"
  type: "Convolution"
  bottom: "conv3_2"
  top: "conv3_3"
  param {
    lr_mult: 1
    decay_mult: 1
  }
  param {
    lr_mult: 2
    decay_mult: 0
  }
  convolution_param {
    num_output: 256
    pad: 1
    kernel_size: 3
    weight_filler {
      type: "xavier"
    }
    bias_filler {
      type: "constant"
      value: 0
    }
  }
}
layer {
  name: "relu3_3"
  type: "ReLU"
  bottom: "conv3_3"
  top: "conv3_3"
}
layer {
  name: "pool3"
  type: "Pooling"
  bottom: "conv3_3"
  top: "pool3"
  pooling_param {
    pool: MAX
    kernel_size: 2
    stride: 2
  }
}
layer {
  name: "conv4_1"
  type: "Convolution"
  bottom: "pool3"
  top: "conv4_1"
  param {
    lr_mult: 1
    decay_mult: 1
  }
  param {
    lr_mult: 2
    decay_mult: 0
  }
  convolution_param {
    num_output: 512
    pad: 1
    kernel_size: 3
    weight_filler {
      type: "xavier"
    }
    bias_filler {
      type: "constant"
      value: 0
    }
  }
}
layer {
  name: "relu4_1"
  type: "ReLU"
  bottom: "conv4_1"
  top: "conv4_1"
}
layer {
  name: "conv4_2"
  type: "Convolution"
  bottom: "conv4_1"
  top: "conv4_2"
  param {
    lr_mult: 1
    decay_mult: 1
  }
  param {
    lr_mult: 2
    decay_mult: 0
  }
  convolution_param {
    num_output: 512
    pad: 1
    kernel_size: 3
    weight_filler {
      type: "xavier"
    }
    bias_filler {
      type: "constant"
      value: 0
    }
  }
}
layer {
  name: "relu4_2"
  type: "ReLU"
  bottom: "conv4_2"
  top: "conv4_2"
}
layer {
  name: "conv4_3"
  type: "Convolution"
  bottom: "conv4_2"
  top: "conv4_3"
  param {
    lr_mult: 1
    decay_mult: 1
  }
  param {
    lr_mult: 2
    decay_mult: 0
  }
  convolution_param {
    num_output: 512
    pad: 1
    kernel_size: 3
    weight_filler {
      type: "xavier"
    }
    bias_filler {
      type: "constant"
      value: 0
    }
  }
}
layer {
  name: "relu4_3"
  type: "ReLU"
  bottom: "conv4_3"
  top: "conv4_3"
}
layer {
  name: "pool4"
  type: "Pooling"
  bottom: "conv4_3"
  top: "pool4"
  pooling_param {
    pool: MAX
    kernel_size: 2
    stride: 2
  }
}
layer {
  name: "conv5_1"
  type: "Convolution"
  bottom: "pool4"
  top: "conv5_1"
  param {
    lr_mult: 1
    decay_mult: 1
  }
  param {
    lr_mult: 2
    decay_mult: 0
  }
  convolution_param {
    num_output: 512
    pad: 1
    kernel_size: 3
    weight_filler {
      type: "xavier"
    }
    bias_filler {
      type: "constant"
      value: 0
    }
    dilation: 1
  }
}
layer {
  name: "relu5_1"
  type: "ReLU"
  bottom: "conv5_1"
  top: "conv5_1"
}
layer {
  name: "conv5_2"
  type: "Convolution"
  bottom: "conv5_1"
  top: "conv5_2"
  param {
    lr_mult: 1
    decay_mult: 1
  }
  param {
    lr_mult: 2
    decay_mult: 0
  }
  convolution_param {
    num_output: 512
    pad: 1
    kernel_size: 3
    weight_filler {
      type: "xavier"
    }
    bias_filler {
      type: "constant"
      value: 0
    }
    dilation: 1
  }
}
layer {
  name: "relu5_2"
  type: "ReLU"
  bottom: "conv5_2"
  top: "conv5_2"
}
layer {
  name: "conv5_3"
  type: "Convolution"
  bottom: "conv5_2"
  top: "conv5_3"
  param {
    lr_mult: 1
    decay_mult: 1
  }
  param {
    lr_mult: 2
    decay_mult: 0
  }
  convolution_param {
    num_output: 512
    pad: 1
    kernel_size: 3
    weight_filler {
      type: "xavier"
    }
    bias_filler {
      type: "constant"
      value: 0
    }
    dilation: 1
  }
}
layer {
  name: "relu5_3"
  type: "ReLU"
  bottom: "conv5_3"
  top: "conv5_3"
}
layer {
  name: "pool5"
  type: "Pooling"
  bottom: "conv5_3"
  top: "pool5"
  pooling_param {
    pool: MAX
    kernel_size: 3
    stride: 1
    pad: 1
  }
}
layer {
  name: "fc6"
  type: "Convolution"
  bottom: "pool5"
  top: "fc6"
  param {
    lr_mult: 1
    decay_mult: 1
  }
  param {
    lr_mult: 2
    decay_mult: 0
  }
  convolution_param {
    num_output: 1024
    pad: 6
    kernel_size: 3
    weight_filler {
      type: "xavier"
    }
    bias_filler {
      type: "constant"
      value: 0
    }
    dilation: 6
  }
}
layer {
  name: "relu6"
  type: "ReLU"
  bottom: "fc6"
  top: "fc6"
}
layer {
  name: "fc7"
  type: "Convolution"
  bottom: "fc6"
  top: "fc7"
  param {
    lr_mult: 1
    decay_mult: 1
  }
  param {
    lr_mult: 2
    decay_mult: 0
  }
  convolution_param {
    num_output: 1024
    kernel_size: 1
    weight_filler {
      type: "xavier"
    }
    bias_filler {
      type: "constant"
      value: 0
    }
  }
}
layer {
  name: "relu7"
  type: "ReLU"
  bottom: "fc7"
  top: "fc7"
}
layer {
  name: "conv6_1"
  type: "Convolution"
  bottom: "fc7"
  top: "conv6_1"
  param {
    lr_mult: 1
    decay_mult: 1
  }
  param {
    lr_mult: 2
    decay_mult: 0
  }
  convolution_param {
    num_output: 256
    pad: 0
    kernel_size: 1
    stride: 1
    weight_filler {
      type: "xavier"
    }
    bias_filler {
      type: "constant"
      value: 0
    }
  }
}
layer {
  name: "conv6_1_relu"
  type: "ReLU"
  bottom: "conv6_1"
  top: "conv6_1"
}
layer {
  name: "conv6_2"
  type: "Convolution"
  bottom: "conv6_1"
  top: "conv6_2"
  param {
    lr_mult: 1
    decay_mult: 1
  }
  param {
    lr_mult: 2
    decay_mult: 0
  }
  convolution_param {
    num_output: 512
    pad: 1
    kernel_size: 3
    stride: 2
    weight_filler {
      type: "xavier"
    }
    bias_filler {
      type: "constant"
      value: 0
    }
  }
}
layer {
  name: "conv6_2_relu"
  type: "ReLU"
  bottom: "conv6_2"
  top: "conv6_2"
}
layer {
  name: "conv7_1"
  type: "Convolution"
  bottom: "conv6_2"
  top: "conv7_1"
  param {
    lr_mult: 1
    decay_mult: 1
  }
  param {
    lr_mult: 2
    decay_mult: 0
  }
  convolution_param {
    num_output: 128
    pad: 0
    kernel_size: 1
    stride: 1
    weight_filler {
      type: "xavier"
    }
    bias_filler {
      type: "constant"
      value: 0
    }
  }
}
layer {
  name: "conv7_1_relu"
  type: "ReLU"
  bottom: "conv7_1"
  top: "conv7_1"
}
layer {
  name: "conv7_2"
  type: "Convolution"
  bottom: "conv7_1"
  top: "conv7_2"
  param {
    lr_mult: 1
    decay_mult: 1
  }
  param {
    lr_mult: 2
    decay_mult: 0
  }
  convolution_param {
    num_output: 256
    pad: 1
    kernel_size: 3
    stride: 2
    weight_filler {
      type: "xavier"
    }
    bias_filler {
      type: "constant"
      value: 0
    }
  }
}
layer {
  name: "conv7_2_relu"
  type: "ReLU"
  bottom: "conv7_2"
  top: "conv7_2"
}
layer {
  name: "conv8_1"
  type: "Convolution"
  bottom: "conv7_2"
  top: "conv8_1"
  param {
    lr_mult: 1
    decay_mult: 1
  }
  param {
    lr_mult: 2
    decay_mult: 0
  }
  convolution_param {
    num_output: 128
    pad: 0
    kernel_size: 1
    stride: 1
    weight_filler {
      type: "xavier"
    }
    bias_filler {
      type: "constant"
      value: 0
    }
  }
}
layer {
  name: "conv8_1_relu"
  type: "ReLU"
  bottom: "conv8_1"
  top: "conv8_1"
}
layer {
  name: "conv8_2"
  type: "Convolution"
  bottom: "conv8_1"
  top: "conv8_2"
  param {
    lr_mult: 1
    decay_mult: 1
  }
  param {
    lr_mult: 2
    decay_mult: 0
  }
  convolution_param {
    num_output: 256
    pad: 0
    kernel_size: 3
    stride: 1
    weight_filler {
      type: "xavier"
    }
    bias_filler {
      type: "constant"
      value: 0
    }
  }
}
layer {
  name: "conv8_2_relu"
  type: "ReLU"
  bottom: "conv8_2"
  top: "conv8_2"
}
layer {
  name: "conv9_1"
  type: "Convolution"
  bottom: "conv8_2"
  top: "conv9_1"
  param {
    lr_mult: 1
    decay_mult: 1
  }
  param {
    lr_mult: 2
    decay_mult: 0
  }
  convolution_param {
    num_output: 128
    pad: 0
    kernel_size: 1
    stride: 1
    weight_filler {
      type: "xavier"
    }
    bias_filler {
      type: "constant"
      value: 0
    }
  }
}
layer {
  name: "conv9_1_relu"
  type: "ReLU"
  bottom: "conv9_1"
  top: "conv9_1"
}
layer {
  name: "conv9_2"
  type: "Convolution"
  bottom: "conv9_1"
  top: "conv9_2"
  param {
    lr_mult: 1
    decay_mult: 1
  }
  param {
    lr_mult: 2
    decay_mult: 0
  }
  convolution_param {
    num_output: 256
    pad: 0
    kernel_size: 3
    stride: 1
    weight_filler {
      type: "xavier"
    }
    bias_filler {
      type: "constant"
      value: 0
    }
  }
}
layer {
  name: "conv9_2_relu"
  type: "ReLU"
  bottom: "conv9_2"
  top: "conv9_2"
}
layer {
  name: "conv4_3_norm"
  type: "Normalize"
  bottom: "conv4_3"
  top: "conv4_3_norm"
  norm_param {
    across_spatial: false
    scale_filler {
      type: "constant"
      value: 20
    }
    channel_shared: false
  }
}
layer {
  name: "conv4_3_norm_mbox_loc"
  type: "Convolution"
  bottom: "conv4_3_norm"
  top: "conv4_3_norm_mbox_loc"
  param {
    lr_mult: 1
    decay_mult: 1
  }
  param {
    lr_mult: 2
    decay_mult: 0
  }
  convolution_param {
    num_output: 16
    pad: 1
    kernel_size: 3
    stride: 1
    weight_filler {
      type: "xavier"
    }
    bias_filler {
      type: "constant"
      value: 0
    }
  }
}
layer {
  name: "conv4_3_norm_mbox_loc_perm"
  type: "Permute"
  bottom: "conv4_3_norm_mbox_loc"
  top: "conv4_3_norm_mbox_loc_perm"
  permute_param {
    order: 0
    order: 2
    order: 3
    order: 1
  }
}
layer {
  name: "conv4_3_norm_mbox_loc_flat"
  type: "Flatten"
  bottom: "conv4_3_norm_mbox_loc_perm"
  top: "conv4_3_norm_mbox_loc_flat"
  flatten_param {
    axis: 1
  }
}
layer {
  name: "conv4_3_norm_mbox_conf"
  type: "Convolution"
  bottom: "conv4_3_norm"
  top: "conv4_3_norm_mbox_conf"
  param {
    lr_mult: 1
    decay_mult: 1
  }
  param {
    lr_mult: 2
    decay_mult: 0
  }
  convolution_param {
    num_output: 84
    pad: 1
    kernel_size: 3
    stride: 1
    weight_filler {
      type: "xavier"
    }
    bias_filler {
      type: "constant"
      value: 0
    }
  }
}
layer {
  name: "conv4_3_norm_mbox_conf_perm"
  type: "Permute"
  bottom: "conv4_3_norm_mbox_conf"
  top: "conv4_3_norm_mbox_conf_perm"
  permute_param {
    order: 0
    order: 2
    order: 3
    order: 1
  }
}
layer {
  name: "conv4_3_norm_mbox_conf_flat"
  type: "Flatten"
  bottom: "conv4_3_norm_mbox_conf_perm"
  top: "conv4_3_norm_mbox_conf_flat"
  flatten_param {
    axis: 1
  }
}
layer {
  name: "conv4_3_norm_mbox_priorbox"
  type: "PriorBox"
  bottom: "conv4_3_norm"
  bottom: "data"
  top: "conv4_3_norm_mbox_priorbox"
  prior_box_param {
    min_size: 30
    max_size: 60
    aspect_ratio: 2
    flip: true
    clip: false
    variance: 0.1
    variance: 0.1
    variance: 0.2
    variance: 0.2
    step: 8
    offset: 0.5
  }
}
layer {
  name: "fc7_mbox_loc"
  type: "Convolution"
  bottom: "fc7"
  top: "fc7_mbox_loc"
  param {
    lr_mult: 1
    decay_mult: 1
  }
  param {
    lr_mult: 2
    decay_mult: 0
  }
  convolution_param {
    num_output: 24
    pad: 1
    kernel_size: 3
    stride: 1
    weight_filler {
      type: "xavier"
    }
    bias_filler {
      type: "constant"
      value: 0
    }
  }
}
layer {
  name: "fc7_mbox_loc_perm"
  type: "Permute"
  bottom: "fc7_mbox_loc"
  top: "fc7_mbox_loc_perm"
  permute_param {
    order: 0
    order: 2
    order: 3
    order: 1
  }
}
layer {
  name: "fc7_mbox_loc_flat"
  type: "Flatten"
  bottom: "fc7_mbox_loc_perm"
  top: "fc7_mbox_loc_flat"
  flatten_param {
    axis: 1
  }
}
layer {
  name: "fc7_mbox_conf"
  type: "Convolution"
  bottom: "fc7"
  top: "fc7_mbox_conf"
  param {
    lr_mult: 1
    decay_mult: 1
  }
  param {
    lr_mult: 2
    decay_mult: 0
  }
  convolution_param {
    num_output: 126
    pad: 1
    kernel_size: 3
    stride: 1
    weight_filler {
      type: "xavier"
    }
    bias_filler {
      type: "constant"
      value: 0
    }
  }
}
layer {
  name: "fc7_mbox_conf_perm"
  type: "Permute"
  bottom: "fc7_mbox_conf"
  top: "fc7_mbox_conf_perm"
  permute_param {
    order: 0
    order: 2
    order: 3
    order: 1
  }
}
layer {
  name: "fc7_mbox_conf_flat"
  type: "Flatten"
  bottom: "fc7_mbox_conf_perm"
  top: "fc7_mbox_conf_flat"
  flatten_param {
    axis: 1
  }
}
layer {
  name: "fc7_mbox_priorbox"
  type: "PriorBox"
  bottom: "fc7"
  bottom: "data"
  top: "fc7_mbox_priorbox"
  prior_box_param {
    min_size: 60
    max_size: 111
    aspect_ratio: 2
    aspect_ratio: 3
    flip: true
    clip: false
    variance: 0.1
    variance: 0.1
    variance: 0.2
    variance: 0.2
    step: 16
    offset: 0.5
  }
}
layer {
  name: "conv6_2_mbox_loc"
  type: "Convolution"
  bottom: "conv6_2"
  top: "conv6_2_mbox_loc"
  param {
    lr_mult: 1
    decay_mult: 1
  }
  param {
    lr_mult: 2
    decay_mult: 0
  }
  convolution_param {
    num_output: 24
    pad: 1
    kernel_size: 3
    stride: 1
    weight_filler {
      type: "xavier"
    }
    bias_filler {
      type: "constant"
      value: 0
    }
  }
}
layer {
  name: "conv6_2_mbox_loc_perm"
  type: "Permute"
  bottom: "conv6_2_mbox_loc"
  top: "conv6_2_mbox_loc_perm"
  permute_param {
    order: 0
    order: 2
    order: 3
    order: 1
  }
}
layer {
  name: "conv6_2_mbox_loc_flat"
  type: "Flatten"
  bottom: "conv6_2_mbox_loc_perm"
  top: "conv6_2_mbox_loc_flat"
  flatten_param {
    axis: 1
  }
}
layer {
  name: "conv6_2_mbox_conf"
  type: "Convolution"
  bottom: "conv6_2"
  top: "conv6_2_mbox_conf"
  param {
    lr_mult: 1
    decay_mult: 1
  }
  param {
    lr_mult: 2
    decay_mult: 0
  }
  convolution_param {
    num_output: 126
    pad: 1
    kernel_size: 3
    stride: 1
    weight_filler {
      type: "xavier"
    }
    bias_filler {
      type: "constant"
      value: 0
    }
  }
}
layer {
  name: "conv6_2_mbox_conf_perm"
  type: "Permute"
  bottom: "conv6_2_mbox_conf"
  top: "conv6_2_mbox_conf_perm"
  permute_param {
    order: 0
    order: 2
    order: 3
    order: 1
  }
}
layer {
  name: "conv6_2_mbox_conf_flat"
  type: "Flatten"
  bottom: "conv6_2_mbox_conf_perm"
  top: "conv6_2_mbox_conf_flat"
  flatten_param {
    axis: 1
  }
}
layer {
  name: "conv6_2_mbox_priorbox"
  type: "PriorBox"
  bottom: "conv6_2"
  bottom: "data"
  top: "conv6_2_mbox_priorbox"
  prior_box_param {
    min_size: 111
    max_size: 162
    aspect_ratio: 2
    aspect_ratio: 3
    flip: true
    clip: false
    variance: 0.1
    variance: 0.1
    variance: 0.2
    variance: 0.2
    step: 32
    offset: 0.5
  }
}
layer {
  name: "conv7_2_mbox_loc"
  type: "Convolution"
  bottom: "conv7_2"
  top: "conv7_2_mbox_loc"
  param {
    lr_mult: 1
    decay_mult: 1
  }
  param {
    lr_mult: 2
    decay_mult: 0
  }
  convolution_param {
    num_output: 24
    pad: 1
    kernel_size: 3
    stride: 1
    weight_filler {
      type: "xavier"
    }
    bias_filler {
      type: "constant"
      value: 0
    }
  }
}
layer {
  name: "conv7_2_mbox_loc_perm"
  type: "Permute"
  bottom: "conv7_2_mbox_loc"
  top: "conv7_2_mbox_loc_perm"
  permute_param {
    order: 0
    order: 2
    order: 3
    order: 1
  }
}
layer {
  name: "conv7_2_mbox_loc_flat"
  type: "Flatten"
  bottom: "conv7_2_mbox_loc_perm"
  top: "conv7_2_mbox_loc_flat"
  flatten_param {
    axis: 1
  }
}
layer {
  name: "conv7_2_mbox_conf"
  type: "Convolution"
  bottom: "conv7_2"
  top: "conv7_2_mbox_conf"
  param {
    lr_mult: 1
    decay_mult: 1
  }
  param {
    lr_mult: 2
    decay_mult: 0
  }
  convolution_param {
    num_output: 126
    pad: 1
    kernel_size: 3
    stride: 1
    weight_filler {
      type: "xavier"
    }
    bias_filler {
      type: "constant"
      value: 0
    }
  }
}
layer {
  name: "conv7_2_mbox_conf_perm"
  type: "Permute"
  bottom: "conv7_2_mbox_conf"
  top: "conv7_2_mbox_conf_perm"
  permute_param {
    order: 0
    order: 2
    order: 3
    order: 1
  }
}
layer {
  name: "conv7_2_mbox_conf_flat"
  type: "Flatten"
  bottom: "conv7_2_mbox_conf_perm"
  top: "conv7_2_mbox_conf_flat"
  flatten_param {
    axis: 1
  }
}
layer {
  name: "conv7_2_mbox_priorbox"
  type: "PriorBox"
  bottom: "conv7_2"
  bottom: "data"
  top: "conv7_2_mbox_priorbox"
  prior_box_param {
    min_size: 162
    max_size: 213
    aspect_ratio: 2
    aspect_ratio: 3
    flip: true
    clip: false
    variance: 0.1
    variance: 0.1
    variance: 0.2
    variance: 0.2
    step: 64
    offset: 0.5
  }
}
layer {
  name: "conv8_2_mbox_loc"
  type: "Convolution"
  bottom: "conv8_2"
  top: "conv8_2_mbox_loc"
  param {
    lr_mult: 1
    decay_mult: 1
  }
  param {
    lr_mult: 2
    decay_mult: 0
  }
  convolution_param {
    num_output: 16
    pad: 1
    kernel_size: 3
    stride: 1
    weight_filler {
      type: "xavier"
    }
    bias_filler {
      type: "constant"
      value: 0
    }
  }
}
layer {
  name: "conv8_2_mbox_loc_perm"
  type: "Permute"
  bottom: "conv8_2_mbox_loc"
  top: "conv8_2_mbox_loc_perm"
  permute_param {
    order: 0
    order: 2
    order: 3
    order: 1
  }
}
layer {
  name: "conv8_2_mbox_loc_flat"
  type: "Flatten"
  bottom: "conv8_2_mbox_loc_perm"
  top: "conv8_2_mbox_loc_flat"
  flatten_param {
    axis: 1
  }
}
layer {
  name: "conv8_2_mbox_conf"
  type: "Convolution"
  bottom: "conv8_2"
  top: "conv8_2_mbox_conf"
  param {
    lr_mult: 1
    decay_mult: 1
  }
  param {
    lr_mult: 2
    decay_mult: 0
  }
  convolution_param {
    num_output: 84
    pad: 1
    kernel_size: 3
    stride: 1
    weight_filler {
      type: "xavier"
    }
    bias_filler {
      type: "constant"
      value: 0
    }
  }
}
layer {
  name: "conv8_2_mbox_conf_perm"
  type: "Permute"
  bottom: "conv8_2_mbox_conf"
  top: "conv8_2_mbox_conf_perm"
  permute_param {
    order: 0
    order: 2
    order: 3
    order: 1
  }
}
layer {
  name: "conv8_2_mbox_conf_flat"
  type: "Flatten"
  bottom: "conv8_2_mbox_conf_perm"
  top: "conv8_2_mbox_conf_flat"
  flatten_param {
    axis: 1
  }
}
layer {
  name: "conv8_2_mbox_priorbox"
  type: "PriorBox"
  bottom: "conv8_2"
  bottom: "data"
  top: "conv8_2_mbox_priorbox"
  prior_box_param {
    min_size: 213
    max_size: 264
    aspect_ratio: 2
    flip: true
    clip: false
    variance: 0.1
    variance: 0.1
    variance: 0.2
    variance: 0.2
    step: 100
    offset: 0.5
  }
}
layer {
  name: "conv9_2_mbox_loc"
  type: "Convolution"
  bottom: "conv9_2"
  top: "conv9_2_mbox_loc"
  param {
    lr_mult: 1
    decay_mult: 1
  }
  param {
    lr_mult: 2
    decay_mult: 0
  }
  convolution_param {
    num_output: 16
    pad: 1
    kernel_size: 3
    stride: 1
    weight_filler {
      type: "xavier"
    }
    bias_filler {
      type: "constant"
      value: 0
    }
  }
}
layer {
  name: "conv9_2_mbox_loc_perm"
  type: "Permute"
  bottom: "conv9_2_mbox_loc"
  top: "conv9_2_mbox_loc_perm"
  permute_param {
    order: 0
    order: 2
    order: 3
    order: 1
  }
}
layer {
  name: "conv9_2_mbox_loc_flat"
  type: "Flatten"
  bottom: "conv9_2_mbox_loc_perm"
  top: "conv9_2_mbox_loc_flat"
  flatten_param {
    axis: 1
  }
}
layer {
  name: "conv9_2_mbox_conf"
  type: "Convolution"
  bottom: "conv9_2"
  top: "conv9_2_mbox_conf"
  param {
    lr_mult: 1
    decay_mult: 1
  }
  param {
    lr_mult: 2
    decay_mult: 0
  }
  convolution_param {
    num_output: 84
    pad: 1
    kernel_size: 3
    stride: 1
    weight_filler {
      type: "xavier"
    }
    bias_filler {
      type: "constant"
      value: 0
    }
  }
}
layer {
  name: "conv9_2_mbox_conf_perm"
  type: "Permute"
  bottom: "conv9_2_mbox_conf"
  top: "conv9_2_mbox_conf_perm"
  permute_param {
    order: 0
    order: 2
    order: 3
    order: 1
  }
}
layer {
  name: "conv9_2_mbox_conf_flat"
  type: "Flatten"
  bottom: "conv9_2_mbox_conf_perm"
  top: "conv9_2_mbox_conf_flat"
  flatten_param {
    axis: 1
  }
}
layer {
  name: "conv9_2_mbox_priorbox"
  type: "PriorBox"
  bottom: "conv9_2"
  bottom: "data"
  top: "conv9_2_mbox_priorbox"
  prior_box_param {
    min_size: 264
    max_size: 315
    aspect_ratio: 2
    flip: true
    clip: false
    variance: 0.1
    variance: 0.1
    variance: 0.2
    variance: 0.2
    step: 300
    offset: 0.5
  }
}
layer {
  name: "mbox_loc"
  type: "Concat"
  bottom: "conv4_3_norm_mbox_loc_flat"
  bottom: "fc7_mbox_loc_flat"
  bottom: "conv6_2_mbox_loc_flat"
  bottom: "conv7_2_mbox_loc_flat"
  bottom: "conv8_2_mbox_loc_flat"
  bottom: "conv9_2_mbox_loc_flat"
  top: "mbox_loc"
  concat_param {
    axis: 1
  }
}
layer {
  name: "mbox_conf"
  type: "Concat"
  bottom: "conv4_3_norm_mbox_conf_flat"
  bottom: "fc7_mbox_conf_flat"
  bottom: "conv6_2_mbox_conf_flat"
  bottom: "conv7_2_mbox_conf_flat"
  bottom: "conv8_2_mbox_conf_flat"
  bottom: "conv9_2_mbox_conf_flat"
  top: "mbox_conf"
  concat_param {
    axis: 1
  }
}
layer {
  name: "mbox_priorbox"
  type: "Concat"
  bottom: "conv4_3_norm_mbox_priorbox"
  bottom: "fc7_mbox_priorbox"
  bottom: "conv6_2_mbox_priorbox"
  bottom: "conv7_2_mbox_priorbox"
  bottom: "conv8_2_mbox_priorbox"
  bottom: "conv9_2_mbox_priorbox"
  top: "mbox_priorbox"
  concat_param {
    axis: 2
  }
}
layer {
  name: "mbox_loss"
  type: "MultiBoxLoss"
  bottom: "mbox_loc"
  bottom: "mbox_conf"
  bottom: "mbox_priorbox"
  bottom: "label"
  top: "mbox_loss"
  include {
    phase: TRAIN
  }
  propagate_down: true
  propagate_down: true
  propagate_down: false
  propagate_down: false
  loss_param {
    normalization: VALID
  }
  multibox_loss_param {
    loc_loss_type: SMOOTH_L1
    conf_loss_type: SOFTMAX
    loc_weight: 1
    num_classes: 21
    share_location: true
    match_type: PER_PREDICTION
    overlap_threshold: 0.5
    use_prior_for_matching: true
    background_label_id: 0
    use_difficult_gt: true
    neg_pos_ratio: 3
    neg_overlap: 0.5
    code_type: CENTER_SIZE
    ignore_cross_boundary_bbox: false
    mining_type: MAX_NEGATIVE
  }
}
I0609 08:37:52.431875 27019 layer_factory.hpp:77] Creating layer data
I0609 08:37:52.432395 27019 net.cpp:100] Creating Layer data
I0609 08:37:52.432422 27019 net.cpp:408] data -> data
I0609 08:37:52.432471 27019 net.cpp:408] data -> label
I0609 08:37:52.442610 27032 db_lmdb.cpp:35] Opened lmdb examples/VOC0712/VOC0712_trainval_lmdb
I0609 08:37:52.477155 27019 annotated_data_layer.cpp:62] output data size: 8,3,300,300
I0609 08:37:52.499317 27019 net.cpp:150] Setting up data
I0609 08:37:52.499397 27019 net.cpp:157] Top shape: 8 3 300 300 (2160000)
I0609 08:37:52.499408 27019 net.cpp:157] Top shape: 1 1 1 8 (8)
I0609 08:37:52.499415 27019 net.cpp:165] Memory required for data: 8640032
I0609 08:37:52.499475 27019 layer_factory.hpp:77] Creating layer data_data_0_split
I0609 08:37:52.499497 27019 net.cpp:100] Creating Layer data_data_0_split
I0609 08:37:52.499506 27019 net.cpp:434] data_data_0_split <- data
I0609 08:37:52.499532 27019 net.cpp:408] data_data_0_split -> data_data_0_split_0
I0609 08:37:52.499558 27019 net.cpp:408] data_data_0_split -> data_data_0_split_1
I0609 08:37:52.499569 27019 net.cpp:408] data_data_0_split -> data_data_0_split_2
I0609 08:37:52.499578 27019 net.cpp:408] data_data_0_split -> data_data_0_split_3
I0609 08:37:52.499588 27019 net.cpp:408] data_data_0_split -> data_data_0_split_4
I0609 08:37:52.499596 27019 net.cpp:408] data_data_0_split -> data_data_0_split_5
I0609 08:37:52.499606 27019 net.cpp:408] data_data_0_split -> data_data_0_split_6
I0609 08:37:52.499740 27019 net.cpp:150] Setting up data_data_0_split
I0609 08:37:52.499750 27019 net.cpp:157] Top shape: 8 3 300 300 (2160000)
I0609 08:37:52.499758 27019 net.cpp:157] Top shape: 8 3 300 300 (2160000)
I0609 08:37:52.499765 27019 net.cpp:157] Top shape: 8 3 300 300 (2160000)
I0609 08:37:52.499773 27019 net.cpp:157] Top shape: 8 3 300 300 (2160000)
I0609 08:37:52.499778 27019 net.cpp:157] Top shape: 8 3 300 300 (2160000)
I0609 08:37:52.499785 27019 net.cpp:157] Top shape: 8 3 300 300 (2160000)
I0609 08:37:52.499799 27019 net.cpp:157] Top shape: 8 3 300 300 (2160000)
I0609 08:37:52.499805 27019 net.cpp:165] Memory required for data: 69120032
I0609 08:37:52.499811 27019 layer_factory.hpp:77] Creating layer conv1_1
I0609 08:37:52.499838 27019 net.cpp:100] Creating Layer conv1_1
I0609 08:37:52.499850 27019 net.cpp:434] conv1_1 <- data_data_0_split_0
I0609 08:37:52.499860 27019 net.cpp:408] conv1_1 -> conv1_1
I0609 08:37:53.423393 27019 net.cpp:150] Setting up conv1_1
I0609 08:37:53.423440 27019 net.cpp:157] Top shape: 8 64 300 300 (46080000)
I0609 08:37:53.423449 27019 net.cpp:165] Memory required for data: 253440032
I0609 08:37:53.423480 27019 layer_factory.hpp:77] Creating layer relu1_1
I0609 08:37:53.423496 27019 net.cpp:100] Creating Layer relu1_1
I0609 08:37:53.423508 27019 net.cpp:434] relu1_1 <- conv1_1
I0609 08:37:53.423518 27019 net.cpp:395] relu1_1 -> conv1_1 (in-place)
I0609 08:37:53.424103 27019 net.cpp:150] Setting up relu1_1
I0609 08:37:53.424142 27019 net.cpp:157] Top shape: 8 64 300 300 (46080000)
I0609 08:37:53.424151 27019 net.cpp:165] Memory required for data: 437760032
I0609 08:37:53.424161 27019 layer_factory.hpp:77] Creating layer conv1_2
I0609 08:37:53.424187 27019 net.cpp:100] Creating Layer conv1_2
I0609 08:37:53.424209 27019 net.cpp:434] conv1_2 <- conv1_1
I0609 08:37:53.424222 27019 net.cpp:408] conv1_2 -> conv1_2
I0609 08:37:53.427467 27019 net.cpp:150] Setting up conv1_2
I0609 08:37:53.427507 27019 net.cpp:157] Top shape: 8 64 300 300 (46080000)
I0609 08:37:53.427515 27019 net.cpp:165] Memory required for data: 622080032
I0609 08:37:53.427536 27019 layer_factory.hpp:77] Creating layer relu1_2
I0609 08:37:53.427553 27019 net.cpp:100] Creating Layer relu1_2
I0609 08:37:53.427559 27019 net.cpp:434] relu1_2 <- conv1_2
I0609 08:37:53.427569 27019 net.cpp:395] relu1_2 -> conv1_2 (in-place)
I0609 08:37:53.428107 27019 net.cpp:150] Setting up relu1_2
I0609 08:37:53.428133 27019 net.cpp:157] Top shape: 8 64 300 300 (46080000)
I0609 08:37:53.428140 27019 net.cpp:165] Memory required for data: 806400032
I0609 08:37:53.428148 27019 layer_factory.hpp:77] Creating layer pool1
I0609 08:37:53.428158 27019 net.cpp:100] Creating Layer pool1
I0609 08:37:53.428165 27019 net.cpp:434] pool1 <- conv1_2
I0609 08:37:53.428177 27019 net.cpp:408] pool1 -> pool1
I0609 08:37:53.428259 27019 net.cpp:150] Setting up pool1
I0609 08:37:53.428272 27019 net.cpp:157] Top shape: 8 64 150 150 (11520000)
I0609 08:37:53.428278 27019 net.cpp:165] Memory required for data: 852480032
I0609 08:37:53.428284 27019 layer_factory.hpp:77] Creating layer conv2_1
I0609 08:37:53.428299 27019 net.cpp:100] Creating Layer conv2_1
I0609 08:37:53.428306 27019 net.cpp:434] conv2_1 <- pool1
I0609 08:37:53.428315 27019 net.cpp:408] conv2_1 -> conv2_1
I0609 08:37:53.430764 27019 net.cpp:150] Setting up conv2_1
I0609 08:37:53.430800 27019 net.cpp:157] Top shape: 8 128 150 150 (23040000)
I0609 08:37:53.430807 27019 net.cpp:165] Memory required for data: 944640032
I0609 08:37:53.430820 27019 layer_factory.hpp:77] Creating layer relu2_1
I0609 08:37:53.430837 27019 net.cpp:100] Creating Layer relu2_1
I0609 08:37:53.430845 27019 net.cpp:434] relu2_1 <- conv2_1
I0609 08:37:53.430853 27019 net.cpp:395] relu2_1 -> conv2_1 (in-place)
I0609 08:37:53.431113 27019 net.cpp:150] Setting up relu2_1
I0609 08:37:53.431128 27019 net.cpp:157] Top shape: 8 128 150 150 (23040000)
I0609 08:37:53.431135 27019 net.cpp:165] Memory required for data: 1036800032
I0609 08:37:53.431141 27019 layer_factory.hpp:77] Creating layer conv2_2
I0609 08:37:53.431154 27019 net.cpp:100] Creating Layer conv2_2
I0609 08:37:53.431161 27019 net.cpp:434] conv2_2 <- conv2_1
I0609 08:37:53.431174 27019 net.cpp:408] conv2_2 -> conv2_2
I0609 08:37:53.435086 27019 net.cpp:150] Setting up conv2_2
I0609 08:37:53.435114 27019 net.cpp:157] Top shape: 8 128 150 150 (23040000)
I0609 08:37:53.435122 27019 net.cpp:165] Memory required for data: 1128960032
I0609 08:37:53.435133 27019 layer_factory.hpp:77] Creating layer relu2_2
I0609 08:37:53.435148 27019 net.cpp:100] Creating Layer relu2_2
I0609 08:37:53.435154 27019 net.cpp:434] relu2_2 <- conv2_2
I0609 08:37:53.435163 27019 net.cpp:395] relu2_2 -> conv2_2 (in-place)
I0609 08:37:53.435709 27019 net.cpp:150] Setting up relu2_2
I0609 08:37:53.435734 27019 net.cpp:157] Top shape: 8 128 150 150 (23040000)
I0609 08:37:53.435740 27019 net.cpp:165] Memory required for data: 1221120032
I0609 08:37:53.435747 27019 layer_factory.hpp:77] Creating layer pool2
I0609 08:37:53.435762 27019 net.cpp:100] Creating Layer pool2
I0609 08:37:53.435768 27019 net.cpp:434] pool2 <- conv2_2
I0609 08:37:53.435777 27019 net.cpp:408] pool2 -> pool2
I0609 08:37:53.435837 27019 net.cpp:150] Setting up pool2
I0609 08:37:53.435849 27019 net.cpp:157] Top shape: 8 128 75 75 (5760000)
I0609 08:37:53.435855 27019 net.cpp:165] Memory required for data: 1244160032
I0609 08:37:53.435863 27019 layer_factory.hpp:77] Creating layer conv3_1
I0609 08:37:53.435875 27019 net.cpp:100] Creating Layer conv3_1
I0609 08:37:53.435885 27019 net.cpp:434] conv3_1 <- pool2
I0609 08:37:53.435894 27019 net.cpp:408] conv3_1 -> conv3_1
I0609 08:37:53.441505 27019 net.cpp:150] Setting up conv3_1
I0609 08:37:53.441539 27019 net.cpp:157] Top shape: 8 256 75 75 (11520000)
I0609 08:37:53.441545 27019 net.cpp:165] Memory required for data: 1290240032
I0609 08:37:53.441576 27019 layer_factory.hpp:77] Creating layer relu3_1
I0609 08:37:53.441587 27019 net.cpp:100] Creating Layer relu3_1
I0609 08:37:53.441594 27019 net.cpp:434] relu3_1 <- conv3_1
I0609 08:37:53.441604 27019 net.cpp:395] relu3_1 -> conv3_1 (in-place)
I0609 08:37:53.441880 27019 net.cpp:150] Setting up relu3_1
I0609 08:37:53.441898 27019 net.cpp:157] Top shape: 8 256 75 75 (11520000)
I0609 08:37:53.441905 27019 net.cpp:165] Memory required for data: 1336320032
I0609 08:37:53.441910 27019 layer_factory.hpp:77] Creating layer conv3_2
I0609 08:37:53.441926 27019 net.cpp:100] Creating Layer conv3_2
I0609 08:37:53.441931 27019 net.cpp:434] conv3_2 <- conv3_1
I0609 08:37:53.441941 27019 net.cpp:408] conv3_2 -> conv3_2
I0609 08:37:53.450520 27019 net.cpp:150] Setting up conv3_2
I0609 08:37:53.450572 27019 net.cpp:157] Top shape: 8 256 75 75 (11520000)
I0609 08:37:53.450580 27019 net.cpp:165] Memory required for data: 1382400032
I0609 08:37:53.450592 27019 layer_factory.hpp:77] Creating layer relu3_2
I0609 08:37:53.450611 27019 net.cpp:100] Creating Layer relu3_2
I0609 08:37:53.450618 27019 net.cpp:434] relu3_2 <- conv3_2
I0609 08:37:53.450628 27019 net.cpp:395] relu3_2 -> conv3_2 (in-place)
I0609 08:37:53.451196 27019 net.cpp:150] Setting up relu3_2
I0609 08:37:53.451220 27019 net.cpp:157] Top shape: 8 256 75 75 (11520000)
I0609 08:37:53.451227 27019 net.cpp:165] Memory required for data: 1428480032
I0609 08:37:53.451234 27019 layer_factory.hpp:77] Creating layer conv3_3
I0609 08:37:53.451289 27019 net.cpp:100] Creating Layer conv3_3
I0609 08:37:53.451297 27019 net.cpp:434] conv3_3 <- conv3_2
I0609 08:37:53.451308 27019 net.cpp:408] conv3_3 -> conv3_3
I0609 08:37:53.460039 27019 net.cpp:150] Setting up conv3_3
I0609 08:37:53.460081 27019 net.cpp:157] Top shape: 8 256 75 75 (11520000)
I0609 08:37:53.460088 27019 net.cpp:165] Memory required for data: 1474560032
I0609 08:37:53.460101 27019 layer_factory.hpp:77] Creating layer relu3_3
I0609 08:37:53.460115 27019 net.cpp:100] Creating Layer relu3_3
I0609 08:37:53.460126 27019 net.cpp:434] relu3_3 <- conv3_3
I0609 08:37:53.460136 27019 net.cpp:395] relu3_3 -> conv3_3 (in-place)
I0609 08:37:53.460669 27019 net.cpp:150] Setting up relu3_3
I0609 08:37:53.460697 27019 net.cpp:157] Top shape: 8 256 75 75 (11520000)
I0609 08:37:53.460703 27019 net.cpp:165] Memory required for data: 1520640032
I0609 08:37:53.460711 27019 layer_factory.hpp:77] Creating layer pool3
I0609 08:37:53.460722 27019 net.cpp:100] Creating Layer pool3
I0609 08:37:53.460732 27019 net.cpp:434] pool3 <- conv3_3
I0609 08:37:53.460744 27019 net.cpp:408] pool3 -> pool3
I0609 08:37:53.460809 27019 net.cpp:150] Setting up pool3
I0609 08:37:53.460821 27019 net.cpp:157] Top shape: 8 256 38 38 (2957312)
I0609 08:37:53.460827 27019 net.cpp:165] Memory required for data: 1532469280
I0609 08:37:53.460834 27019 layer_factory.hpp:77] Creating layer conv4_1
I0609 08:37:53.460851 27019 net.cpp:100] Creating Layer conv4_1
I0609 08:37:53.460861 27019 net.cpp:434] conv4_1 <- pool3
I0609 08:37:53.460870 27019 net.cpp:408] conv4_1 -> conv4_1
I0609 08:37:53.477339 27019 net.cpp:150] Setting up conv4_1
I0609 08:37:53.477378 27019 net.cpp:157] Top shape: 8 512 38 38 (5914624)
I0609 08:37:53.477385 27019 net.cpp:165] Memory required for data: 1556127776
I0609 08:37:53.477396 27019 layer_factory.hpp:77] Creating layer relu4_1
I0609 08:37:53.477411 27019 net.cpp:100] Creating Layer relu4_1
I0609 08:37:53.477418 27019 net.cpp:434] relu4_1 <- conv4_1
I0609 08:37:53.477442 27019 net.cpp:395] relu4_1 -> conv4_1 (in-place)
I0609 08:37:53.477694 27019 net.cpp:150] Setting up relu4_1
I0609 08:37:53.477707 27019 net.cpp:157] Top shape: 8 512 38 38 (5914624)
I0609 08:37:53.477713 27019 net.cpp:165] Memory required for data: 1579786272
I0609 08:37:53.477720 27019 layer_factory.hpp:77] Creating layer conv4_2
I0609 08:37:53.477736 27019 net.cpp:100] Creating Layer conv4_2
I0609 08:37:53.477742 27019 net.cpp:434] conv4_2 <- conv4_1
I0609 08:37:53.477752 27019 net.cpp:408] conv4_2 -> conv4_2
I0609 08:37:53.508851 27019 net.cpp:150] Setting up conv4_2
I0609 08:37:53.508895 27019 net.cpp:157] Top shape: 8 512 38 38 (5914624)
I0609 08:37:53.508903 27019 net.cpp:165] Memory required for data: 1603444768
I0609 08:37:53.508924 27019 layer_factory.hpp:77] Creating layer relu4_2
I0609 08:37:53.508944 27019 net.cpp:100] Creating Layer relu4_2
I0609 08:37:53.508951 27019 net.cpp:434] relu4_2 <- conv4_2
I0609 08:37:53.508962 27019 net.cpp:395] relu4_2 -> conv4_2 (in-place)
I0609 08:37:53.509541 27019 net.cpp:150] Setting up relu4_2
I0609 08:37:53.509577 27019 net.cpp:157] Top shape: 8 512 38 38 (5914624)
I0609 08:37:53.509584 27019 net.cpp:165] Memory required for data: 1627103264
I0609 08:37:53.509590 27019 layer_factory.hpp:77] Creating layer conv4_3
I0609 08:37:53.509609 27019 net.cpp:100] Creating Layer conv4_3
I0609 08:37:53.509619 27019 net.cpp:434] conv4_3 <- conv4_2
I0609 08:37:53.509630 27019 net.cpp:408] conv4_3 -> conv4_3
I0609 08:37:53.538240 27019 net.cpp:150] Setting up conv4_3
I0609 08:37:53.538285 27019 net.cpp:157] Top shape: 8 512 38 38 (5914624)
I0609 08:37:53.538291 27019 net.cpp:165] Memory required for data: 1650761760
I0609 08:37:53.538307 27019 layer_factory.hpp:77] Creating layer relu4_3
I0609 08:37:53.538321 27019 net.cpp:100] Creating Layer relu4_3
I0609 08:37:53.538342 27019 net.cpp:434] relu4_3 <- conv4_3
I0609 08:37:53.538352 27019 net.cpp:395] relu4_3 -> conv4_3 (in-place)
I0609 08:37:53.538600 27019 net.cpp:150] Setting up relu4_3
I0609 08:37:53.538614 27019 net.cpp:157] Top shape: 8 512 38 38 (5914624)
I0609 08:37:53.538671 27019 net.cpp:165] Memory required for data: 1674420256
I0609 08:37:53.538677 27019 layer_factory.hpp:77] Creating layer conv4_3_relu4_3_0_split
I0609 08:37:53.538688 27019 net.cpp:100] Creating Layer conv4_3_relu4_3_0_split
I0609 08:37:53.538694 27019 net.cpp:434] conv4_3_relu4_3_0_split <- conv4_3
I0609 08:37:53.538703 27019 net.cpp:408] conv4_3_relu4_3_0_split -> conv4_3_relu4_3_0_split_0
I0609 08:37:53.538714 27019 net.cpp:408] conv4_3_relu4_3_0_split -> conv4_3_relu4_3_0_split_1
I0609 08:37:53.538774 27019 net.cpp:150] Setting up conv4_3_relu4_3_0_split
I0609 08:37:53.538787 27019 net.cpp:157] Top shape: 8 512 38 38 (5914624)
I0609 08:37:53.538794 27019 net.cpp:157] Top shape: 8 512 38 38 (5914624)
I0609 08:37:53.538800 27019 net.cpp:165] Memory required for data: 1721737248
I0609 08:37:53.538806 27019 layer_factory.hpp:77] Creating layer pool4
I0609 08:37:53.538816 27019 net.cpp:100] Creating Layer pool4
I0609 08:37:53.538823 27019 net.cpp:434] pool4 <- conv4_3_relu4_3_0_split_0
I0609 08:37:53.538832 27019 net.cpp:408] pool4 -> pool4
I0609 08:37:53.538887 27019 net.cpp:150] Setting up pool4
I0609 08:37:53.538900 27019 net.cpp:157] Top shape: 8 512 19 19 (1478656)
I0609 08:37:53.538911 27019 net.cpp:165] Memory required for data: 1727651872
I0609 08:37:53.538918 27019 layer_factory.hpp:77] Creating layer conv5_1
I0609 08:37:53.538934 27019 net.cpp:100] Creating Layer conv5_1
I0609 08:37:53.538949 27019 net.cpp:434] conv5_1 <- pool4
I0609 08:37:53.538974 27019 net.cpp:408] conv5_1 -> conv5_1
I0609 08:37:53.567344 27019 net.cpp:150] Setting up conv5_1
I0609 08:37:53.567404 27019 net.cpp:157] Top shape: 8 512 19 19 (1478656)
I0609 08:37:53.567411 27019 net.cpp:165] Memory required for data: 1733566496
I0609 08:37:53.567425 27019 layer_factory.hpp:77] Creating layer relu5_1
I0609 08:37:53.567445 27019 net.cpp:100] Creating Layer relu5_1
I0609 08:37:53.567454 27019 net.cpp:434] relu5_1 <- conv5_1
I0609 08:37:53.567466 27019 net.cpp:395] relu5_1 -> conv5_1 (in-place)
I0609 08:37:53.568004 27019 net.cpp:150] Setting up relu5_1
I0609 08:37:53.568035 27019 net.cpp:157] Top shape: 8 512 19 19 (1478656)
I0609 08:37:53.568042 27019 net.cpp:165] Memory required for data: 1739481120
I0609 08:37:53.568051 27019 layer_factory.hpp:77] Creating layer conv5_2
I0609 08:37:53.568068 27019 net.cpp:100] Creating Layer conv5_2
I0609 08:37:53.568075 27019 net.cpp:434] conv5_2 <- conv5_1
I0609 08:37:53.568085 27019 net.cpp:408] conv5_2 -> conv5_2
I0609 08:37:53.597352 27019 net.cpp:150] Setting up conv5_2
I0609 08:37:53.597398 27019 net.cpp:157] Top shape: 8 512 19 19 (1478656)
I0609 08:37:53.597404 27019 net.cpp:165] Memory required for data: 1745395744
I0609 08:37:53.597421 27019 layer_factory.hpp:77] Creating layer relu5_2
I0609 08:37:53.597437 27019 net.cpp:100] Creating Layer relu5_2
I0609 08:37:53.597445 27019 net.cpp:434] relu5_2 <- conv5_2
I0609 08:37:53.597462 27019 net.cpp:395] relu5_2 -> conv5_2 (in-place)
I0609 08:37:53.598026 27019 net.cpp:150] Setting up relu5_2
I0609 08:37:53.598055 27019 net.cpp:157] Top shape: 8 512 19 19 (1478656)
I0609 08:37:53.598062 27019 net.cpp:165] Memory required for data: 1751310368
I0609 08:37:53.598073 27019 layer_factory.hpp:77] Creating layer conv5_3
I0609 08:37:53.598089 27019 net.cpp:100] Creating Layer conv5_3
I0609 08:37:53.598103 27019 net.cpp:434] conv5_3 <- conv5_2
I0609 08:37:53.598119 27019 net.cpp:408] conv5_3 -> conv5_3
I0609 08:37:53.625910 27019 net.cpp:150] Setting up conv5_3
I0609 08:37:53.625998 27019 net.cpp:157] Top shape: 8 512 19 19 (1478656)
I0609 08:37:53.626019 27019 net.cpp:165] Memory required for data: 1757224992
I0609 08:37:53.626045 27019 layer_factory.hpp:77] Creating layer relu5_3
I0609 08:37:53.626085 27019 net.cpp:100] Creating Layer relu5_3
I0609 08:37:53.626108 27019 net.cpp:434] relu5_3 <- conv5_3
I0609 08:37:53.626137 27019 net.cpp:395] relu5_3 -> conv5_3 (in-place)
I0609 08:37:53.626442 27019 net.cpp:150] Setting up relu5_3
I0609 08:37:53.626478 27019 net.cpp:157] Top shape: 8 512 19 19 (1478656)
I0609 08:37:53.626512 27019 net.cpp:165] Memory required for data: 1763139616
I0609 08:37:53.626547 27019 layer_factory.hpp:77] Creating layer pool5
I0609 08:37:53.626574 27019 net.cpp:100] Creating Layer pool5
I0609 08:37:53.626597 27019 net.cpp:434] pool5 <- conv5_3
I0609 08:37:53.626624 27019 net.cpp:408] pool5 -> pool5
I0609 08:37:53.626711 27019 net.cpp:150] Setting up pool5
I0609 08:37:53.626739 27019 net.cpp:157] Top shape: 8 512 19 19 (1478656)
I0609 08:37:53.626760 27019 net.cpp:165] Memory required for data: 1769054240
I0609 08:37:53.626782 27019 layer_factory.hpp:77] Creating layer fc6
I0609 08:37:53.626813 27019 net.cpp:100] Creating Layer fc6
I0609 08:37:53.626837 27019 net.cpp:434] fc6 <- pool5
I0609 08:37:53.626863 27019 net.cpp:408] fc6 -> fc6
I0609 08:37:53.683244 27019 net.cpp:150] Setting up fc6
I0609 08:37:53.683290 27019 net.cpp:157] Top shape: 8 1024 19 19 (2957312)
I0609 08:37:53.683297 27019 net.cpp:165] Memory required for data: 1780883488
I0609 08:37:53.683315 27019 layer_factory.hpp:77] Creating layer relu6
I0609 08:37:53.683331 27019 net.cpp:100] Creating Layer relu6
I0609 08:37:53.683339 27019 net.cpp:434] relu6 <- fc6
I0609 08:37:53.683356 27019 net.cpp:395] relu6 -> fc6 (in-place)
I0609 08:37:53.684068 27019 net.cpp:150] Setting up relu6
I0609 08:37:53.684103 27019 net.cpp:157] Top shape: 8 1024 19 19 (2957312)
I0609 08:37:53.684113 27019 net.cpp:165] Memory required for data: 1792712736
I0609 08:37:53.684120 27019 layer_factory.hpp:77] Creating layer fc7
I0609 08:37:53.684136 27019 net.cpp:100] Creating Layer fc7
I0609 08:37:53.684146 27019 net.cpp:434] fc7 <- fc6
I0609 08:37:53.684157 27019 net.cpp:408] fc7 -> fc7
I0609 08:37:53.698374 27019 net.cpp:150] Setting up fc7
I0609 08:37:53.698415 27019 net.cpp:157] Top shape: 8 1024 19 19 (2957312)
I0609 08:37:53.698426 27019 net.cpp:165] Memory required for data: 1804541984
I0609 08:37:53.698441 27019 layer_factory.hpp:77] Creating layer relu7
I0609 08:37:53.698457 27019 net.cpp:100] Creating Layer relu7
I0609 08:37:53.698468 27019 net.cpp:434] relu7 <- fc7
I0609 08:37:53.698479 27019 net.cpp:395] relu7 -> fc7 (in-place)
I0609 08:37:53.698734 27019 net.cpp:150] Setting up relu7
I0609 08:37:53.698750 27019 net.cpp:157] Top shape: 8 1024 19 19 (2957312)
I0609 08:37:53.698757 27019 net.cpp:165] Memory required for data: 1816371232
I0609 08:37:53.698763 27019 layer_factory.hpp:77] Creating layer fc7_relu7_0_split
I0609 08:37:53.698773 27019 net.cpp:100] Creating Layer fc7_relu7_0_split
I0609 08:37:53.698781 27019 net.cpp:434] fc7_relu7_0_split <- fc7
I0609 08:37:53.698789 27019 net.cpp:408] fc7_relu7_0_split -> fc7_relu7_0_split_0
I0609 08:37:53.698803 27019 net.cpp:408] fc7_relu7_0_split -> fc7_relu7_0_split_1
I0609 08:37:53.698823 27019 net.cpp:408] fc7_relu7_0_split -> fc7_relu7_0_split_2
I0609 08:37:53.698837 27019 net.cpp:408] fc7_relu7_0_split -> fc7_relu7_0_split_3
I0609 08:37:53.698936 27019 net.cpp:150] Setting up fc7_relu7_0_split
I0609 08:37:53.698951 27019 net.cpp:157] Top shape: 8 1024 19 19 (2957312)
I0609 08:37:53.698976 27019 net.cpp:157] Top shape: 8 1024 19 19 (2957312)
I0609 08:37:53.698985 27019 net.cpp:157] Top shape: 8 1024 19 19 (2957312)
I0609 08:37:53.698994 27019 net.cpp:157] Top shape: 8 1024 19 19 (2957312)
I0609 08:37:53.698999 27019 net.cpp:165] Memory required for data: 1863688224
I0609 08:37:53.699005 27019 layer_factory.hpp:77] Creating layer conv6_1
I0609 08:37:53.699023 27019 net.cpp:100] Creating Layer conv6_1
I0609 08:37:53.699031 27019 net.cpp:434] conv6_1 <- fc7_relu7_0_split_0
I0609 08:37:53.699041 27019 net.cpp:408] conv6_1 -> conv6_1
I0609 08:37:53.704496 27019 net.cpp:150] Setting up conv6_1
I0609 08:37:53.704550 27019 net.cpp:157] Top shape: 8 256 19 19 (739328)
I0609 08:37:53.704557 27019 net.cpp:165] Memory required for data: 1866645536
I0609 08:37:53.704569 27019 layer_factory.hpp:77] Creating layer conv6_1_relu
I0609 08:37:53.704587 27019 net.cpp:100] Creating Layer conv6_1_relu
I0609 08:37:53.704596 27019 net.cpp:434] conv6_1_relu <- conv6_1
I0609 08:37:53.704607 27019 net.cpp:395] conv6_1_relu -> conv6_1 (in-place)
I0609 08:37:53.705165 27019 net.cpp:150] Setting up conv6_1_relu
I0609 08:37:53.705215 27019 net.cpp:157] Top shape: 8 256 19 19 (739328)
I0609 08:37:53.705221 27019 net.cpp:165] Memory required for data: 1869602848
I0609 08:37:53.705229 27019 layer_factory.hpp:77] Creating layer conv6_2
I0609 08:37:53.705243 27019 net.cpp:100] Creating Layer conv6_2
I0609 08:37:53.705255 27019 net.cpp:434] conv6_2 <- conv6_1
I0609 08:37:53.705273 27019 net.cpp:408] conv6_2 -> conv6_2
I0609 08:37:53.720623 27019 net.cpp:150] Setting up conv6_2
I0609 08:37:53.720667 27019 net.cpp:157] Top shape: 8 512 10 10 (409600)
I0609 08:37:53.720674 27019 net.cpp:165] Memory required for data: 1871241248
I0609 08:37:53.720700 27019 layer_factory.hpp:77] Creating layer conv6_2_relu
I0609 08:37:53.720721 27019 net.cpp:100] Creating Layer conv6_2_relu
I0609 08:37:53.720731 27019 net.cpp:434] conv6_2_relu <- conv6_2
I0609 08:37:53.720741 27019 net.cpp:395] conv6_2_relu -> conv6_2 (in-place)
I0609 08:37:53.721340 27019 net.cpp:150] Setting up conv6_2_relu
I0609 08:37:53.721367 27019 net.cpp:157] Top shape: 8 512 10 10 (409600)
I0609 08:37:53.721374 27019 net.cpp:165] Memory required for data: 1872879648
I0609 08:37:53.721380 27019 layer_factory.hpp:77] Creating layer conv6_2_conv6_2_relu_0_split
I0609 08:37:53.721391 27019 net.cpp:100] Creating Layer conv6_2_conv6_2_relu_0_split
I0609 08:37:53.721398 27019 net.cpp:434] conv6_2_conv6_2_relu_0_split <- conv6_2
I0609 08:37:53.721415 27019 net.cpp:408] conv6_2_conv6_2_relu_0_split -> conv6_2_conv6_2_relu_0_split_0
I0609 08:37:53.721427 27019 net.cpp:408] conv6_2_conv6_2_relu_0_split -> conv6_2_conv6_2_relu_0_split_1
I0609 08:37:53.721436 27019 net.cpp:408] conv6_2_conv6_2_relu_0_split -> conv6_2_conv6_2_relu_0_split_2
I0609 08:37:53.721446 27019 net.cpp:408] conv6_2_conv6_2_relu_0_split -> conv6_2_conv6_2_relu_0_split_3
I0609 08:37:53.721562 27019 net.cpp:150] Setting up conv6_2_conv6_2_relu_0_split
I0609 08:37:53.721576 27019 net.cpp:157] Top shape: 8 512 10 10 (409600)
I0609 08:37:53.721585 27019 net.cpp:157] Top shape: 8 512 10 10 (409600)
I0609 08:37:53.721591 27019 net.cpp:157] Top shape: 8 512 10 10 (409600)
I0609 08:37:53.721599 27019 net.cpp:157] Top shape: 8 512 10 10 (409600)
I0609 08:37:53.721606 27019 net.cpp:165] Memory required for data: 1879433248
I0609 08:37:53.721611 27019 layer_factory.hpp:77] Creating layer conv7_1
I0609 08:37:53.721629 27019 net.cpp:100] Creating Layer conv7_1
I0609 08:37:53.721635 27019 net.cpp:434] conv7_1 <- conv6_2_conv6_2_relu_0_split_0
I0609 08:37:53.721648 27019 net.cpp:408] conv7_1 -> conv7_1
I0609 08:37:53.725497 27019 net.cpp:150] Setting up conv7_1
I0609 08:37:53.725523 27019 net.cpp:157] Top shape: 8 128 10 10 (102400)
I0609 08:37:53.725529 27019 net.cpp:165] Memory required for data: 1879842848
I0609 08:37:53.725540 27019 layer_factory.hpp:77] Creating layer conv7_1_relu
I0609 08:37:53.725553 27019 net.cpp:100] Creating Layer conv7_1_relu
I0609 08:37:53.725565 27019 net.cpp:434] conv7_1_relu <- conv7_1
I0609 08:37:53.725574 27019 net.cpp:395] conv7_1_relu -> conv7_1 (in-place)
I0609 08:37:53.725843 27019 net.cpp:150] Setting up conv7_1_relu
I0609 08:37:53.725859 27019 net.cpp:157] Top shape: 8 128 10 10 (102400)
I0609 08:37:53.725865 27019 net.cpp:165] Memory required for data: 1880252448
I0609 08:37:53.725872 27019 layer_factory.hpp:77] Creating layer conv7_2
I0609 08:37:53.725888 27019 net.cpp:100] Creating Layer conv7_2
I0609 08:37:53.725895 27019 net.cpp:434] conv7_2 <- conv7_1
I0609 08:37:53.725906 27019 net.cpp:408] conv7_2 -> conv7_2
I0609 08:37:53.731205 27019 net.cpp:150] Setting up conv7_2
I0609 08:37:53.731237 27019 net.cpp:157] Top shape: 8 256 5 5 (51200)
I0609 08:37:53.731243 27019 net.cpp:165] Memory required for data: 1880457248
I0609 08:37:53.731254 27019 layer_factory.hpp:77] Creating layer conv7_2_relu
I0609 08:37:53.731268 27019 net.cpp:100] Creating Layer conv7_2_relu
I0609 08:37:53.731279 27019 net.cpp:434] conv7_2_relu <- conv7_2
I0609 08:37:53.731289 27019 net.cpp:395] conv7_2_relu -> conv7_2 (in-place)
I0609 08:37:53.731909 27019 net.cpp:150] Setting up conv7_2_relu
I0609 08:37:53.731958 27019 net.cpp:157] Top shape: 8 256 5 5 (51200)
I0609 08:37:53.731966 27019 net.cpp:165] Memory required for data: 1880662048
I0609 08:37:53.731972 27019 layer_factory.hpp:77] Creating layer conv7_2_conv7_2_relu_0_split
I0609 08:37:53.731982 27019 net.cpp:100] Creating Layer conv7_2_conv7_2_relu_0_split
I0609 08:37:53.731989 27019 net.cpp:434] conv7_2_conv7_2_relu_0_split <- conv7_2
I0609 08:37:53.732002 27019 net.cpp:408] conv7_2_conv7_2_relu_0_split -> conv7_2_conv7_2_relu_0_split_0
I0609 08:37:53.732013 27019 net.cpp:408] conv7_2_conv7_2_relu_0_split -> conv7_2_conv7_2_relu_0_split_1
I0609 08:37:53.732022 27019 net.cpp:408] conv7_2_conv7_2_relu_0_split -> conv7_2_conv7_2_relu_0_split_2
I0609 08:37:53.732031 27019 net.cpp:408] conv7_2_conv7_2_relu_0_split -> conv7_2_conv7_2_relu_0_split_3
I0609 08:37:53.732146 27019 net.cpp:150] Setting up conv7_2_conv7_2_relu_0_split
I0609 08:37:53.732161 27019 net.cpp:157] Top shape: 8 256 5 5 (51200)
I0609 08:37:53.732170 27019 net.cpp:157] Top shape: 8 256 5 5 (51200)
I0609 08:37:53.732177 27019 net.cpp:157] Top shape: 8 256 5 5 (51200)
I0609 08:37:53.732183 27019 net.cpp:157] Top shape: 8 256 5 5 (51200)
I0609 08:37:53.732189 27019 net.cpp:165] Memory required for data: 1881481248
I0609 08:37:53.732194 27019 layer_factory.hpp:77] Creating layer conv8_1
I0609 08:37:53.732210 27019 net.cpp:100] Creating Layer conv8_1
I0609 08:37:53.732218 27019 net.cpp:434] conv8_1 <- conv7_2_conv7_2_relu_0_split_0
I0609 08:37:53.732228 27019 net.cpp:408] conv8_1 -> conv8_1
I0609 08:37:53.736119 27019 net.cpp:150] Setting up conv8_1
I0609 08:37:53.736155 27019 net.cpp:157] Top shape: 8 128 5 5 (25600)
I0609 08:37:53.736160 27019 net.cpp:165] Memory required for data: 1881583648
I0609 08:37:53.736171 27019 layer_factory.hpp:77] Creating layer conv8_1_relu
I0609 08:37:53.736181 27019 net.cpp:100] Creating Layer conv8_1_relu
I0609 08:37:53.736188 27019 net.cpp:434] conv8_1_relu <- conv8_1
I0609 08:37:53.736198 27019 net.cpp:395] conv8_1_relu -> conv8_1 (in-place)
I0609 08:37:53.737263 27019 net.cpp:150] Setting up conv8_1_relu
I0609 08:37:53.737280 27019 net.cpp:157] Top shape: 8 128 5 5 (25600)
I0609 08:37:53.737285 27019 net.cpp:165] Memory required for data: 1881686048
I0609 08:37:53.737292 27019 layer_factory.hpp:77] Creating layer conv8_2
I0609 08:37:53.737305 27019 net.cpp:100] Creating Layer conv8_2
I0609 08:37:53.737311 27019 net.cpp:434] conv8_2 <- conv8_1
I0609 08:37:53.737335 27019 net.cpp:408] conv8_2 -> conv8_2
I0609 08:37:53.743245 27019 net.cpp:150] Setting up conv8_2
I0609 08:37:53.743274 27019 net.cpp:157] Top shape: 8 256 3 3 (18432)
I0609 08:37:53.743280 27019 net.cpp:165] Memory required for data: 1881759776
I0609 08:37:53.743299 27019 layer_factory.hpp:77] Creating layer conv8_2_relu
I0609 08:37:53.743310 27019 net.cpp:100] Creating Layer conv8_2_relu
I0609 08:37:53.743319 27019 net.cpp:434] conv8_2_relu <- conv8_2
I0609 08:37:53.743330 27019 net.cpp:395] conv8_2_relu -> conv8_2 (in-place)
I0609 08:37:53.743926 27019 net.cpp:150] Setting up conv8_2_relu
I0609 08:37:53.743952 27019 net.cpp:157] Top shape: 8 256 3 3 (18432)
I0609 08:37:53.743957 27019 net.cpp:165] Memory required for data: 1881833504
I0609 08:37:53.743963 27019 layer_factory.hpp:77] Creating layer conv8_2_conv8_2_relu_0_split
I0609 08:37:53.743974 27019 net.cpp:100] Creating Layer conv8_2_conv8_2_relu_0_split
I0609 08:37:53.743981 27019 net.cpp:434] conv8_2_conv8_2_relu_0_split <- conv8_2
I0609 08:37:53.743996 27019 net.cpp:408] conv8_2_conv8_2_relu_0_split -> conv8_2_conv8_2_relu_0_split_0
I0609 08:37:53.744007 27019 net.cpp:408] conv8_2_conv8_2_relu_0_split -> conv8_2_conv8_2_relu_0_split_1
I0609 08:37:53.744017 27019 net.cpp:408] conv8_2_conv8_2_relu_0_split -> conv8_2_conv8_2_relu_0_split_2
I0609 08:37:53.744026 27019 net.cpp:408] conv8_2_conv8_2_relu_0_split -> conv8_2_conv8_2_relu_0_split_3
I0609 08:37:53.744141 27019 net.cpp:150] Setting up conv8_2_conv8_2_relu_0_split
I0609 08:37:53.744158 27019 net.cpp:157] Top shape: 8 256 3 3 (18432)
I0609 08:37:53.744165 27019 net.cpp:157] Top shape: 8 256 3 3 (18432)
I0609 08:37:53.744199 27019 net.cpp:157] Top shape: 8 256 3 3 (18432)
I0609 08:37:53.744205 27019 net.cpp:157] Top shape: 8 256 3 3 (18432)
I0609 08:37:53.744211 27019 net.cpp:165] Memory required for data: 1882128416
I0609 08:37:53.744218 27019 layer_factory.hpp:77] Creating layer conv9_1
I0609 08:37:53.744235 27019 net.cpp:100] Creating Layer conv9_1
I0609 08:37:53.744242 27019 net.cpp:434] conv9_1 <- conv8_2_conv8_2_relu_0_split_0
I0609 08:37:53.744251 27019 net.cpp:408] conv9_1 -> conv9_1
I0609 08:37:53.748457 27019 net.cpp:150] Setting up conv9_1
I0609 08:37:53.748483 27019 net.cpp:157] Top shape: 8 128 3 3 (9216)
I0609 08:37:53.748489 27019 net.cpp:165] Memory required for data: 1882165280
I0609 08:37:53.748498 27019 layer_factory.hpp:77] Creating layer conv9_1_relu
I0609 08:37:53.748508 27019 net.cpp:100] Creating Layer conv9_1_relu
I0609 08:37:53.748515 27019 net.cpp:434] conv9_1_relu <- conv9_1
I0609 08:37:53.748538 27019 net.cpp:395] conv9_1_relu -> conv9_1 (in-place)
I0609 08:37:53.749135 27019 net.cpp:150] Setting up conv9_1_relu
I0609 08:37:53.749160 27019 net.cpp:157] Top shape: 8 128 3 3 (9216)
I0609 08:37:53.749166 27019 net.cpp:165] Memory required for data: 1882202144
I0609 08:37:53.749172 27019 layer_factory.hpp:77] Creating layer conv9_2
I0609 08:37:53.749189 27019 net.cpp:100] Creating Layer conv9_2
I0609 08:37:53.749197 27019 net.cpp:434] conv9_2 <- conv9_1
I0609 08:37:53.749209 27019 net.cpp:408] conv9_2 -> conv9_2
I0609 08:37:53.754582 27019 net.cpp:150] Setting up conv9_2
I0609 08:37:53.754618 27019 net.cpp:157] Top shape: 8 256 1 1 (2048)
I0609 08:37:53.754624 27019 net.cpp:165] Memory required for data: 1882210336
I0609 08:37:53.754636 27019 layer_factory.hpp:77] Creating layer conv9_2_relu
I0609 08:37:53.754647 27019 net.cpp:100] Creating Layer conv9_2_relu
I0609 08:37:53.754659 27019 net.cpp:434] conv9_2_relu <- conv9_2
I0609 08:37:53.754668 27019 net.cpp:395] conv9_2_relu -> conv9_2 (in-place)
I0609 08:37:53.754959 27019 net.cpp:150] Setting up conv9_2_relu
I0609 08:37:53.754987 27019 net.cpp:157] Top shape: 8 256 1 1 (2048)
I0609 08:37:53.754993 27019 net.cpp:165] Memory required for data: 1882218528
I0609 08:37:53.754999 27019 layer_factory.hpp:77] Creating layer conv9_2_conv9_2_relu_0_split
I0609 08:37:53.755009 27019 net.cpp:100] Creating Layer conv9_2_conv9_2_relu_0_split
I0609 08:37:53.755019 27019 net.cpp:434] conv9_2_conv9_2_relu_0_split <- conv9_2
I0609 08:37:53.755028 27019 net.cpp:408] conv9_2_conv9_2_relu_0_split -> conv9_2_conv9_2_relu_0_split_0
I0609 08:37:53.755038 27019 net.cpp:408] conv9_2_conv9_2_relu_0_split -> conv9_2_conv9_2_relu_0_split_1
I0609 08:37:53.755048 27019 net.cpp:408] conv9_2_conv9_2_relu_0_split -> conv9_2_conv9_2_relu_0_split_2
I0609 08:37:53.755139 27019 net.cpp:150] Setting up conv9_2_conv9_2_relu_0_split
I0609 08:37:53.755154 27019 net.cpp:157] Top shape: 8 256 1 1 (2048)
I0609 08:37:53.755162 27019 net.cpp:157] Top shape: 8 256 1 1 (2048)
I0609 08:37:53.755168 27019 net.cpp:157] Top shape: 8 256 1 1 (2048)
I0609 08:37:53.755173 27019 net.cpp:165] Memory required for data: 1882243104
I0609 08:37:53.755179 27019 layer_factory.hpp:77] Creating layer conv4_3_norm
I0609 08:37:53.755198 27019 net.cpp:100] Creating Layer conv4_3_norm
I0609 08:37:53.755218 27019 net.cpp:434] conv4_3_norm <- conv4_3_relu4_3_0_split_1
I0609 08:37:53.755228 27019 net.cpp:408] conv4_3_norm -> conv4_3_norm
I0609 08:37:53.755511 27019 net.cpp:150] Setting up conv4_3_norm
I0609 08:37:53.755527 27019 net.cpp:157] Top shape: 8 512 38 38 (5914624)
I0609 08:37:53.755533 27019 net.cpp:165] Memory required for data: 1905901600
I0609 08:37:53.755542 27019 layer_factory.hpp:77] Creating layer conv4_3_norm_conv4_3_norm_0_split
I0609 08:37:53.755551 27019 net.cpp:100] Creating Layer conv4_3_norm_conv4_3_norm_0_split
I0609 08:37:53.755558 27019 net.cpp:434] conv4_3_norm_conv4_3_norm_0_split <- conv4_3_norm
I0609 08:37:53.755565 27019 net.cpp:408] conv4_3_norm_conv4_3_norm_0_split -> conv4_3_norm_conv4_3_norm_0_split_0
I0609 08:37:53.755576 27019 net.cpp:408] conv4_3_norm_conv4_3_norm_0_split -> conv4_3_norm_conv4_3_norm_0_split_1
I0609 08:37:53.755610 27019 net.cpp:408] conv4_3_norm_conv4_3_norm_0_split -> conv4_3_norm_conv4_3_norm_0_split_2
I0609 08:37:53.755693 27019 net.cpp:150] Setting up conv4_3_norm_conv4_3_norm_0_split
I0609 08:37:53.755707 27019 net.cpp:157] Top shape: 8 512 38 38 (5914624)
I0609 08:37:53.755714 27019 net.cpp:157] Top shape: 8 512 38 38 (5914624)
I0609 08:37:53.755722 27019 net.cpp:157] Top shape: 8 512 38 38 (5914624)
I0609 08:37:53.755726 27019 net.cpp:165] Memory required for data: 1976877088
I0609 08:37:53.755733 27019 layer_factory.hpp:77] Creating layer conv4_3_norm_mbox_loc
I0609 08:37:53.755749 27019 net.cpp:100] Creating Layer conv4_3_norm_mbox_loc
I0609 08:37:53.755755 27019 net.cpp:434] conv4_3_norm_mbox_loc <- conv4_3_norm_conv4_3_norm_0_split_0
I0609 08:37:53.755765 27019 net.cpp:408] conv4_3_norm_mbox_loc -> conv4_3_norm_mbox_loc
I0609 08:37:53.758747 27019 net.cpp:150] Setting up conv4_3_norm_mbox_loc
I0609 08:37:53.758774 27019 net.cpp:157] Top shape: 8 16 38 38 (184832)
I0609 08:37:53.758780 27019 net.cpp:165] Memory required for data: 1977616416
I0609 08:37:53.758791 27019 layer_factory.hpp:77] Creating layer conv4_3_norm_mbox_loc_perm
I0609 08:37:53.758808 27019 net.cpp:100] Creating Layer conv4_3_norm_mbox_loc_perm
I0609 08:37:53.758819 27019 net.cpp:434] conv4_3_norm_mbox_loc_perm <- conv4_3_norm_mbox_loc
I0609 08:37:53.758831 27019 net.cpp:408] conv4_3_norm_mbox_loc_perm -> conv4_3_norm_mbox_loc_perm
I0609 08:37:53.759043 27019 net.cpp:150] Setting up conv4_3_norm_mbox_loc_perm
I0609 08:37:53.759097 27019 net.cpp:157] Top shape: 8 38 38 16 (184832)
I0609 08:37:53.759107 27019 net.cpp:165] Memory required for data: 1978355744
I0609 08:37:53.759114 27019 layer_factory.hpp:77] Creating layer conv4_3_norm_mbox_loc_flat
I0609 08:37:53.759129 27019 net.cpp:100] Creating Layer conv4_3_norm_mbox_loc_flat
I0609 08:37:53.759135 27019 net.cpp:434] conv4_3_norm_mbox_loc_flat <- conv4_3_norm_mbox_loc_perm
I0609 08:37:53.759143 27019 net.cpp:408] conv4_3_norm_mbox_loc_flat -> conv4_3_norm_mbox_loc_flat
I0609 08:37:53.759203 27019 net.cpp:150] Setting up conv4_3_norm_mbox_loc_flat
I0609 08:37:53.759217 27019 net.cpp:157] Top shape: 8 23104 (184832)
I0609 08:37:53.759225 27019 net.cpp:165] Memory required for data: 1979095072
I0609 08:37:53.759232 27019 layer_factory.hpp:77] Creating layer conv4_3_norm_mbox_conf
I0609 08:37:53.759261 27019 net.cpp:100] Creating Layer conv4_3_norm_mbox_conf
I0609 08:37:53.759274 27019 net.cpp:434] conv4_3_norm_mbox_conf <- conv4_3_norm_conv4_3_norm_0_split_1
I0609 08:37:53.759284 27019 net.cpp:408] conv4_3_norm_mbox_conf -> conv4_3_norm_mbox_conf
I0609 08:37:53.766077 27019 net.cpp:150] Setting up conv4_3_norm_mbox_conf
I0609 08:37:53.766103 27019 net.cpp:157] Top shape: 8 84 38 38 (970368)
I0609 08:37:53.766110 27019 net.cpp:165] Memory required for data: 1982976544
I0609 08:37:53.766121 27019 layer_factory.hpp:77] Creating layer conv4_3_norm_mbox_conf_perm
I0609 08:37:53.766136 27019 net.cpp:100] Creating Layer conv4_3_norm_mbox_conf_perm
I0609 08:37:53.766144 27019 net.cpp:434] conv4_3_norm_mbox_conf_perm <- conv4_3_norm_mbox_conf
I0609 08:37:53.766154 27019 net.cpp:408] conv4_3_norm_mbox_conf_perm -> conv4_3_norm_mbox_conf_perm
I0609 08:37:53.766351 27019 net.cpp:150] Setting up conv4_3_norm_mbox_conf_perm
I0609 08:37:53.766366 27019 net.cpp:157] Top shape: 8 38 38 84 (970368)
I0609 08:37:53.766372 27019 net.cpp:165] Memory required for data: 1986858016
I0609 08:37:53.766378 27019 layer_factory.hpp:77] Creating layer conv4_3_norm_mbox_conf_flat
I0609 08:37:53.766389 27019 net.cpp:100] Creating Layer conv4_3_norm_mbox_conf_flat
I0609 08:37:53.766396 27019 net.cpp:434] conv4_3_norm_mbox_conf_flat <- conv4_3_norm_mbox_conf_perm
I0609 08:37:53.766404 27019 net.cpp:408] conv4_3_norm_mbox_conf_flat -> conv4_3_norm_mbox_conf_flat
I0609 08:37:53.766441 27019 net.cpp:150] Setting up conv4_3_norm_mbox_conf_flat
I0609 08:37:53.766449 27019 net.cpp:157] Top shape: 8 121296 (970368)
I0609 08:37:53.766454 27019 net.cpp:165] Memory required for data: 1990739488
I0609 08:37:53.766484 27019 layer_factory.hpp:77] Creating layer conv4_3_norm_mbox_priorbox
I0609 08:37:53.766497 27019 net.cpp:100] Creating Layer conv4_3_norm_mbox_priorbox
I0609 08:37:53.766505 27019 net.cpp:434] conv4_3_norm_mbox_priorbox <- conv4_3_norm_conv4_3_norm_0_split_2
I0609 08:37:53.766517 27019 net.cpp:434] conv4_3_norm_mbox_priorbox <- data_data_0_split_1
I0609 08:37:53.766528 27019 net.cpp:408] conv4_3_norm_mbox_priorbox -> conv4_3_norm_mbox_priorbox
I0609 08:37:53.766577 27019 net.cpp:150] Setting up conv4_3_norm_mbox_priorbox
I0609 08:37:53.766592 27019 net.cpp:157] Top shape: 1 2 23104 (46208)
I0609 08:37:53.766597 27019 net.cpp:165] Memory required for data: 1990924320
I0609 08:37:53.766602 27019 layer_factory.hpp:77] Creating layer fc7_mbox_loc
I0609 08:37:53.766618 27019 net.cpp:100] Creating Layer fc7_mbox_loc
I0609 08:37:53.766626 27019 net.cpp:434] fc7_mbox_loc <- fc7_relu7_0_split_1
I0609 08:37:53.766638 27019 net.cpp:408] fc7_mbox_loc -> fc7_mbox_loc
I0609 08:37:53.771234 27019 net.cpp:150] Setting up fc7_mbox_loc
I0609 08:37:53.771263 27019 net.cpp:157] Top shape: 8 24 19 19 (69312)
I0609 08:37:53.771270 27019 net.cpp:165] Memory required for data: 1991201568
I0609 08:37:53.771282 27019 layer_factory.hpp:77] Creating layer fc7_mbox_loc_perm
I0609 08:37:53.771294 27019 net.cpp:100] Creating Layer fc7_mbox_loc_perm
I0609 08:37:53.771302 27019 net.cpp:434] fc7_mbox_loc_perm <- fc7_mbox_loc
I0609 08:37:53.771313 27019 net.cpp:408] fc7_mbox_loc_perm -> fc7_mbox_loc_perm
I0609 08:37:53.771508 27019 net.cpp:150] Setting up fc7_mbox_loc_perm
I0609 08:37:53.771529 27019 net.cpp:157] Top shape: 8 19 19 24 (69312)
I0609 08:37:53.771535 27019 net.cpp:165] Memory required for data: 1991478816
I0609 08:37:53.771540 27019 layer_factory.hpp:77] Creating layer fc7_mbox_loc_flat
I0609 08:37:53.771550 27019 net.cpp:100] Creating Layer fc7_mbox_loc_flat
I0609 08:37:53.771556 27019 net.cpp:434] fc7_mbox_loc_flat <- fc7_mbox_loc_perm
I0609 08:37:53.771564 27019 net.cpp:408] fc7_mbox_loc_flat -> fc7_mbox_loc_flat
I0609 08:37:53.771601 27019 net.cpp:150] Setting up fc7_mbox_loc_flat
I0609 08:37:53.771622 27019 net.cpp:157] Top shape: 8 8664 (69312)
I0609 08:37:53.771628 27019 net.cpp:165] Memory required for data: 1991756064
I0609 08:37:53.771634 27019 layer_factory.hpp:77] Creating layer fc7_mbox_conf
I0609 08:37:53.771651 27019 net.cpp:100] Creating Layer fc7_mbox_conf
I0609 08:37:53.771658 27019 net.cpp:434] fc7_mbox_conf <- fc7_relu7_0_split_2
I0609 08:37:53.771668 27019 net.cpp:408] fc7_mbox_conf -> fc7_mbox_conf
I0609 08:37:53.787629 27019 net.cpp:150] Setting up fc7_mbox_conf
I0609 08:37:53.787679 27019 net.cpp:157] Top shape: 8 126 19 19 (363888)
I0609 08:37:53.787688 27019 net.cpp:165] Memory required for data: 1993211616
I0609 08:37:53.787703 27019 layer_factory.hpp:77] Creating layer fc7_mbox_conf_perm
I0609 08:37:53.787722 27019 net.cpp:100] Creating Layer fc7_mbox_conf_perm
I0609 08:37:53.787732 27019 net.cpp:434] fc7_mbox_conf_perm <- fc7_mbox_conf
I0609 08:37:53.787744 27019 net.cpp:408] fc7_mbox_conf_perm -> fc7_mbox_conf_perm
I0609 08:37:53.787948 27019 net.cpp:150] Setting up fc7_mbox_conf_perm
I0609 08:37:53.787964 27019 net.cpp:157] Top shape: 8 19 19 126 (363888)
I0609 08:37:53.787971 27019 net.cpp:165] Memory required for data: 1994667168
I0609 08:37:53.787976 27019 layer_factory.hpp:77] Creating layer fc7_mbox_conf_flat
I0609 08:37:53.787986 27019 net.cpp:100] Creating Layer fc7_mbox_conf_flat
I0609 08:37:53.787992 27019 net.cpp:434] fc7_mbox_conf_flat <- fc7_mbox_conf_perm
I0609 08:37:53.788003 27019 net.cpp:408] fc7_mbox_conf_flat -> fc7_mbox_conf_flat
I0609 08:37:53.788039 27019 net.cpp:150] Setting up fc7_mbox_conf_flat
I0609 08:37:53.788058 27019 net.cpp:157] Top shape: 8 45486 (363888)
I0609 08:37:53.788063 27019 net.cpp:165] Memory required for data: 1996122720
I0609 08:37:53.788069 27019 layer_factory.hpp:77] Creating layer fc7_mbox_priorbox
I0609 08:37:53.788080 27019 net.cpp:100] Creating Layer fc7_mbox_priorbox
I0609 08:37:53.788086 27019 net.cpp:434] fc7_mbox_priorbox <- fc7_relu7_0_split_3
I0609 08:37:53.788134 27019 net.cpp:434] fc7_mbox_priorbox <- data_data_0_split_2
I0609 08:37:53.788147 27019 net.cpp:408] fc7_mbox_priorbox -> fc7_mbox_priorbox
I0609 08:37:53.788192 27019 net.cpp:150] Setting up fc7_mbox_priorbox
I0609 08:37:53.788203 27019 net.cpp:157] Top shape: 1 2 8664 (17328)
I0609 08:37:53.788208 27019 net.cpp:165] Memory required for data: 1996192032
I0609 08:37:53.788214 27019 layer_factory.hpp:77] Creating layer conv6_2_mbox_loc
I0609 08:37:53.788233 27019 net.cpp:100] Creating Layer conv6_2_mbox_loc
I0609 08:37:53.788251 27019 net.cpp:434] conv6_2_mbox_loc <- conv6_2_conv6_2_relu_0_split_1
I0609 08:37:53.788262 27019 net.cpp:408] conv6_2_mbox_loc -> conv6_2_mbox_loc
I0609 08:37:53.792076 27019 net.cpp:150] Setting up conv6_2_mbox_loc
I0609 08:37:53.792104 27019 net.cpp:157] Top shape: 8 24 10 10 (19200)
I0609 08:37:53.792109 27019 net.cpp:165] Memory required for data: 1996268832
I0609 08:37:53.792119 27019 layer_factory.hpp:77] Creating layer conv6_2_mbox_loc_perm
I0609 08:37:53.792130 27019 net.cpp:100] Creating Layer conv6_2_mbox_loc_perm
I0609 08:37:53.792137 27019 net.cpp:434] conv6_2_mbox_loc_perm <- conv6_2_mbox_loc
I0609 08:37:53.792161 27019 net.cpp:408] conv6_2_mbox_loc_perm -> conv6_2_mbox_loc_perm
I0609 08:37:53.792369 27019 net.cpp:150] Setting up conv6_2_mbox_loc_perm
I0609 08:37:53.792383 27019 net.cpp:157] Top shape: 8 10 10 24 (19200)
I0609 08:37:53.792388 27019 net.cpp:165] Memory required for data: 1996345632
I0609 08:37:53.792394 27019 layer_factory.hpp:77] Creating layer conv6_2_mbox_loc_flat
I0609 08:37:53.792402 27019 net.cpp:100] Creating Layer conv6_2_mbox_loc_flat
I0609 08:37:53.792408 27019 net.cpp:434] conv6_2_mbox_loc_flat <- conv6_2_mbox_loc_perm
I0609 08:37:53.792418 27019 net.cpp:408] conv6_2_mbox_loc_flat -> conv6_2_mbox_loc_flat
I0609 08:37:53.792454 27019 net.cpp:150] Setting up conv6_2_mbox_loc_flat
I0609 08:37:53.792462 27019 net.cpp:157] Top shape: 8 2400 (19200)
I0609 08:37:53.792469 27019 net.cpp:165] Memory required for data: 1996422432
I0609 08:37:53.792474 27019 layer_factory.hpp:77] Creating layer conv6_2_mbox_conf
I0609 08:37:53.792490 27019 net.cpp:100] Creating Layer conv6_2_mbox_conf
I0609 08:37:53.792516 27019 net.cpp:434] conv6_2_mbox_conf <- conv6_2_conv6_2_relu_0_split_2
I0609 08:37:53.792526 27019 net.cpp:408] conv6_2_mbox_conf -> conv6_2_mbox_conf
I0609 08:37:53.800936 27019 net.cpp:150] Setting up conv6_2_mbox_conf
I0609 08:37:53.800969 27019 net.cpp:157] Top shape: 8 126 10 10 (100800)
I0609 08:37:53.800976 27019 net.cpp:165] Memory required for data: 1996825632
I0609 08:37:53.800989 27019 layer_factory.hpp:77] Creating layer conv6_2_mbox_conf_perm
I0609 08:37:53.801015 27019 net.cpp:100] Creating Layer conv6_2_mbox_conf_perm
I0609 08:37:53.801029 27019 net.cpp:434] conv6_2_mbox_conf_perm <- conv6_2_mbox_conf
I0609 08:37:53.801043 27019 net.cpp:408] conv6_2_mbox_conf_perm -> conv6_2_mbox_conf_perm
I0609 08:37:53.801254 27019 net.cpp:150] Setting up conv6_2_mbox_conf_perm
I0609 08:37:53.801267 27019 net.cpp:157] Top shape: 8 10 10 126 (100800)
I0609 08:37:53.801272 27019 net.cpp:165] Memory required for data: 1997228832
I0609 08:37:53.801278 27019 layer_factory.hpp:77] Creating layer conv6_2_mbox_conf_flat
I0609 08:37:53.801295 27019 net.cpp:100] Creating Layer conv6_2_mbox_conf_flat
I0609 08:37:53.801302 27019 net.cpp:434] conv6_2_mbox_conf_flat <- conv6_2_mbox_conf_perm
I0609 08:37:53.801311 27019 net.cpp:408] conv6_2_mbox_conf_flat -> conv6_2_mbox_conf_flat
I0609 08:37:53.801354 27019 net.cpp:150] Setting up conv6_2_mbox_conf_flat
I0609 08:37:53.801362 27019 net.cpp:157] Top shape: 8 12600 (100800)
I0609 08:37:53.801368 27019 net.cpp:165] Memory required for data: 1997632032
I0609 08:37:53.801374 27019 layer_factory.hpp:77] Creating layer conv6_2_mbox_priorbox
I0609 08:37:53.801389 27019 net.cpp:100] Creating Layer conv6_2_mbox_priorbox
I0609 08:37:53.801396 27019 net.cpp:434] conv6_2_mbox_priorbox <- conv6_2_conv6_2_relu_0_split_3
I0609 08:37:53.801404 27019 net.cpp:434] conv6_2_mbox_priorbox <- data_data_0_split_3
I0609 08:37:53.801440 27019 net.cpp:408] conv6_2_mbox_priorbox -> conv6_2_mbox_priorbox
I0609 08:37:53.801486 27019 net.cpp:150] Setting up conv6_2_mbox_priorbox
I0609 08:37:53.801499 27019 net.cpp:157] Top shape: 1 2 2400 (4800)
I0609 08:37:53.801504 27019 net.cpp:165] Memory required for data: 1997651232
I0609 08:37:53.801511 27019 layer_factory.hpp:77] Creating layer conv7_2_mbox_loc
I0609 08:37:53.801527 27019 net.cpp:100] Creating Layer conv7_2_mbox_loc
I0609 08:37:53.801534 27019 net.cpp:434] conv7_2_mbox_loc <- conv7_2_conv7_2_relu_0_split_1
I0609 08:37:53.801547 27019 net.cpp:408] conv7_2_mbox_loc -> conv7_2_mbox_loc
I0609 08:37:53.805119 27019 net.cpp:150] Setting up conv7_2_mbox_loc
I0609 08:37:53.805157 27019 net.cpp:157] Top shape: 8 24 5 5 (4800)
I0609 08:37:53.805163 27019 net.cpp:165] Memory required for data: 1997670432
I0609 08:37:53.805178 27019 layer_factory.hpp:77] Creating layer conv7_2_mbox_loc_perm
I0609 08:37:53.805192 27019 net.cpp:100] Creating Layer conv7_2_mbox_loc_perm
I0609 08:37:53.805200 27019 net.cpp:434] conv7_2_mbox_loc_perm <- conv7_2_mbox_loc
I0609 08:37:53.805209 27019 net.cpp:408] conv7_2_mbox_loc_perm -> conv7_2_mbox_loc_perm
I0609 08:37:53.805418 27019 net.cpp:150] Setting up conv7_2_mbox_loc_perm
I0609 08:37:53.805431 27019 net.cpp:157] Top shape: 8 5 5 24 (4800)
I0609 08:37:53.805438 27019 net.cpp:165] Memory required for data: 1997689632
I0609 08:37:53.805444 27019 layer_factory.hpp:77] Creating layer conv7_2_mbox_loc_flat
I0609 08:37:53.805452 27019 net.cpp:100] Creating Layer conv7_2_mbox_loc_flat
I0609 08:37:53.805459 27019 net.cpp:434] conv7_2_mbox_loc_flat <- conv7_2_mbox_loc_perm
I0609 08:37:53.805469 27019 net.cpp:408] conv7_2_mbox_loc_flat -> conv7_2_mbox_loc_flat
I0609 08:37:53.805505 27019 net.cpp:150] Setting up conv7_2_mbox_loc_flat
I0609 08:37:53.805521 27019 net.cpp:157] Top shape: 8 600 (4800)
I0609 08:37:53.805527 27019 net.cpp:165] Memory required for data: 1997708832
I0609 08:37:53.805532 27019 layer_factory.hpp:77] Creating layer conv7_2_mbox_conf
I0609 08:37:53.805548 27019 net.cpp:100] Creating Layer conv7_2_mbox_conf
I0609 08:37:53.805555 27019 net.cpp:434] conv7_2_mbox_conf <- conv7_2_conv7_2_relu_0_split_2
I0609 08:37:53.805564 27019 net.cpp:408] conv7_2_mbox_conf -> conv7_2_mbox_conf
I0609 08:37:53.811123 27019 net.cpp:150] Setting up conv7_2_mbox_conf
I0609 08:37:53.811156 27019 net.cpp:157] Top shape: 8 126 5 5 (25200)
I0609 08:37:53.811162 27019 net.cpp:165] Memory required for data: 1997809632
I0609 08:37:53.811174 27019 layer_factory.hpp:77] Creating layer conv7_2_mbox_conf_perm
I0609 08:37:53.811187 27019 net.cpp:100] Creating Layer conv7_2_mbox_conf_perm
I0609 08:37:53.811205 27019 net.cpp:434] conv7_2_mbox_conf_perm <- conv7_2_mbox_conf
I0609 08:37:53.811215 27019 net.cpp:408] conv7_2_mbox_conf_perm -> conv7_2_mbox_conf_perm
I0609 08:37:53.811430 27019 net.cpp:150] Setting up conv7_2_mbox_conf_perm
I0609 08:37:53.811444 27019 net.cpp:157] Top shape: 8 5 5 126 (25200)
I0609 08:37:53.811450 27019 net.cpp:165] Memory required for data: 1997910432
I0609 08:37:53.811455 27019 layer_factory.hpp:77] Creating layer conv7_2_mbox_conf_flat
I0609 08:37:53.811468 27019 net.cpp:100] Creating Layer conv7_2_mbox_conf_flat
I0609 08:37:53.811475 27019 net.cpp:434] conv7_2_mbox_conf_flat <- conv7_2_mbox_conf_perm
I0609 08:37:53.811482 27019 net.cpp:408] conv7_2_mbox_conf_flat -> conv7_2_mbox_conf_flat
I0609 08:37:53.811522 27019 net.cpp:150] Setting up conv7_2_mbox_conf_flat
I0609 08:37:53.811554 27019 net.cpp:157] Top shape: 8 3150 (25200)
I0609 08:37:53.811559 27019 net.cpp:165] Memory required for data: 1998011232
I0609 08:37:53.811565 27019 layer_factory.hpp:77] Creating layer conv7_2_mbox_priorbox
I0609 08:37:53.811575 27019 net.cpp:100] Creating Layer conv7_2_mbox_priorbox
I0609 08:37:53.811583 27019 net.cpp:434] conv7_2_mbox_priorbox <- conv7_2_conv7_2_relu_0_split_3
I0609 08:37:53.811590 27019 net.cpp:434] conv7_2_mbox_priorbox <- data_data_0_split_4
I0609 08:37:53.811602 27019 net.cpp:408] conv7_2_mbox_priorbox -> conv7_2_mbox_priorbox
I0609 08:37:53.811677 27019 net.cpp:150] Setting up conv7_2_mbox_priorbox
I0609 08:37:53.811686 27019 net.cpp:157] Top shape: 1 2 600 (1200)
I0609 08:37:53.811692 27019 net.cpp:165] Memory required for data: 1998016032
I0609 08:37:53.811698 27019 layer_factory.hpp:77] Creating layer conv8_2_mbox_loc
I0609 08:37:53.811714 27019 net.cpp:100] Creating Layer conv8_2_mbox_loc
I0609 08:37:53.811729 27019 net.cpp:434] conv8_2_mbox_loc <- conv8_2_conv8_2_relu_0_split_1
I0609 08:37:53.811743 27019 net.cpp:408] conv8_2_mbox_loc -> conv8_2_mbox_loc
I0609 08:37:53.814182 27019 net.cpp:150] Setting up conv8_2_mbox_loc
I0609 08:37:53.814208 27019 net.cpp:157] Top shape: 8 16 3 3 (1152)
I0609 08:37:53.814213 27019 net.cpp:165] Memory required for data: 1998020640
I0609 08:37:53.814261 27019 layer_factory.hpp:77] Creating layer conv8_2_mbox_loc_perm
I0609 08:37:53.814276 27019 net.cpp:100] Creating Layer conv8_2_mbox_loc_perm
I0609 08:37:53.814283 27019 net.cpp:434] conv8_2_mbox_loc_perm <- conv8_2_mbox_loc
I0609 08:37:53.814293 27019 net.cpp:408] conv8_2_mbox_loc_perm -> conv8_2_mbox_loc_perm
I0609 08:37:53.814527 27019 net.cpp:150] Setting up conv8_2_mbox_loc_perm
I0609 08:37:53.814539 27019 net.cpp:157] Top shape: 8 3 3 16 (1152)
I0609 08:37:53.814545 27019 net.cpp:165] Memory required for data: 1998025248
I0609 08:37:53.814553 27019 layer_factory.hpp:77] Creating layer conv8_2_mbox_loc_flat
I0609 08:37:53.814561 27019 net.cpp:100] Creating Layer conv8_2_mbox_loc_flat
I0609 08:37:53.814568 27019 net.cpp:434] conv8_2_mbox_loc_flat <- conv8_2_mbox_loc_perm
I0609 08:37:53.814576 27019 net.cpp:408] conv8_2_mbox_loc_flat -> conv8_2_mbox_loc_flat
I0609 08:37:53.814616 27019 net.cpp:150] Setting up conv8_2_mbox_loc_flat
I0609 08:37:53.814625 27019 net.cpp:157] Top shape: 8 144 (1152)
I0609 08:37:53.814630 27019 net.cpp:165] Memory required for data: 1998029856
I0609 08:37:53.814636 27019 layer_factory.hpp:77] Creating layer conv8_2_mbox_conf
I0609 08:37:53.814652 27019 net.cpp:100] Creating Layer conv8_2_mbox_conf
I0609 08:37:53.814661 27019 net.cpp:434] conv8_2_mbox_conf <- conv8_2_conv8_2_relu_0_split_2
I0609 08:37:53.814671 27019 net.cpp:408] conv8_2_mbox_conf -> conv8_2_mbox_conf
I0609 08:37:53.819394 27019 net.cpp:150] Setting up conv8_2_mbox_conf
I0609 08:37:53.819427 27019 net.cpp:157] Top shape: 8 84 3 3 (6048)
I0609 08:37:53.819432 27019 net.cpp:165] Memory required for data: 1998054048
I0609 08:37:53.819443 27019 layer_factory.hpp:77] Creating layer conv8_2_mbox_conf_perm
I0609 08:37:53.819454 27019 net.cpp:100] Creating Layer conv8_2_mbox_conf_perm
I0609 08:37:53.819461 27019 net.cpp:434] conv8_2_mbox_conf_perm <- conv8_2_mbox_conf
I0609 08:37:53.819486 27019 net.cpp:408] conv8_2_mbox_conf_perm -> conv8_2_mbox_conf_perm
I0609 08:37:53.819705 27019 net.cpp:150] Setting up conv8_2_mbox_conf_perm
I0609 08:37:53.819717 27019 net.cpp:157] Top shape: 8 3 3 84 (6048)
I0609 08:37:53.819723 27019 net.cpp:165] Memory required for data: 1998078240
I0609 08:37:53.819730 27019 layer_factory.hpp:77] Creating layer conv8_2_mbox_conf_flat
I0609 08:37:53.819741 27019 net.cpp:100] Creating Layer conv8_2_mbox_conf_flat
I0609 08:37:53.819747 27019 net.cpp:434] conv8_2_mbox_conf_flat <- conv8_2_mbox_conf_perm
I0609 08:37:53.819754 27019 net.cpp:408] conv8_2_mbox_conf_flat -> conv8_2_mbox_conf_flat
I0609 08:37:53.819794 27019 net.cpp:150] Setting up conv8_2_mbox_conf_flat
I0609 08:37:53.819816 27019 net.cpp:157] Top shape: 8 756 (6048)
I0609 08:37:53.819821 27019 net.cpp:165] Memory required for data: 1998102432
I0609 08:37:53.819828 27019 layer_factory.hpp:77] Creating layer conv8_2_mbox_priorbox
I0609 08:37:53.819836 27019 net.cpp:100] Creating Layer conv8_2_mbox_priorbox
I0609 08:37:53.819844 27019 net.cpp:434] conv8_2_mbox_priorbox <- conv8_2_conv8_2_relu_0_split_3
I0609 08:37:53.819854 27019 net.cpp:434] conv8_2_mbox_priorbox <- data_data_0_split_5
I0609 08:37:53.819864 27019 net.cpp:408] conv8_2_mbox_priorbox -> conv8_2_mbox_priorbox
I0609 08:37:53.819910 27019 net.cpp:150] Setting up conv8_2_mbox_priorbox
I0609 08:37:53.819923 27019 net.cpp:157] Top shape: 1 2 144 (288)
I0609 08:37:53.819952 27019 net.cpp:165] Memory required for data: 1998103584
I0609 08:37:53.819958 27019 layer_factory.hpp:77] Creating layer conv9_2_mbox_loc
I0609 08:37:53.819974 27019 net.cpp:100] Creating Layer conv9_2_mbox_loc
I0609 08:37:53.819981 27019 net.cpp:434] conv9_2_mbox_loc <- conv9_2_conv9_2_relu_0_split_0
I0609 08:37:53.819994 27019 net.cpp:408] conv9_2_mbox_loc -> conv9_2_mbox_loc
I0609 08:37:53.822480 27019 net.cpp:150] Setting up conv9_2_mbox_loc
I0609 08:37:53.822504 27019 net.cpp:157] Top shape: 8 16 1 1 (128)
I0609 08:37:53.822510 27019 net.cpp:165] Memory required for data: 1998104096
I0609 08:37:53.822520 27019 layer_factory.hpp:77] Creating layer conv9_2_mbox_loc_perm
I0609 08:37:53.822531 27019 net.cpp:100] Creating Layer conv9_2_mbox_loc_perm
I0609 08:37:53.822538 27019 net.cpp:434] conv9_2_mbox_loc_perm <- conv9_2_mbox_loc
I0609 08:37:53.822548 27019 net.cpp:408] conv9_2_mbox_loc_perm -> conv9_2_mbox_loc_perm
I0609 08:37:53.822765 27019 net.cpp:150] Setting up conv9_2_mbox_loc_perm
I0609 08:37:53.822779 27019 net.cpp:157] Top shape: 8 1 1 16 (128)
I0609 08:37:53.822784 27019 net.cpp:165] Memory required for data: 1998104608
I0609 08:37:53.822790 27019 layer_factory.hpp:77] Creating layer conv9_2_mbox_loc_flat
I0609 08:37:53.822799 27019 net.cpp:100] Creating Layer conv9_2_mbox_loc_flat
I0609 08:37:53.822806 27019 net.cpp:434] conv9_2_mbox_loc_flat <- conv9_2_mbox_loc_perm
I0609 08:37:53.822813 27019 net.cpp:408] conv9_2_mbox_loc_flat -> conv9_2_mbox_loc_flat
I0609 08:37:53.822854 27019 net.cpp:150] Setting up conv9_2_mbox_loc_flat
I0609 08:37:53.822878 27019 net.cpp:157] Top shape: 8 16 (128)
I0609 08:37:53.822883 27019 net.cpp:165] Memory required for data: 1998105120
I0609 08:37:53.822890 27019 layer_factory.hpp:77] Creating layer conv9_2_mbox_conf
I0609 08:37:53.822903 27019 net.cpp:100] Creating Layer conv9_2_mbox_conf
I0609 08:37:53.822919 27019 net.cpp:434] conv9_2_mbox_conf <- conv9_2_conv9_2_relu_0_split_1
I0609 08:37:53.822932 27019 net.cpp:408] conv9_2_mbox_conf -> conv9_2_mbox_conf
I0609 08:37:53.827940 27019 net.cpp:150] Setting up conv9_2_mbox_conf
I0609 08:37:53.827980 27019 net.cpp:157] Top shape: 8 84 1 1 (672)
I0609 08:37:53.827985 27019 net.cpp:165] Memory required for data: 1998107808
I0609 08:37:53.827996 27019 layer_factory.hpp:77] Creating layer conv9_2_mbox_conf_perm
I0609 08:37:53.828011 27019 net.cpp:100] Creating Layer conv9_2_mbox_conf_perm
I0609 08:37:53.828024 27019 net.cpp:434] conv9_2_mbox_conf_perm <- conv9_2_mbox_conf
I0609 08:37:53.828033 27019 net.cpp:408] conv9_2_mbox_conf_perm -> conv9_2_mbox_conf_perm
I0609 08:37:53.828258 27019 net.cpp:150] Setting up conv9_2_mbox_conf_perm
I0609 08:37:53.828270 27019 net.cpp:157] Top shape: 8 1 1 84 (672)
I0609 08:37:53.828275 27019 net.cpp:165] Memory required for data: 1998110496
I0609 08:37:53.828281 27019 layer_factory.hpp:77] Creating layer conv9_2_mbox_conf_flat
I0609 08:37:53.828289 27019 net.cpp:100] Creating Layer conv9_2_mbox_conf_flat
I0609 08:37:53.828296 27019 net.cpp:434] conv9_2_mbox_conf_flat <- conv9_2_mbox_conf_perm
I0609 08:37:53.828306 27019 net.cpp:408] conv9_2_mbox_conf_flat -> conv9_2_mbox_conf_flat
I0609 08:37:53.828344 27019 net.cpp:150] Setting up conv9_2_mbox_conf_flat
I0609 08:37:53.828371 27019 net.cpp:157] Top shape: 8 84 (672)
I0609 08:37:53.828375 27019 net.cpp:165] Memory required for data: 1998113184
I0609 08:37:53.828382 27019 layer_factory.hpp:77] Creating layer conv9_2_mbox_priorbox
I0609 08:37:53.828393 27019 net.cpp:100] Creating Layer conv9_2_mbox_priorbox
I0609 08:37:53.828400 27019 net.cpp:434] conv9_2_mbox_priorbox <- conv9_2_conv9_2_relu_0_split_2
I0609 08:37:53.828408 27019 net.cpp:434] conv9_2_mbox_priorbox <- data_data_0_split_6
I0609 08:37:53.828419 27019 net.cpp:408] conv9_2_mbox_priorbox -> conv9_2_mbox_priorbox
I0609 08:37:53.828461 27019 net.cpp:150] Setting up conv9_2_mbox_priorbox
I0609 08:37:53.828474 27019 net.cpp:157] Top shape: 1 2 16 (32)
I0609 08:37:53.828480 27019 net.cpp:165] Memory required for data: 1998113312
I0609 08:37:53.828513 27019 layer_factory.hpp:77] Creating layer mbox_loc
I0609 08:37:53.828528 27019 net.cpp:100] Creating Layer mbox_loc
I0609 08:37:53.828536 27019 net.cpp:434] mbox_loc <- conv4_3_norm_mbox_loc_flat
I0609 08:37:53.828544 27019 net.cpp:434] mbox_loc <- fc7_mbox_loc_flat
I0609 08:37:53.828553 27019 net.cpp:434] mbox_loc <- conv6_2_mbox_loc_flat
I0609 08:37:53.828563 27019 net.cpp:434] mbox_loc <- conv7_2_mbox_loc_flat
I0609 08:37:53.828570 27019 net.cpp:434] mbox_loc <- conv8_2_mbox_loc_flat
I0609 08:37:53.828577 27019 net.cpp:434] mbox_loc <- conv9_2_mbox_loc_flat
I0609 08:37:53.828588 27019 net.cpp:408] mbox_loc -> mbox_loc
I0609 08:37:53.828642 27019 net.cpp:150] Setting up mbox_loc
I0609 08:37:53.828655 27019 net.cpp:157] Top shape: 8 34928 (279424)
I0609 08:37:53.828661 27019 net.cpp:165] Memory required for data: 1999231008
I0609 08:37:53.828667 27019 layer_factory.hpp:77] Creating layer mbox_conf
I0609 08:37:53.828675 27019 net.cpp:100] Creating Layer mbox_conf
I0609 08:37:53.828682 27019 net.cpp:434] mbox_conf <- conv4_3_norm_mbox_conf_flat
I0609 08:37:53.828693 27019 net.cpp:434] mbox_conf <- fc7_mbox_conf_flat
I0609 08:37:53.828701 27019 net.cpp:434] mbox_conf <- conv6_2_mbox_conf_flat
I0609 08:37:53.828707 27019 net.cpp:434] mbox_conf <- conv7_2_mbox_conf_flat
I0609 08:37:53.828714 27019 net.cpp:434] mbox_conf <- conv8_2_mbox_conf_flat
I0609 08:37:53.828722 27019 net.cpp:434] mbox_conf <- conv9_2_mbox_conf_flat
I0609 08:37:53.828729 27019 net.cpp:408] mbox_conf -> mbox_conf
I0609 08:37:53.828768 27019 net.cpp:150] Setting up mbox_conf
I0609 08:37:53.828781 27019 net.cpp:157] Top shape: 8 183372 (1466976)
I0609 08:37:53.828788 27019 net.cpp:165] Memory required for data: 2005098912
I0609 08:37:53.828794 27019 layer_factory.hpp:77] Creating layer mbox_priorbox
I0609 08:37:53.828801 27019 net.cpp:100] Creating Layer mbox_priorbox
I0609 08:37:53.828807 27019 net.cpp:434] mbox_priorbox <- conv4_3_norm_mbox_priorbox
I0609 08:37:53.828815 27019 net.cpp:434] mbox_priorbox <- fc7_mbox_priorbox
I0609 08:37:53.828821 27019 net.cpp:434] mbox_priorbox <- conv6_2_mbox_priorbox
I0609 08:37:53.828829 27019 net.cpp:434] mbox_priorbox <- conv7_2_mbox_priorbox
I0609 08:37:53.828835 27019 net.cpp:434] mbox_priorbox <- conv8_2_mbox_priorbox
I0609 08:37:53.828840 27019 net.cpp:434] mbox_priorbox <- conv9_2_mbox_priorbox
I0609 08:37:53.828851 27019 net.cpp:408] mbox_priorbox -> mbox_priorbox
I0609 08:37:53.828891 27019 net.cpp:150] Setting up mbox_priorbox
I0609 08:37:53.828904 27019 net.cpp:157] Top shape: 1 2 34928 (69856)
I0609 08:37:53.828912 27019 net.cpp:165] Memory required for data: 2005378336
I0609 08:37:53.828917 27019 layer_factory.hpp:77] Creating layer mbox_loss
I0609 08:37:53.845656 27019 net.cpp:100] Creating Layer mbox_loss
I0609 08:37:53.845707 27019 net.cpp:434] mbox_loss <- mbox_loc
I0609 08:37:53.845718 27019 net.cpp:434] mbox_loss <- mbox_conf
I0609 08:37:53.845726 27019 net.cpp:434] mbox_loss <- mbox_priorbox
…
state {
  phase: TEST
}
layer {
  name: "data"
  type: "AnnotatedData"
  top: "data"
  top: "label"
  include {
    phase: TEST
  }
  transform_param {
    mean_value: 104
    mean_value: 117
    mean_value: 123
    resize_param {
      prob: 1
      resize_mode: WARP
      height: 300
      width: 300
      interp_mode: LINEAR
    }
  }
  data_param {
    source: "examples/VOC0712/VOC0712_test_lmdb"
    batch_size: 1
    backend: LMDB
  }
  annotated_data_param {
    batch_sampler {
    }
    label_map_file: "data/VOC0712/labelmap_voc.prototxt"
  }
}
layer {
  name: "conv1_1"
  type: "Convolution"
  bottom: "data"
  top: "conv1_1"
  param {
    lr_mult: 1
    decay_mult: 1
  }
  param {
    lr_mult: 2
    decay_mult: 0
  }
  convolution_param {
    num_output: 64
    pad: 1
    kernel_size: 3
    weight_filler {
      type: "xavier"
    }
    bias_filler {
      type: "constant"
      value: 0
    }
  }
}
layer {
  name: "relu1_1"
  type: "ReLU"
  bottom: "conv1_1"
  top: "conv1_1"
}
layer {
  name: "conv1_2"
  type: "Convolution"
  bottom: "conv1_1"
  top: "conv1_2"
  param {
    lr_mult: 1
    decay_mult: 1
  }
  param {
    lr_mult: 2
    decay_mult: 0
  }
  convolution_param {
    num_output: 64
    pad: 1
    kernel_size: 3
    weight_filler {
      type: "xavier"
    }
    bias_filler {
      type: "constant"
      value: 0
    }
  }
}
layer {
  name: "relu1_2"
  type: "ReLU"
  bottom: "conv1_2"
  top: "conv1_2"
}
layer {
  name: "pool1"
  type: "Pooling"
  bottom: "conv1_2"
  top: "pool1"
  pooling_param {
    pool: MAX
    kernel_size: 2
    stride: 2
  }
}
layer {
  name: "conv2_1"
  type: "Convolution"
  bottom: "pool1"
  top: "conv2_1"
  param {
    lr_mult: 1
    decay_mult: 1
  }
  param {
    lr_mult: 2
    decay_mult: 0
  }
  convolution_param {
    num_output: 128
    pad: 1
    kernel_size: 3
    weight_filler {
      type: "xavier"
    }
    bias_filler {
      type: "constant"
      value: 0
    }
  }
}
layer {
  name: "relu2_1"
  type: "ReLU"
  bottom: "conv2_1"
  top: "conv2_1"
}
layer {
  name: "conv2_2"
  type: "Convolution"
  bottom: "conv2_1"
  top: "conv2_2"
  param {
    lr_mult: 1
    decay_mult: 1
  }
  param {
    lr_mult: 2
    decay_mult: 0
  }
  convolution_param {
    num_output: 128
    pad: 1
    kernel_size: 3
    weight_filler {
      type: "xavier"
    }
    bias_filler {
      type: "constant"
      value: 0
    }
  }
}
layer {
  name: "relu2_2"
  type: "ReLU"
  bottom: "conv2_2"
  top: "conv2_2"
}
layer {
  name: "pool2"
  type: "Pooling"
  bottom: "conv2_2"
  top: "pool2"
  pooling_param {
    pool: MAX
    kernel_size: 2
    stride: 2
  }
}
layer {
  name: "conv3_1"
  type: "Convolution"
  bottom: "pool2"
  top: "conv3_1"
  param {
    lr_mult: 1
    decay_mult: 1
  }
  param {
    lr_mult: 2
    decay_mult: 0
  }
  convolution_param {
    num_output: 256
    pad: 1
    kernel_size: 3
    weight_filler {
      type: "xavier"
    }
    bias_filler {
      type: "constant"
      value: 0
    }
  }
}
layer {
  name: "relu3_1"
  type: "ReLU"
  bottom: "conv3_1"
  top: "conv3_1"
}
layer {
  name: "conv3_2"
  type: "Convolution"
  bottom: "conv3_1"
  top: "conv3_2"
  param {
    lr_mult: 1
    decay_mult: 1
  }
  param {
    lr_mult: 2
    decay_mult: 0
  }
  convolution_param {
    num_output: 256
    pad: 1
    kernel_size: 3
    weight_filler {
      type: "xavier"
    }
    bias_filler {
      type: "constant"
      value: 0
    }
  }
}
layer {
  name: "relu3_2"
  type: "ReLU"
  bottom: "conv3_2"
  top: "conv3_2"
}
layer {
  name: "conv3_3"
  type: "Convolution"
  bottom: "conv3_2"
  top: "conv3_3"
  param {
    lr_mult: 1
    decay_mult: 1
  }
  param {
    lr_mult: 2
    decay_mult: 0
  }
  convolution_param {
    num_output: 256
    pad: 1
    kernel_size: 3
    weight_filler {
      type: "xavier"
    }
    bias_filler {
      type: "constant"
      value: 0
    }
  }
}
layer {
  name: "relu3_3"
  type: "ReLU"
  bottom: "conv3_3"
  top: "conv3_3"
}
layer {
  name: "pool3"
  type: "Pooling"
  bottom: "conv3_3"
  top: "pool3"
  pooling_param {
    pool: MAX
    kernel_size: 2
    stride: 2
  }
}
layer {
  name: "conv4_1"
  type: "Convolution"
  bottom: "pool3"
  top: "conv4_1"
  param {
    lr_mult: 1
    decay_mult: 1
  }
  param {
    lr_mult: 2
    decay_mult: 0
  }
  convolution_param {
    num_output: 512
    pad: 1
    kernel_size: 3
    weight_filler {
      type: "xavier"
    }
    bias_filler {
      type: "constant"
      value: 0
    }
  }
}
layer {
  name: "relu4_1"
  type: "ReLU"
  bottom: "conv4_1"
  top: "conv4_1"
}
layer {
  name: "conv4_2"
  type: "Convolution"
  bottom: "conv4_1"
  top: "conv4_2"
  param {
    lr_mult: 1
    decay_mult: 1
  }
  param {
    lr_mult: 2
    decay_mult: 0
  }
  convolution_param {
    num_output: 512
    pad: 1
    kernel_size: 3
    weight_filler {
      type: "xavier"
    }
    bias_filler {
      type: "constant"
      value: 0
    }
  }
}
layer {
  name: "relu4_2"
  type: "ReLU"
  bottom: "conv4_2"
  top: "conv4_2"
}
layer {
  name: "conv4_3"
  type: "Convolution"
  bottom: "conv4_2"
  top: "conv4_3"
  param {
    lr_mult: 1
    decay_mult: 1
  }
  param {
    lr_mult: 2
    decay_mult: 0
  }
  convolution_param {
    num_output: 512
    pad: 1
    kernel_size: 3
    weight_filler {
      type: "xavier"
    }
    bias_filler {
      type: "constant"
      value: 0
    }
  }
}
layer {
  name: "relu4_3"
  type: "ReLU"
  bottom: "conv4_3"
  top: "conv4_3"
}
layer {
  name: "pool4"
  type: "Pooling"
  bottom: "conv4_3"
  top: "pool4"
  pooling_param {
    pool: MAX
    kernel_size: 2
    stride: 2
  }
}
layer {
  name: "conv5_1"
  type: "Convolution"
  bottom: "pool4"
  top: "conv5_1"
  param {
    lr_mult: 1
    decay_mult: 1
  }
  param {
    lr_mult: 2
    decay_mult: 0
  }
  convolution_param {
    num_output: 512
    pad: 1
    kernel_size: 3
    weight_filler {
      type: "xavier"
    }
    bias_filler {
      type: "constant"
      value: 0
    }
    dilation: 1
  }
}
layer {
  name: "relu5_1"
  type: "ReLU"
  bottom: "conv5_1"
  top: "conv5_1"
}
layer {
  name: "conv5_2"
  type: "Convolution"
  bottom: "conv5_1"
  top: "conv5_2"
  param {
    lr_mult: 1
    decay_mult: 1
  }
  param {
    lr_mult: 2
    decay_mult: 0
  }
  convolution_param {
    num_output: 512
    pad: 1
    kernel_size: 3
    weight_filler {
      type: "xavier"
    }
    bias_filler {
      type: "constant"
      value: 0
    }
    dilation: 1
  }
}
layer {
  name: "relu5_2"
  type: "ReLU"
  bottom: "conv5_2"
  top: "conv5_2"
}
layer {
  name: "conv5_3"
  type: "Convolution"
  bottom: "conv5_2"
  top: "conv5_3"
  param {
    lr_mult: 1
    decay_mult: 1
  }
  param {
    lr_mult: 2
    decay_mult: 0
  }
  convolution_param {
    num_output: 512
    pad: 1
    kernel_size: 3
    weight_filler {
      type: "xavier"
    }
    bias_filler {
      type: "constant"
      value: 0
    }
    dilation: 1
  }
}
layer {
  name: "relu5_3"
  type: "ReLU"
  bottom: "conv5_3"
  top: "conv5_3"
}
layer {
  name: "pool5"
  type: "Pooling"
  bottom: "conv5_3"
  top: "pool5"
  pooling_param {
    pool: MAX
    kernel_size: 3
    stride: 1
    pad: 1
  }
}
layer {
  name: "fc6"
  type: "Convolution"
  bottom: "pool5"
  top: "fc6"
  param {
    lr_mult: 1
    decay_mult: 1
  }
  param {
    lr_mult: 2
    decay_mult: 0
  }
  convolution_param {
    num_output: 1024
    pad: 6
    kernel_size: 3
    weight_filler {
      type: "xavier"
    }
    bias_filler {
      type: "constant"
      value: 0
    }
    dilation: 6
  }
}
layer {
  name: "relu6"
  type: "ReLU"
  bottom: "fc6"
  top: "fc6"
}
layer {
  name: "fc7"
  type: "Convolution"
  bottom: "fc6"
  top: "fc7"
  param {
    lr_mult: 1
    decay_mult: 1
  }
  param {
    lr_mult: 2
    decay_mult: 0
  }
  convolution_param {
    num_output: 1024
    kernel_size: 1
    weight_filler {
      type: "xavier"
    }
    bias_filler {
      type: "constant"
      value: 0
    }
  }
}
layer {
  name: "relu7"
  type: "ReLU"
  bottom: "fc7"
  top: "fc7"
}
layer {
  name: "conv6_1"
  type: "Convolution"
  bottom: "fc7"
  top: "conv6_1"
  param {
    lr_mult: 1
    decay_mult: 1
  }
  param {
    lr_mult: 2
    decay_mult: 0
  }
  convolution_param {
    num_output: 256
    pad: 0
    kernel_size: 1
    stride: 1
    weight_filler {
      type: "xavier"
    }
    bias_filler {
      type: "constant"
      value: 0
    }
  }
}
layer {
  name: "conv6_1_relu"
  type: "ReLU"
  bottom: "conv6_1"
  top: "conv6_1"
}
layer {
  name: "conv6_2"
  type: "Convolution"
  bottom: "conv6_1"
  top: "conv6_2"
  param {
    lr_mult: 1
    decay_mult: 1
  }
  param {
    lr_mult: 2
    decay_mult: 0
  }
  convolution_param {
    num_output: 512
    pad: 1
    kernel_size: 3
    stride: 2
    weight_filler {
      type: "xavier"
    }
    bias_filler {
      type: "constant"
      value: 0
    }
  }
}
layer {
  name: "conv6_2_relu"
  type: "ReLU"
  bottom: "conv6_2"
  top: "conv6_2"
}
layer {
  name: "conv7_1"
  type: "Convolution"
  bottom: "conv6_2"
  top: "conv7_1"
  param {
    lr_mult: 1
    decay_mult: 1
  }
  param {
    lr_mult: 2
    decay_mult: 0
  }
  convolution_param {
    num_output: 128
    pad: 0
    kernel_size: 1
    stride: 1
    weight_filler {
      type: "xavier"
    }
    bias_filler {
      type: "constant"
      value: 0
    }
  }
}
layer {
  name: "conv7_1_relu"
  type: "ReLU"
  bottom: "conv7_1"
  top: "conv7_1"
}
layer {
  name: "conv7_2"
  type: "Convolution"
  bottom: "conv7_1"
  top: "conv7_2"
  param {
    lr_mult: 1
    decay_mult: 1
  }
  param {
    lr_mult: 2
    decay_mult: 0
  }
  convolution_param {
    num_output: 256
    pad: 1
    kernel_size: 3
    stride: 2
    weight_filler {
      type: "xavier"
    }
    bias_filler {
      type: "constant"
      value: 0
    }
  }
}
layer {
  name: "conv7_2_relu"
  type: "ReLU"
  bottom: "conv7_2"
  top: "conv7_2"
}
layer {
  name: "conv8_1"
  type: "Convolution"
  bottom: "conv7_2"
  top: "conv8_1"
  param {
    lr_mult: 1
    decay_mult: 1
  }
  param {
    lr_mult: 2
    decay_mult: 0
  }
  convolution_param {
    num_output: 128
    pad: 0
    kernel_size: 1
    stride: 1
    weight_filler {
      type: "xavier"
    }
    bias_filler {
      type: "constant"
      value: 0
    }
  }
}
layer {
  name: "conv8_1_relu"
  type: "ReLU"
  bottom: "conv8_1"
  top: "conv8_1"
}
layer {
  name: "conv8_2"
  type: "Convolution"
  bottom: "conv8_1"
  top: "conv8_2"
  param {
    lr_mult: 1
    decay_mult: 1
  }
  param {
    lr_mult: 2
    decay_mult: 0
  }
  convolution_param {
    num_output: 256
    pad: 0
    kernel_size: 3
    stride: 1
    weight_filler {
      type: "xavier"
    }
    bias_filler {
      type: "constant"
      value: 0
    }
  }
}
layer {
  name: "conv8_2_relu"
  type: "ReLU"
  bottom: "conv8_2"
  top: "conv8_2"
}
layer {
  name: "conv9_1"
  type: "Convolution"
  bottom: "conv8_2"
  top: "conv9_1"
  param {
    lr_mult: 1
    decay_mult: 1
  }
  param {
    lr_mult: 2
    decay_mult: 0
  }
  convolution_param {
    num_output: 128
    pad: 0
    kernel_size: 1
    stride: 1
    weight_filler {
      type: "xavier"
    }
    bias_filler {
      type: "constant"
      value: 0
    }
  }
}
layer {
  name: "conv9_1_relu"
  type: "ReLU"
  bottom: "conv9_1"
  top: "conv9_1"
}
layer {
  name: "conv9_2"
  type: "Convolution"
  bottom: "conv9_1"
  top: "conv9_2"
  param {
    lr_mult: 1
    decay_mult: 1
  }
  param {
    lr_mult: 2
    decay_mult: 0
  }
  convolution_param {
    num_output: 256
    pad: 0
    kernel_size: 3
    stride: 1
    weight_filler {
      type: "xavier"
    }
    bias_filler {
      type: "constant"
      value: 0
    }
  }
}
layer {
  name: "conv9_2_relu"
  type: "ReLU"
  bottom: "conv9_2"
  top: "conv9_2"
}
layer {
  name: "conv4_3_norm"
  type: "Normalize"
  bottom: "conv4_3"
  top: "conv4_3_norm"
  norm_param {
    across_spatial: false
    scale_filler {
      type: "constant"
      value: 20
    }
    channel_shared: false
  }
}
layer {
  name: "conv4_3_norm_mbox_loc"
  type: "Convolution"
  bottom: "conv4_3_norm"
  top: "conv4_3_norm_mbox_loc"
  param {
    lr_mult: 1
    decay_mult: 1
  }
  param {
    lr_mult: 2
    decay_mult: 0
  }
  convolution_param {
    num_output: 16
    pad: 1
    kernel_size: 3
    stride: 1
    weight_filler {
      type: "xavier"
    }
    bias_filler {
      type: "constant"
      value: 0
    }
  }
}
layer {
  name: "conv4_3_norm_mbox_loc_perm"
  type: "Permute"
  bottom: "conv4_3_norm_mbox_loc"
  top: "conv4_3_norm_mbox_loc_perm"
  permute_param {
    order: 0
    order: 2
    order: 3
    order: 1
  }
}
layer {
  name: "conv4_3_norm_mbox_loc_flat"
  type: "Flatten"
  bottom: "conv4_3_norm_mbox_loc_perm"
  top: "conv4_3_norm_mbox_loc_flat"
  flatten_param {
    axis: 1
  }
}
layer {
  name: "conv4_3_norm_mbox_conf"
  type: "Convolution"
  bottom: "conv4_3_norm"
  top: "conv4_3_norm_mbox_conf"
  param {
    lr_mult: 1
    decay_mult: 1
  }
  param {
    lr_mult: 2
    decay_mult: 0
  }
  convolution_param {
    num_output: 84
    pad: 1
    kernel_size: 3
    stride: 1
    weight_filler {
      type: "xavier"
    }
    bias_filler {
      type: "constant"
      value: 0
    }
  }
}
layer {
  name: "conv4_3_norm_mbox_conf_perm"
  type: "Permute"
  bottom: "conv4_3_norm_mbox_conf"
  top: "conv4_3_norm_mbox_conf_perm"
  permute_param {
    order: 0
    order: 2
    order: 3
    order: 1
  }
}
layer {
  name: "conv4_3_norm_mbox_conf_flat"
  type: "Flatten"
  bottom: "conv4_3_norm_mbox_conf_perm"
  top: "conv4_3_norm_mbox_conf_flat"
  flatten_param {
    axis: 1
  }
}
layer {
  name: "conv4_3_norm_mbox_priorbox"
  type: "PriorBox"
  bottom: "conv4_3_norm"
  bottom: "data"
  top: "conv4_3_norm_mbox_priorbox"
  prior_box_param {
    min_size: 30
    max_size: 60
    aspect_ratio: 2
    flip: true
    clip: false
    variance: 0.1
    variance: 0.1
    variance: 0.2
    variance: 0.2
    step: 8
    offset: 0.5
  }
}
layer {
  name: "fc7_mbox_loc"
  type: "Convolution"
  bottom: "fc7"
  top: "fc7_mbox_loc"
  param {
    lr_mult: 1
    decay_mult: 1
  }
  param {
    lr_mult: 2
    decay_mult: 0
  }
  convolution_param {
    num_output: 24
    pad: 1
    kernel_size: 3
    stride: 1
    weight_filler {
      type: "xavier"
    }
    bias_filler {
      type: "constant"
      value: 0
    }
  }
}
layer {
  name: "fc7_mbox_loc_perm"
  type: "Permute"
  bottom: "fc7_mbox_loc"
  top: "fc7_mbox_loc_perm"
  permute_param {
    order: 0
    order: 2
    order: 3
    order: 1
  }
}
layer {
  name: "fc7_mbox_loc_flat"
  type: "Flatten"
  bottom: "fc7_mbox_loc_perm"
  top: "fc7_mbox_loc_flat"
  flatten_param {
    axis: 1
  }
}
layer {
  name: "fc7_mbox_conf"
  type: "Convolution"
  bottom: "fc7"
  top: "fc7_mbox_conf"
  param {
    lr_mult: 1
    decay_mult: 1
  }
  param {
    lr_mult: 2
    decay_mult: 0
  }
  convolution_param {
    num_output: 126
    pad: 1
    kernel_size: 3
    stride: 1
    weight_filler {
      type: "xavier"
    }
    bias_filler {
      type: "constant"
      value: 0
    }
  }
}
layer {
  name: "fc7_mbox_conf_perm"
  type: "Permute"
  bottom: "fc7_mbox_conf"
  top: "fc7_mbox_conf_perm"
  permute_param {
    order: 0
    order: 2
    order: 3
    order: 1
  }
}
layer {
  name: "fc7_mbox_conf_flat"
  type: "Flatten"
  bottom: "fc7_mbox_conf_perm"
  top: "fc7_mbox_conf_flat"
  flatten_param {
    axis: 1
  }
}
layer {
  name: "fc7_mbox_priorbox"
  type: "PriorBox"
  bottom: "fc7"
  bottom: "data"
  top: "fc7_mbox_priorbox"
  prior_box_param {
    min_size: 60
    max_size: 111
    aspect_ratio: 2
    aspect_ratio: 3
    flip: true
    clip: false
    variance: 0.1
    variance: 0.1
    variance: 0.2
    variance: 0.2
    step: 16
    offset: 0.5
  }
}
layer {
  name: "conv6_2_mbox_loc"
  type: "Convolution"
  bottom: "conv6_2"
  top: "conv6_2_mbox_loc"
  param {
    lr_mult: 1
    decay_mult: 1
  }
  param {
    lr_mult: 2
    decay_mult: 0
  }
  convolution_param {
    num_output: 24
    pad: 1
    kernel_size: 3
    stride: 1
    weight_filler {
      type: "xavier"
    }
    bias_filler {
      type: "constant"
      value: 0
    }
  }
}
layer {
  name: "conv6_2_mbox_loc_perm"
  type: "Permute"
  bottom: "conv6_2_mbox_loc"
  top: "conv6_2_mbox_loc_perm"
  permute_param {
    order: 0
    order: 2
    order: 3
    order: 1
  }
}
layer {
  name: "conv6_2_mbox_loc_flat"
  type: "Flatten"
  bottom: "conv6_2_mbox_loc_perm"
  top: "conv6_2_mbox_loc_flat"
  flatten_param {
    axis: 1
  }
}
layer {
  name: "conv6_2_mbox_conf"
  type: "Convolution"
  bottom: "conv6_2"
  top: "conv6_2_mbox_conf"
  param {
    lr_mult: 1
    decay_mult: 1
  }
  param {
    lr_mult: 2
    decay_mult: 0
  }
  convolution_param {
    num_output: 126
    pad: 1
    kernel_size: 3
    stride: 1
    weight_filler {
      type: "xavier"
    }
    bias_filler {
      type: "constant"
      value: 0
    }
  }
}
layer {
  name: "conv6_2_mbox_conf_perm"
  type: "Permute"
  bottom: "conv6_2_mbox_conf"
  top: "conv6_2_mbox_conf_perm"
  permute_param {
    order: 0
    order: 2
    order: 3
    order: 1
  }
}
layer {
  name: "conv6_2_mbox_conf_flat"
  type: "Flatten"
  bottom: "conv6_2_mbox_conf_perm"
  top: "conv6_2_mbox_conf_flat"
  flatten_param {
    axis: 1
  }
}
layer {
  name: "conv6_2_mbox_priorbox"
  type: "PriorBox"
  bottom: "conv6_2"
  bottom: "data"
  top: "conv6_2_mbox_priorbox"
  prior_box_param {
    min_size: 111
    max_size: 162
    aspect_ratio: 2
    aspect_ratio: 3
    flip: true
    clip: false
    variance: 0.1
    variance: 0.1
    variance: 0.2
    variance: 0.2
    step: 32
    offset: 0.5
  }
}
layer {
  name: "conv7_2_mbox_loc"
  type: "Convolution"
  bottom: "conv7_2"
  top: "conv7_2_mbox_loc"
  param {
    lr_mult: 1
    decay_mult: 1
  }
  param {
    lr_mult: 2
    decay_mult: 0
  }
  convolution_param {
    num_output: 24
    pad: 1
    kernel_size: 3
    stride: 1
    weight_filler {
      type: "xavier"
    }
    bias_filler {
      type: "constant"
      value: 0
    }
  }
}
layer {
  name: "conv7_2_mbox_loc_perm"
  type: "Permute"
  bottom: "conv7_2_mbox_loc"
  top: "conv7_2_mbox_loc_perm"
  permute_param {
    order: 0
    order: 2
    order: 3
    order: 1
  }
}
layer {
  name: "conv7_2_mbox_loc_flat"
  type: "Flatten"
  bottom: "conv7_2_mbox_loc_perm"
  top: "conv7_2_mbox_loc_flat"
  flatten_param {
    axis: 1
  }
}
layer {
  name: "conv7_2_mbox_conf"
  type: "Convolution"
  bottom: "conv7_2"
  top: "conv7_2_mbox_conf"
  param {
    lr_mult: 1
    decay_mult: 1
  }
  param {
    lr_mult: 2
    decay_mult: 0
  }
  convolution_param {
    num_output: 126
    pad: 1
    kernel_size: 3
    stride: 1
    weight_filler {
      type: "xavier"
    }
    bias_filler {
      type: "constant"
      value: 0
    }
  }
}
layer {
  name: "conv7_2_mbox_conf_perm"
  type: "Permute"
  bottom: "conv7_2_mbox_conf"
  top: "conv7_2_mbox_conf_perm"
  permute_param {
    order: 0
    order: 2
    order: 3
    order: 1
  }
}
layer {
  name: "conv7_2_mbox_conf_flat"
  type: "Flatten"
  bottom: "conv7_2_mbox_conf_perm"
  top: "conv7_2_mbox_conf_flat"
  flatten_param {
    axis: 1
  }
}
layer {
  name: "conv7_2_mbox_priorbox"
  type: "PriorBox"
  bottom: "conv7_2"
  bottom: "data"
  top: "conv7_2_mbox_priorbox"
  prior_box_param {
    min_size: 162
    max_size: 213
    aspect_ratio: 2
    aspect_ratio: 3
    flip: true
    clip: false
    variance: 0.1
    variance: 0.1
    variance: 0.2
    variance: 0.2
    step: 64
    offset: 0.5
  }
}
layer {
  name: "conv8_2_mbox_loc"
  type: "Convolution"
  bottom: "conv8_2"
  top: "conv8_2_mbox_loc"
  param {
    lr_mult: 1
    decay_mult: 1
  }
  param {
    lr_mult: 2
    decay_mult: 0
  }
  convolution_param {
    num_output: 16
    pad: 1
    kernel_size: 3
    stride: 1
    weight_filler {
      type: "xavier"
    }
    bias_filler {
      type: "constant"
      value: 0
    }
  }
}
layer {
  name: "conv8_2_mbox_loc_perm"
  type: "Permute"
  bottom: "conv8_2_mbox_loc"
  top: "conv8_2_mbox_loc_perm"
  permute_param {
    order: 0
    order: 2
    order: 3
    order: 1
  }
}
layer {
  name: "conv8_2_mbox_loc_flat"
  type: "Flatten"
  bottom: "conv8_2_mbox_loc_perm"
  top: "conv8_2_mbox_loc_flat"
  flatten_param {
    axis: 1
  }
}
layer {
  name: "conv8_2_mbox_conf"
  type: "Convolution"
  bottom: "conv8_2"
  top: "conv8_2_mbox_conf"
  param {
    lr_mult: 1
    decay_mult: 1
  }
  param {
    lr_mult: 2
    decay_mult: 0
  }
  convolution_param {
    num_output: 84
    pad: 1
    kernel_size: 3
    stride: 1
    weight_filler {
      type: "xavier"
    }
    bias_filler {
      type: "constant"
      value: 0
    }
  }
}
layer {
  name: "conv8_2_mbox_conf_perm"
  type: "Permute"
  bottom: "conv8_2_mbox_conf"
  top: "conv8_2_mbox_conf_perm"
  permute_param {
    order: 0
    order: 2
    order: 3
    order: 1
  }
}
layer {
  name: "conv8_2_mbox_conf_flat"
  type: "Flatten"
  bottom: "conv8_2_mbox_conf_perm"
  top: "conv8_2_mbox_conf_flat"
  flatten_param {
    axis: 1
  }
}
layer {
  name: "conv8_2_mbox_priorbox"
  type: "PriorBox"
  bottom: "conv8_2"
  bottom: "data"
  top: "conv8_2_mbox_priorbox"
  prior_box_param {
    min_size: 213
    max_size: 264
    aspect_ratio: 2
    flip: true
    clip: false
    variance: 0.1
    variance: 0.1
    variance: 0.2
    variance: 0.2
    step: 100
    offset: 0.5
  }
}
layer {
  name: "conv9_2_mbox_loc"
  type: "Convolution"
  bottom: "conv9_2"
  top: "conv9_2_mbox_loc"
  param {
    lr_mult: 1
    decay_mult: 1
  }
  param {
    lr_mult: 2
    decay_mult: 0
  }
  convolution_param {
    num_output: 16
    pad: 1
    kernel_size: 3
    stride: 1
    weight_filler {
      type: "xavier"
    }
    bias_filler {
      type: "constant"
      value: 0
    }
  }
}
layer {
  name: "conv9_2_mbox_loc_perm"
  type: "Permute"
  bottom: "conv9_2_mbox_loc"
  top: "conv9_2_mbox_loc_perm"
  permute_param {
    order: 0
    order: 2
    order: 3
    order: 1
  }
}
layer {
  name: "conv9_2_mbox_loc_flat"
  type: "Flatten"
  bottom: "conv9_2_mbox_loc_perm"
  top: "conv9_2_mbox_loc_flat"
  flatten_param {
    axis: 1
  }
}
layer {
  name: "conv9_2_mbox_conf"
  type: "Convolution"
  bottom: "conv9_2"
  top: "conv9_2_mbox_conf"
  param {
    lr_mult: 1
    decay_mult: 1
  }
  param {
    lr_mult: 2
    decay_mult: 0
  }
  convolution_param {
    num_output: 84
    pad: 1
    kernel_size: 3
    stride: 1
    weight_filler {
      type: "xavier"
    }
    bias_filler {
      type: "constant"
      value: 0
    }
  }
}
layer {
  name: "conv9_2_mbox_conf_perm"
  type: "Permute"
  bottom: "conv9_2_mbox_conf"
  top: "conv9_2_mbox_conf_perm"
  permute_param {
    order: 0
    order: 2
    order: 3
    order: 1
  }
}
layer {
  name: "conv9_2_mbox_conf_flat"
  type: "Flatten"
  bottom: "conv9_2_mbox_conf_perm"
  top: "conv9_2_mbox_conf_flat"
  flatten_param {
    axis: 1
  }
}
layer {
  name: "conv9_2_mbox_priorbox"
  type: "PriorBox"
  bottom: "conv9_2"
  bottom: "data"
  top: "conv9_2_mbox_priorbox"
  prior_box_param {
    min_size: 264
    max_size: 315
    aspect_ratio: 2
    flip: true
    clip: false
    variance: 0.1
    variance: 0.1
    variance: 0.2
    variance: 0.2
    step: 300
    offset: 0.5
  }
}
layer {
  name: "mbox_loc"
  type: "Concat"
  bottom: "conv4_3_norm_mbox_loc_flat"
  bottom: "fc7_mbox_loc_flat"
  bottom: "conv6_2_mbox_loc_flat"
  bottom: "conv7_2_mbox_loc_flat"
  bottom: "conv8_2_mbox_loc_flat"
  bottom: "conv9_2_mbox_loc_flat"
  top: "mbox_loc"
  concat_param {
    axis: 1
  }
}
layer {
  name: "mbox_conf"
  type: "Concat"
  bottom: "conv4_3_norm_mbox_conf_flat"
  bottom: "fc7_mbox_conf_flat"
  bottom: "conv6_2_mbox_conf_flat"
  bottom: "conv7_2_mbox_conf_flat"
  bottom: "conv8_2_mbox_conf_flat"
  bottom: "conv9_2_mbox_conf_flat"
  top: "mbox_conf"
  concat_param {
    axis: 1
  }
}
layer {
  name: "mbox_priorbox"
  type: "Concat"
  bottom: "conv4_3_norm_mbox_priorbox"
  bottom: "fc7_mbox_priorbox"
  bottom: "conv6_2_mbox_priorbox"
  bottom: "conv7_2_mbox_priorbox"
  bottom: "conv8_2_mbox_priorbox"
  bottom: "conv9_2_mbox_priorbox"
  top: "mbox_priorbox"
  concat_param {
    axis: 2
  }
}
layer {
  name: "mbox_conf_reshape"
  type: "Reshape"
  bottom: "mbox_conf"
  top: "mbox_conf_reshape"
  reshape_param {
    shape {
      dim: 0
      dim: -1
      dim: 21
    }
  }
}
layer {
  name: "mbox_conf_softmax"
  type: "Softmax"
  bottom: "mbox_conf_reshape"
  top: "mbox_conf_softmax"
  softmax_param {
    axis: 2
  }
}
layer {
  name: "mbox_conf_flatten"
  type: "Flatten"
  bottom: "mbox_conf_softmax"
  top: "mbox_conf_flatten"
  flatten_param {
    axis: 1
  }
}
layer {
  name: "detection_out"
  type: "DetectionOutput"
  bottom: "mbox_loc"
  bottom: "mbox_conf_flatten"
  bottom: "mbox_priorbox"
  top: "detection_out"
  include {
    phase: TEST
  }
  detection_output_param {
    num_classes: 21
    share_location: true
    background_label_id: 0
    nms_param {
      nms_threshold: 0.45
      top_k: 400
    }
    save_output_param {
      output_directory: "/home/dean/data/VOCdevkit/results/VOC2007/SSD_300x300/Main"
      output_name_prefix: "comp4_det_test_"
      output_format: "VOC"
      label_map_file: "data/VOC0712/labelmap_voc.prototxt"
      name_size_file: "data/VOC0712/test_name_size.txt"
      num_test_image: 4952
    }
    code_type: CENTER_SIZE
    keep_top_k: 200
    confidence_threshold: 0.01
  }
}
layer {
  name: "detection_eval"
  type: "DetectionEvaluate"
  bottom: "detection_out"
  bottom: "label"
  top: "detection_eval"
  include {
    phase: TEST
  }
  detection_evaluate_param {
    num_classes: 21
    background_label_id: 0
    overlap_threshold: 0.5
    evaluate_difficult_gt: false
    name_size_file: "data/VOC0712/test_name_size.txt"
  }
}
I0609 08:37:53.876224 27019 layer_factory.hpp:77] Creating layer data
I0609 08:37:53.876389 27019 net.cpp:100] Creating Layer data
I0609 08:37:53.876420 27019 net.cpp:408] data -> data
I0609 08:37:53.876456 27019 net.cpp:408] data -> label
I0609 08:37:53.913466 27049 db_lmdb.cpp:35] Opened lmdb examples/VOC0712/VOC0712_test_lmdb
I0609 08:37:53.935339 27019 annotated_data_layer.cpp:62] output data size: 1,3,300,300
I0609 08:37:53.942858 27019 net.cpp:150] Setting up data
I0609 08:37:53.942896 27019 net.cpp:157] Top shape: 1 3 300 300 (270000)
I0609 08:37:53.942905 27019 net.cpp:157] Top shape: 1 1 2 8 (16)
I0609 08:37:53.942922 27019 net.cpp:165] Memory required for data: 1080064
I0609 08:37:53.942934 27019 layer_factory.hpp:77] Creating layer data_data_0_split
I0609 08:37:53.942953 27019 net.cpp:100] Creating Layer data_data_0_split
I0609 08:37:53.942991 27019 net.cpp:434] data_data_0_split <- data
I0609 08:37:53.943002 27019 net.cpp:408] data_data_0_split -> data_data_0_split_0
I0609 08:37:53.943020 27019 net.cpp:408] data_data_0_split -> data_data_0_split_1
I0609 08:37:53.943033 27019 net.cpp:408] data_data_0_split -> data_data_0_split_2
I0609 08:37:53.943047 27019 net.cpp:408] data_data_0_split -> data_data_0_split_3
I0609 08:37:53.943058 27019 net.cpp:408] data_data_0_split -> data_data_0_split_4
I0609 08:37:53.943073 27019 net.cpp:408] data_data_0_split -> data_data_0_split_5
I0609 08:37:53.943087 27019 net.cpp:408] data_data_0_split -> data_data_0_split_6
I0609 08:37:53.943349 27019 net.cpp:150] Setting up data_data_0_split
I0609 08:37:53.943367 27019 net.cpp:157] Top shape: 1 3 300 300 (270000)
I0609 08:37:53.943374 27019 net.cpp:157] Top shape: 1 3 300 300 (270000)
I0609 08:37:53.943382 27019 net.cpp:157] Top shape: 1 3 300 300 (270000)
I0609 08:37:53.943389 27019 net.cpp:157] Top shape: 1 3 300 300 (270000)
I0609 08:37:53.943395 27019 net.cpp:157] Top shape: 1 3 300 300 (270000)
I0609 08:37:53.943406 27019 net.cpp:157] Top shape: 1 3 300 300 (270000)
I0609 08:37:53.943418 27019 net.cpp:157] Top shape: 1 3 300 300 (270000)
I0609 08:37:53.943428 27019 net.cpp:165] Memory required for data: 8640064
I0609 08:37:53.943440 27019 layer_factory.hpp:77] Creating layer conv1_1
I0609 08:37:53.943459 27019 net.cpp:100] Creating Layer conv1_1
I0609 08:37:53.943503 27019 net.cpp:434] conv1_1 <- data_data_0_split_0
I0609 08:37:53.943513 27019 net.cpp:408] conv1_1 -> conv1_1
I0609 08:37:53.946547 27019 net.cpp:150] Setting up conv1_1
I0609 08:37:53.946578 27019 net.cpp:157] Top shape: 1 64 300 300 (5760000)
I0609 08:37:53.946584 27019 net.cpp:165] Memory required for data: 31680064
I0609 08:37:53.946604 27019 layer_factory.hpp:77] Creating layer relu1_1
I0609 08:37:53.946620 27019 net.cpp:100] Creating Layer relu1_1
I0609 08:37:53.946630 27019 net.cpp:434] relu1_1 <- conv1_1
I0609 08:37:53.946640 27019 net.cpp:395] relu1_1 -> conv1_1 (in-place)
I0609 08:37:53.946933 27019 net.cpp:150] Setting up relu1_1
I0609 08:37:53.946952 27019 net.cpp:157] Top shape: 1 64 300 300 (5760000)
I0609 08:37:53.946959 27019 net.cpp:165] Memory required for data: 54720064
I0609 08:37:53.946977 27019 layer_factory.hpp:77] Creating layer conv1_2
I0609 08:37:53.946997 27019 net.cpp:100] Creating Layer conv1_2
I0609 08:37:53.947003 27019 net.cpp:434] conv1_2 <- conv1_1
I0609 08:37:53.947016 27019 net.cpp:408] conv1_2 -> conv1_2
I0609 08:37:53.951284 27019 net.cpp:150] Setting up conv1_2
I0609 08:37:53.951315 27019 net.cpp:157] Top shape: 1 64 300 300 (5760000)
I0609 08:37:53.951321 27019 net.cpp:165] Memory required for data: 77760064
I0609 08:37:53.951336 27019 layer_factory.hpp:77] Creating layer relu1_2
I0609 08:37:53.951349 27019 net.cpp:100] Creating Layer relu1_2
I0609 08:37:53.951359 27019 net.cpp:434] relu1_2 <- conv1_2
I0609 08:37:53.951369 27019 net.cpp:395] relu1_2 -> conv1_2 (in-place)
I0609 08:37:53.951653 27019 net.cpp:150] Setting up relu1_2
I0609 08:37:53.951668 27019 net.cpp:157] Top shape: 1 64 300 300 (5760000)
I0609 08:37:53.951675 27019 net.cpp:165] Memory required for data: 100800064
I0609 08:37:53.951681 27019 layer_factory.hpp:77] Creating layer pool1
I0609 08:37:53.951691 27019 net.cpp:100] Creating Layer pool1
I0609 08:37:53.951697 27019 net.cpp:434] pool1 <- conv1_2
I0609 08:37:53.951706 27019 net.cpp:408] pool1 -> pool1
I0609 08:37:53.951789 27019 net.cpp:150] Setting up pool1
I0609 08:37:53.951803 27019 net.cpp:157] Top shape: 1 64 150 150 (1440000)
I0609 08:37:53.951810 27019 net.cpp:165] Memory required for data: 106560064
I0609 08:37:53.951817 27019 layer_factory.hpp:77] Creating layer conv2_1
I0609 08:37:53.951829 27019 net.cpp:100] Creating Layer conv2_1
I0609 08:37:53.951836 27019 net.cpp:434] conv2_1 <- pool1
I0609 08:37:53.951844 27019 net.cpp:408] conv2_1 -> conv2_1
I0609 08:37:53.956670 27019 net.cpp:150] Setting up conv2_1
I0609 08:37:53.956702 27019 net.cpp:157] Top shape: 1 128 150 150 (2880000)
I0609 08:37:53.956708 27019 net.cpp:165] Memory required for data: 118080064
I0609 08:37:53.956723 27019 layer_factory.hpp:77] Creating layer relu2_1
I0609 08:37:53.956738 27019 net.cpp:100] Creating Layer relu2_1
I0609 08:37:53.956745 27019 net.cpp:434] relu2_1 <- conv2_1
I0609 08:37:53.956754 27019 net.cpp:395] relu2_1 -> conv2_1 (in-place)
I0609 08:37:53.957384 27019 net.cpp:150] Setting up relu2_1
I0609 08:37:53.957409 27019 net.cpp:157] Top shape: 1 128 150 150 (2880000)
I0609 08:37:53.957417 27019 net.cpp:165] Memory required for data: 129600064
I0609 08:37:53.957423 27019 layer_factory.hpp:77] Creating layer conv2_2
I0609 08:37:53.957445 27019 net.cpp:100] Creating Layer conv2_2
I0609 08:37:53.957454 27019 net.cpp:434] conv2_2 <- conv2_1
I0609 08:37:53.957465 27019 net.cpp:408] conv2_2 -> conv2_2
I0609 08:37:53.961905 27019 net.cpp:150] Setting up conv2_2
I0609 08:37:53.961932 27019 net.cpp:157] Top shape: 1 128 150 150 (2880000)
I0609 08:37:53.961938 27019 net.cpp:165] Memory required for data: 141120064
I0609 08:37:53.961953 27019 layer_factory.hpp:77] Creating layer relu2_2
I0609 08:37:53.961966 27019 net.cpp:100] Creating Layer relu2_2
I0609 08:37:53.961980 27019 net.cpp:434] relu2_2 <- conv2_2
I0609 08:37:53.961988 27019 net.cpp:395] relu2_2 -> conv2_2 (in-place)
I0609 08:37:53.962339 27019 net.cpp:150] Setting up relu2_2
I0609 08:37:53.962360 27019 net.cpp:157] Top shape: 1 128 150 150 (2880000)
I0609 08:37:53.962399 27019 net.cpp:165] Memory required for data: 152640064
I0609 08:37:53.962407 27019 layer_factory.hpp:77] Creating layer pool2
I0609 08:37:53.962419 27019 net.cpp:100] Creating Layer pool2
I0609 08:37:53.962426 27019 net.cpp:434] pool2 <- conv2_2
I0609 08:37:53.962438 27019 net.cpp:408] pool2 -> pool2
I0609 08:37:53.962535 27019 net.cpp:150] Setting up pool2
I0609 08:37:53.962550 27019 net.cpp:157] Top shape: 1 128 75 75 (720000)
I0609 08:37:53.962555 27019 net.cpp:165] Memory required for data: 155520064
I0609 08:37:53.962563 27019 layer_factory.hpp:77] Creating layer conv3_1
I0609 08:37:53.962580 27019 net.cpp:100] Creating Layer conv3_1
I0609 08:37:53.962591 27019 net.cpp:434] conv3_1 <- pool2
I0609 08:37:53.962600 27019 net.cpp:408] conv3_1 -> conv3_1
I0609 08:37:53.969854 27019 net.cpp:150] Setting up conv3_1
I0609 08:37:53.969894 27019 net.cpp:157] Top shape: 1 256 75 75 (1440000)
I0609 08:37:53.969902 27019 net.cpp:165] Memory required for data: 161280064
I0609 08:37:53.969920 27019 layer_factory.hpp:77] Creating layer relu3_1
I0609 08:37:53.969936 27019 net.cpp:100] Creating Layer relu3_1
I0609 08:37:53.969947 27019 net.cpp:434] relu3_1 <- conv3_1
I0609 08:37:53.969956 27019 net.cpp:395] relu3_1 -> conv3_1 (in-place)
I0609 08:37:53.970736 27019 net.cpp:150] Setting up relu3_1
I0609 08:37:53.970762 27019 net.cpp:157] Top shape: 1 256 75 75 (1440000)
I0609 08:37:53.970768 27019 net.cpp:165] Memory required for data: 167040064
I0609 08:37:53.970777 27019 layer_factory.hpp:77] Creating layer conv3_2
I0609 08:37:53.970796 27019 net.cpp:100] Creating Layer conv3_2
I0609 08:37:53.970806 27019 net.cpp:434] conv3_2 <- conv3_1
I0609 08:37:53.970816 27019 net.cpp:408] conv3_2 -> conv3_2
I0609 08:37:53.980274 27019 net.cpp:150] Setting up conv3_2
I0609 08:37:53.980306 27019 net.cpp:157] Top shape: 1 256 75 75 (1440000)
I0609 08:37:53.980312 27019 net.cpp:165] Memory required for data: 172800064
I0609 08:37:53.980324 27019 layer_factory.hpp:77] Creating layer relu3_2
I0609 08:37:53.980339 27019 net.cpp:100] Creating Layer relu3_2
I0609 08:37:53.980360 27019 net.cpp:434] relu3_2 <- conv3_2
I0609 08:37:53.980370 27019 net.cpp:395] relu3_2 -> conv3_2 (in-place)
I0609 08:37:53.980981 27019 net.cpp:150] Setting up relu3_2
I0609 08:37:53.981005 27019 net.cpp:157] Top shape: 1 256 75 75 (1440000)
I0609 08:37:53.981011 27019 net.cpp:165] Memory required for data: 178560064
I0609 08:37:53.981016 27019 layer_factory.hpp:77] Creating layer conv3_3
I0609 08:37:53.981055 27019 net.cpp:100] Creating Layer conv3_3
I0609 08:37:53.981061 27019 net.cpp:434] conv3_3 <- conv3_2
I0609 08:37:53.981071 27019 net.cpp:408] conv3_3 -> conv3_3
I0609 08:37:53.990279 27019 net.cpp:150] Setting up conv3_3
I0609 08:37:53.990324 27019 net.cpp:157] Top shape: 1 256 75 75 (1440000)
I0609 08:37:53.990330 27019 net.cpp:165] Memory required for data: 184320064
I0609 08:37:53.990342 27019 layer_factory.hpp:77] Creating layer relu3_3
I0609 08:37:53.990356 27019 net.cpp:100] Creating Layer relu3_3
I0609 08:37:53.990368 27019 net.cpp:434] relu3_3 <- conv3_3
I0609 08:37:53.990381 27019 net.cpp:395] relu3_3 -> conv3_3 (in-place)
I0609 08:37:53.991029 27019 net.cpp:150] Setting up relu3_3
I0609 08:37:53.991055 27019 net.cpp:157] Top shape: 1 256 75 75 (1440000)
I0609 08:37:53.991062 27019 net.cpp:165] Memory required for data: 190080064
I0609 08:37:53.991068 27019 layer_factory.hpp:77] Creating layer pool3
I0609 08:37:53.991088 27019 net.cpp:100] Creating Layer pool3
I0609 08:37:53.991094 27019 net.cpp:434] pool3 <- conv3_3
I0609 08:37:53.991106 27019 net.cpp:408] pool3 -> pool3
I0609 08:37:53.991204 27019 net.cpp:150] Setting up pool3
I0609 08:37:53.991217 27019 net.cpp:157] Top shape: 1 256 38 38 (369664)
I0609 08:37:53.991224 27019 net.cpp:165] Memory required for data: 191558720
I0609 08:37:53.991230 27019 layer_factory.hpp:77] Creating layer conv4_1
I0609 08:37:53.991246 27019 net.cpp:100] Creating Layer conv4_1
I0609 08:37:53.991256 27019 net.cpp:434] conv4_1 <- pool3
I0609 08:37:53.991268 27019 net.cpp:408] conv4_1 -> conv4_1
I0609 08:37:54.007254 27019 net.cpp:150] Setting up conv4_1
I0609 08:37:54.007318 27019 net.cpp:157] Top shape: 1 512 38 38 (739328)
I0609 08:37:54.007324 27019 net.cpp:165] Memory required for data: 194516032
I0609 08:37:54.007338 27019 layer_factory.hpp:77] Creating layer relu4_1
I0609 08:37:54.007364 27019 net.cpp:100] Creating Layer relu4_1
I0609 08:37:54.007372 27019 net.cpp:434] relu4_1 <- conv4_1
I0609 08:37:54.007385 27019 net.cpp:395] relu4_1 -> conv4_1 (in-place)
I0609 08:37:54.008007 27019 net.cpp:150] Setting up relu4_1
I0609 08:37:54.008030 27019 net.cpp:157] Top shape: 1 512 38 38 (739328)
I0609 08:37:54.008035 27019 net.cpp:165] Memory required for data: 197473344
I0609 08:37:54.008043 27019 layer_factory.hpp:77] Creating layer conv4_2
I0609 08:37:54.008075 27019 net.cpp:100] Creating Layer conv4_2
I0609 08:37:54.008082 27019 net.cpp:434] conv4_2 <- conv4_1
I0609 08:37:54.008095 27019 net.cpp:408] conv4_2 -> conv4_2
I0609 08:37:54.036569 27019 net.cpp:150] Setting up conv4_2
I0609 08:37:54.036610 27019 net.cpp:157] Top shape: 1 512 38 38 (739328)
I0609 08:37:54.036617 27019 net.cpp:165] Memory required for data: 200430656
I0609 08:37:54.036638 27019 layer_factory.hpp:77] Creating layer relu4_2
I0609 08:37:54.036656 27019 net.cpp:100] Creating Layer relu4_2
I0609 08:37:54.036669 27019 net.cpp:434] relu4_2 <- conv4_2
I0609 08:37:54.036684 27019 net.cpp:395] relu4_2 -> conv4_2 (in-place)
I0609 08:37:54.036988 27019 net.cpp:150] Setting up relu4_2
I0609 08:37:54.037009 27019 net.cpp:157] Top shape: 1 512 38 38 (739328)
I0609 08:37:54.037014 27019 net.cpp:165] Memory required for data: 203387968
I0609 08:37:54.037021 27019 layer_factory.hpp:77] Creating layer conv4_3
I0609 08:37:54.037041 27019 net.cpp:100] Creating Layer conv4_3
I0609 08:37:54.037048 27019 net.cpp:434] conv4_3 <- conv4_2
I0609 08:37:54.037060 27019 net.cpp:408] conv4_3 -> conv4_3
I0609 08:37:54.068320 27019 net.cpp:150] Setting up conv4_3
I0609 08:37:54.068364 27019 net.cpp:157] Top shape: 1 512 38 38 (739328)
I0609 08:37:54.068372 27019 net.cpp:165] Memory required for data: 206345280
I0609 08:37:54.068384 27019 layer_factory.hpp:77] Creating layer relu4_3
I0609 08:37:54.068408 27019 net.cpp:100] Creating Layer relu4_3
I0609 08:37:54.068418 27019 net.cpp:434] relu4_3 <- conv4_3
I0609 08:37:54.068429 27019 net.cpp:395] relu4_3 -> conv4_3 (in-place)
I0609 08:37:54.069094 27019 net.cpp:150] Setting up relu4_3
I0609 08:37:54.069116 27019 net.cpp:157] Top shape: 1 512 38 38 (739328)
I0609 08:37:54.069123 27019 net.cpp:165] Memory required for data: 209302592
I0609 08:37:54.069129 27019 layer_factory.hpp:77] Creating layer conv4_3_relu4_3_0_split
I0609 08:37:54.069144 27019 net.cpp:100] Creating Layer conv4_3_relu4_3_0_split
I0609 08:37:54.069149 27019 net.cpp:434] conv4_3_relu4_3_0_split <- conv4_3
I0609 08:37:54.069166 27019 net.cpp:408] conv4_3_relu4_3_0_split -> conv4_3_relu4_3_0_split_0
I0609 08:37:54.069178 27019 net.cpp:408] conv4_3_relu4_3_0_split -> conv4_3_relu4_3_0_split_1
I0609 08:37:54.069264 27019 net.cpp:150] Setting up conv4_3_relu4_3_0_split
I0609 08:37:54.069281 27019 net.cpp:157] Top shape: 1 512 38 38 (739328)
I0609 08:37:54.069289 27019 net.cpp:157] Top shape: 1 512 38 38 (739328)
I0609 08:37:54.069295 27019 net.cpp:165] Memory required for data: 215217216
I0609 08:37:54.069301 27019 layer_factory.hpp:77] Creating layer pool4
I0609 08:37:54.069313 27019 net.cpp:100] Creating Layer pool4
I0609 08:37:54.069319 27019 net.cpp:434] pool4 <- conv4_3_relu4_3_0_split_0
I0609 08:37:54.069327 27019 net.cpp:408] pool4 -> pool4
I0609 08:37:54.069406 27019 net.cpp:150] Setting up pool4
I0609 08:37:54.069419 27019 net.cpp:157] Top shape: 1 512 19 19 (184832)
I0609 08:37:54.069424 27019 net.cpp:165] Memory required for data: 215956544
I0609 08:37:54.069430 27019 layer_factory.hpp:77] Creating layer conv5_1
I0609 08:37:54.069450 27019 net.cpp:100] Creating Layer conv5_1
I0609 08:37:54.069456 27019 net.cpp:434] conv5_1 <- pool4
I0609 08:37:54.069466 27019 net.cpp:408] conv5_1 -> conv5_1
I0609 08:37:54.098917 27019 net.cpp:150] Setting up conv5_1
I0609 08:37:54.099027 27019 net.cpp:157] Top shape: 1 512 19 19 (184832)
I0609 08:37:54.099035 27019 net.cpp:165] Memory required for data: 216695872
I0609 08:37:54.099048 27019 layer_factory.hpp:77] Creating layer relu5_1
I0609 08:37:54.099066 27019 net.cpp:100] Creating Layer relu5_1
I0609 08:37:54.099077 27019 net.cpp:434] relu5_1 <- conv5_1
I0609 08:37:54.099089 27019 net.cpp:395] relu5_1 -> conv5_1 (in-place)
I0609 08:37:54.099743 27019 net.cpp:150] Setting up relu5_1
I0609 08:37:54.099769 27019 net.cpp:157] Top shape: 1 512 19 19 (184832)
I0609 08:37:54.099776 27019 net.cpp:165] Memory required for data: 217435200
I0609 08:37:54.099782 27019 layer_factory.hpp:77] Creating layer conv5_2
I0609 08:37:54.099802 27019 net.cpp:100] Creating Layer conv5_2
I0609 08:37:54.099809 27019 net.cpp:434] conv5_2 <- conv5_1
I0609 08:37:54.099822 27019 net.cpp:408] conv5_2 -> conv5_2
I0609 08:37:54.130980 27019 net.cpp:150] Setting up conv5_2
I0609 08:37:54.131021 27019 net.cpp:157] Top shape: 1 512 19 19 (184832)
I0609 08:37:54.131027 27019 net.cpp:165] Memory required for data: 218174528
I0609 08:37:54.131043 27019 layer_factory.hpp:77] Creating layer relu5_2
I0609 08:37:54.131065 27019 net.cpp:100] Creating Layer relu5_2
I0609 08:37:54.131073 27019 net.cpp:434] relu5_2 <- conv5_2
I0609 08:37:54.131083 27019 net.cpp:395] relu5_2 -> conv5_2 (in-place)
I0609 08:37:54.131345 27019 net.cpp:150] Setting up relu5_2
I0609 08:37:54.131359 27019 net.cpp:157] Top shape: 1 512 19 19 (184832)
I0609 08:37:54.131364 27019 net.cpp:165] Memory required for data: 218913856
I0609 08:37:54.131369 27019 layer_factory.hpp:77] Creating layer conv5_3
I0609 08:37:54.131386 27019 net.cpp:100] Creating Layer conv5_3
I0609 08:37:54.131392 27019 net.cpp:434] conv5_3 <- conv5_2
I0609 08:37:54.131407 27019 net.cpp:408] conv5_3 -> conv5_3
I0609 08:37:54.163748 27019 net.cpp:150] Setting up conv5_3
I0609 08:37:54.163800 27019 net.cpp:157] Top shape: 1 512 19 19 (184832)
I0609 08:37:54.163806 27019 net.cpp:165] Memory required for data: 219653184
I0609 08:37:54.163820 27019 layer_factory.hpp:77] Creating layer relu5_3
I0609 08:37:54.163852 27019 net.cpp:100] Creating Layer relu5_3
I0609 08:37:54.163861 27019 net.cpp:434] relu5_3 <- conv5_3
I0609 08:37:54.163872 27019 net.cpp:395] relu5_3 -> conv5_3 (in-place)
I0609 08:37:54.164510 27019 net.cpp:150] Setting up relu5_3
I0609 08:37:54.164543 27019 net.cpp:157] Top shape: 1 512 19 19 (184832)
I0609 08:37:54.164551 27019 net.cpp:165] Memory required for data: 220392512
I0609 08:37:54.164556 27019 layer_factory.hpp:77] Creating layer pool5
I0609 08:37:54.164571 27019 net.cpp:100] Creating Layer pool5
I0609 08:37:54.164577 27019 net.cpp:434] pool5 <- conv5_3
I0609 08:37:54.164588 27019 net.cpp:408] pool5 -> pool5
I0609 08:37:54.164681 27019 net.cpp:150] Setting up pool5
I0609 08:37:54.164695 27019 net.cpp:157] Top shape: 1 512 19 19 (184832)
I0609 08:37:54.164701 27019 net.cpp:165] Memory required for data: 221131840
I0609 08:37:54.164707 27019 layer_factory.hpp:77] Creating layer fc6
I0609 08:37:54.164727 27019 net.cpp:100] Creating Layer fc6
I0609 08:37:54.164734 27019 net.cpp:434] fc6 <- pool5
I0609 08:37:54.164747 27019 net.cpp:408] fc6 -> fc6
I0609 08:37:54.215667 27019 net.cpp:150] Setting up fc6
I0609 08:37:54.215709 27019 net.cpp:157] Top shape: 1 1024 19 19 (369664)
I0609 08:37:54.215715 27019 net.cpp:165] Memory required for data: 222610496
I0609 08:37:54.215731 27019 layer_factory.hpp:77] Creating layer relu6
I0609 08:37:54.215744 27019 net.cpp:100] Creating Layer relu6
I0609 08:37:54.215759 27019 net.cpp:434] relu6 <- fc6
I0609 08:37:54.215771 27019 net.cpp:395] relu6 -> fc6 (in-place)
I0609 08:37:54.216141 27019 net.cpp:150] Setting up relu6
I0609 08:37:54.216159 27019 net.cpp:157] Top shape: 1 1024 19 19 (369664)
I0609 08:37:54.216166 27019 net.cpp:165] Memory required for data: 224089152
I0609 08:37:54.216171 27019 layer_factory.hpp:77] Creating layer fc7
I0609 08:37:54.216194 27019 net.cpp:100] Creating Layer fc7
I0609 08:37:54.216202 27019 net.cpp:434] fc7 <- fc6
I0609 08:37:54.216212 27019 net.cpp:408] fc7 -> fc7
I0609 08:37:54.229372 27019 net.cpp:150] Setting up fc7
I0609 08:37:54.229408 27019 net.cpp:157] Top shape: 1 1024 19 19 (369664)
I0609 08:37:54.229413 27019 net.cpp:165] Memory required for data: 225567808
I0609 08:37:54.229423 27019 layer_factory.hpp:77] Creating layer relu7
I0609 08:37:54.229439 27019 net.cpp:100] Creating Layer relu7
I0609 08:37:54.229455 27019 net.cpp:434] relu7 <- fc7
I0609 08:37:54.229465 27019 net.cpp:395] relu7 -> fc7 (in-place)
I0609 08:37:54.230101 27019 net.cpp:150] Setting up relu7
I0609 08:37:54.230128 27019 net.cpp:157] Top shape: 1 1024 19 19 (369664)
I0609 08:37:54.230134 27019 net.cpp:165] Memory required for data: 227046464
I0609 08:37:54.230140 27019 layer_factory.hpp:77] Creating layer fc7_relu7_0_split
I0609 08:37:54.230154 27019 net.cpp:100] Creating Layer fc7_relu7_0_split
I0609 08:37:54.230160 27019 net.cpp:434] fc7_relu7_0_split <- fc7
I0609 08:37:54.230172 27019 net.cpp:408] fc7_relu7_0_split -> fc7_relu7_0_split_0
I0609 08:37:54.230183 27019 net.cpp:408] fc7_relu7_0_split -> fc7_relu7_0_split_1
I0609 08:37:54.230202 27019 net.cpp:408] fc7_relu7_0_split -> fc7_relu7_0_split_2
I0609 08:37:54.230212 27019 net.cpp:408] fc7_relu7_0_split -> fc7_relu7_0_split_3
I0609 08:37:54.230365 27019 net.cpp:150] Setting up fc7_relu7_0_split
I0609 08:37:54.230378 27019 net.cpp:157] Top shape: 1 1024 19 19 (369664)
I0609 08:37:54.230386 27019 net.cpp:157] Top shape: 1 1024 19 19 (369664)
I0609 08:37:54.230393 27019 net.cpp:157] Top shape: 1 1024 19 19 (369664)
I0609 08:37:54.230401 27019 net.cpp:157] Top shape: 1 1024 19 19 (369664)
I0609 08:37:54.230406 27019 net.cpp:165] Memory required for data: 232961088
I0609 08:37:54.230412 27019 layer_factory.hpp:77] Creating layer conv6_1
I0609 08:37:54.230433 27019 net.cpp:100] Creating Layer conv6_1
I0609 08:37:54.230445 27019 net.cpp:434] conv6_1 <- fc7_relu7_0_split_0
I0609 08:37:54.230456 27019 net.cpp:408] conv6_1 -> conv6_1
I0609 08:37:54.235608 27019 net.cpp:150] Setting up conv6_1
I0609 08:37:54.235635 27019 net.cpp:157] Top shape: 1 256 19 19 (92416)
I0609 08:37:54.235641 27019 net.cpp:165] Memory required for data: 233330752
I0609 08:37:54.235649 27019 layer_factory.hpp:77] Creating layer conv6_1_relu
I0609 08:37:54.235661 27019 net.cpp:100] Creating Layer conv6_1_relu
I0609 08:37:54.235667 27019 net.cpp:434] conv6_1_relu <- conv6_1
I0609 08:37:54.235682 27019 net.cpp:395] conv6_1_relu -> conv6_1 (in-place)
I0609 08:37:54.236237 27019 net.cpp:150] Setting up conv6_1_relu
I0609 08:37:54.236259 27019 net.cpp:157] Top shape: 1 256 19 19 (92416)
I0609 08:37:54.236265 27019 net.cpp:165] Memory required for data: 233700416
I0609 08:37:54.236271 27019 layer_factory.hpp:77] Creating layer conv6_2
I0609 08:37:54.236289 27019 net.cpp:100] Creating Layer conv6_2
I0609 08:37:54.236296 27019 net.cpp:434] conv6_2 <- conv6_1
I0609 08:37:54.236308 27019 net.cpp:408] conv6_2 -> conv6_2
I0609 08:37:54.251106 27019 net.cpp:150] Setting up conv6_2
I0609 08:37:54.251155 27019 net.cpp:157] Top shape: 1 512 10 10 (51200)
I0609 08:37:54.251163 27019 net.cpp:165] Memory required for data: 233905216
I0609 08:37:54.251197 27019 layer_factory.hpp:77] Creating layer conv6_2_relu
I0609 08:37:54.251212 27019 net.cpp:100] Creating Layer conv6_2_relu
I0609 08:37:54.251224 27019 net.cpp:434] conv6_2_relu <- conv6_2
I0609 08:37:54.251235 27019 net.cpp:395] conv6_2_relu -> conv6_2 (in-place)
I0609 08:37:54.251549 27019 net.cpp:150] Setting up conv6_2_relu
I0609 08:37:54.251570 27019 net.cpp:157] Top shape: 1 512 10 10 (51200)
I0609 08:37:54.251576 27019 net.cpp:165] Memory required for data: 234110016
I0609 08:37:54.251582 27019 layer_factory.hpp:77] Creating layer conv6_2_conv6_2_relu_0_split
I0609 08:37:54.251595 27019 net.cpp:100] Creating Layer conv6_2_conv6_2_relu_0_split
I0609 08:37:54.251601 27019 net.cpp:434] conv6_2_conv6_2_relu_0_split <- conv6_2
I0609 08:37:54.251613 27019 net.cpp:408] conv6_2_conv6_2_relu_0_split -> conv6_2_conv6_2_relu_0_split_0
I0609 08:37:54.251623 27019 net.cpp:408] conv6_2_conv6_2_relu_0_split -> conv6_2_conv6_2_relu_0_split_1
I0609 08:37:54.251633 27019 net.cpp:408] conv6_2_conv6_2_relu_0_split -> conv6_2_conv6_2_relu_0_split_2
I0609 08:37:54.251672 27019 net.cpp:408] conv6_2_conv6_2_relu_0_split -> conv6_2_conv6_2_relu_0_split_3
I0609 08:37:54.251826 27019 net.cpp:150] Setting up conv6_2_conv6_2_relu_0_split
I0609 08:37:54.251844 27019 net.cpp:157] Top shape: 1 512 10 10 (51200)
I0609 08:37:54.251852 27019 net.cpp:157] Top shape: 1 512 10 10 (51200)
I0609 08:37:54.251859 27019 net.cpp:157] Top shape: 1 512 10 10 (51200)
I0609 08:37:54.251866 27019 net.cpp:157] Top shape: 1 512 10 10 (51200)
I0609 08:37:54.251873 27019 net.cpp:165] Memory required for data: 234929216
I0609 08:37:54.251878 27019 layer_factory.hpp:77] Creating layer conv7_1
I0609 08:37:54.251895 27019 net.cpp:100] Creating Layer conv7_1
I0609 08:37:54.251902 27019 net.cpp:434] conv7_1 <- conv6_2_conv6_2_relu_0_split_0
I0609 08:37:54.251915 27019 net.cpp:408] conv7_1 -> conv7_1
I0609 08:37:54.256516 27019 net.cpp:150] Setting up conv7_1
I0609 08:37:54.256551 27019 net.cpp:157] Top shape: 1 128 10 10 (12800)
I0609 08:37:54.256558 27019 net.cpp:165] Memory required for data: 234980416
I0609 08:37:54.256572 27019 layer_factory.hpp:77] Creating layer conv7_1_relu
I0609 08:37:54.256584 27019 net.cpp:100] Creating Layer conv7_1_relu
I0609 08:37:54.256597 27019 net.cpp:434] conv7_1_relu <- conv7_1
I0609 08:37:54.256606 27019 net.cpp:395] conv7_1_relu -> conv7_1 (in-place)
I0609 08:37:54.257294 27019 net.cpp:150] Setting up conv7_1_relu
I0609 08:37:54.257333 27019 net.cpp:157] Top shape: 1 128 10 10 (12800)
I0609 08:37:54.257344 27019 net.cpp:165] Memory required for data: 235031616
I0609 08:37:54.257354 27019 layer_factory.hpp:77] Creating layer conv7_2
I0609 08:37:54.257375 27019 net.cpp:100] Creating Layer conv7_2
I0609 08:37:54.257382 27019 net.cpp:434] conv7_2 <- conv7_1
I0609 08:37:54.257395 27019 net.cpp:408] conv7_2 -> conv7_2
I0609 08:37:54.264183 27019 net.cpp:150] Setting up conv7_2
I0609 08:37:54.264220 27019 net.cpp:157] Top shape: 1 256 5 5 (6400)
I0609 08:37:54.264226 27019 net.cpp:165] Memory required for data: 235057216
I0609 08:37:54.264238 27019 layer_factory.hpp:77] Creating layer conv7_2_relu
I0609 08:37:54.264252 27019 net.cpp:100] Creating Layer conv7_2_relu
I0609 08:37:54.264264 27019 net.cpp:434] conv7_2_relu <- conv7_2
I0609 08:37:54.264276 27019 net.cpp:395] conv7_2_relu -> conv7_2 (in-place)
I0609 08:37:54.264634 27019 net.cpp:150] Setting up conv7_2_relu
I0609 08:37:54.264655 27019 net.cpp:157] Top shape: 1 256 5 5 (6400)
I0609 08:37:54.264662 27019 net.cpp:165] Memory required for data: 235082816
I0609 08:37:54.264667 27019 layer_factory.hpp:77] Creating layer conv7_2_conv7_2_relu_0_split
I0609 08:37:54.264679 27019 net.cpp:100] Creating Layer conv7_2_conv7_2_relu_0_split
I0609 08:37:54.264685 27019 net.cpp:434] conv7_2_conv7_2_relu_0_split <- conv7_2
I0609 08:37:54.264700 27019 net.cpp:408] conv7_2_conv7_2_relu_0_split -> conv7_2_conv7_2_relu_0_split_0
I0609 08:37:54.264710 27019 net.cpp:408] conv7_2_conv7_2_relu_0_split -> conv7_2_conv7_2_relu_0_split_1
I0609 08:37:54.264720 27019 net.cpp:408] conv7_2_conv7_2_relu_0_split -> conv7_2_conv7_2_relu_0_split_2
I0609 08:37:54.264729 27019 net.cpp:408] conv7_2_conv7_2_relu_0_split -> conv7_2_conv7_2_relu_0_split_3
I0609 08:37:54.264917 27019 net.cpp:150] Setting up conv7_2_conv7_2_relu_0_split
I0609 08:37:54.264935 27019 net.cpp:157] Top shape: 1 256 5 5 (6400)
I0609 08:37:54.264942 27019 net.cpp:157] Top shape: 1 256 5 5 (6400)
I0609 08:37:54.264951 27019 net.cpp:157] Top shape: 1 256 5 5 (6400)
I0609 08:37:54.264961 27019 net.cpp:157] Top shape: 1 256 5 5 (6400)
I0609 08:37:54.264971 27019 net.cpp:165] Memory required for data: 235185216
I0609 08:37:54.264981 27019 layer_factory.hpp:77] Creating layer conv8_1
I0609 08:37:54.265007 27019 net.cpp:100] Creating Layer conv8_1
I0609 08:37:54.265022 27019 net.cpp:434] conv8_1 <- conv7_2_conv7_2_relu_0_split_0
I0609 08:37:54.265039 27019 net.cpp:408] conv8_1 -> conv8_1
I0609 08:37:54.268225 27019 net.cpp:150] Setting up conv8_1
I0609 08:37:54.268263 27019 net.cpp:157] Top shape: 1 128 5 5 (3200)
I0609 08:37:54.268306 27019 net.cpp:165] Memory required for data: 235198016
I0609 08:37:54.268321 27019 layer_factory.hpp:77] Creating layer conv8_1_relu
I0609 08:37:54.268348 27019 net.cpp:100] Creating Layer conv8_1_relu
I0609 08:37:54.268362 27019 net.cpp:434] conv8_1_relu <- conv8_1
I0609 08:37:54.268371 27019 net.cpp:395] conv8_1_relu -> conv8_1 (in-place)
I0609 08:37:54.269858 27019 net.cpp:150] Setting up conv8_1_relu
I0609 08:37:54.269898 27019 net.cpp:157] Top shape: 1 128 5 5 (3200)
I0609 08:37:54.269913 27019 net.cpp:165] Memory required for data: 235210816
I0609 08:37:54.269920 27019 layer_factory.hpp:77] Creating layer conv8_2
I0609 08:37:54.269942 27019 net.cpp:100] Creating Layer conv8_2
I0609 08:37:54.269956 27019 net.cpp:434] conv8_2 <- conv8_1
I0609 08:37:54.269981 27019 net.cpp:408] conv8_2 -> conv8_2
I0609 08:37:54.278345 27019 net.cpp:150] Setting up conv8_2
I0609 08:37:54.278380 27019 net.cpp:157] Top shape: 1 256 3 3 (2304)
I0609 08:37:54.278385 27019 net.cpp:165] Memory required for data: 235220032
I0609 08:37:54.278399 27019 layer_factory.hpp:77] Creating layer conv8_2_relu
I0609 08:37:54.278411 27019 net.cpp:100] Creating Layer conv8_2_relu
I0609 08:37:54.278422 27019 net.cpp:434] conv8_2_relu <- conv8_2
I0609 08:37:54.278430 27019 net.cpp:395] conv8_2_relu -> conv8_2 (in-place)
I0609 08:37:54.279072 27019 net.cpp:150] Setting up conv8_2_relu
I0609 08:37:54.279093 27019 net.cpp:157] Top shape: 1 256 3 3 (2304)
I0609 08:37:54.279098 27019 net.cpp:165] Memory required for data: 235229248
I0609 08:37:54.279105 27019 layer_factory.hpp:77] Creating layer conv8_2_conv8_2_relu_0_split
I0609 08:37:54.279120 27019 net.cpp:100] Creating Layer conv8_2_conv8_2_relu_0_split
I0609 08:37:54.279127 27019 net.cpp:434] conv8_2_conv8_2_relu_0_split <- conv8_2
I0609 08:37:54.279139 27019 net.cpp:408] conv8_2_conv8_2_relu_0_split -> conv8_2_conv8_2_relu_0_split_0
I0609 08:37:54.279150 27019 net.cpp:408] conv8_2_conv8_2_relu_0_split -> conv8_2_conv8_2_relu_0_split_1
I0609 08:37:54.279160 27019 net.cpp:408] conv8_2_conv8_2_relu_0_split -> conv8_2_conv8_2_relu_0_split_2
I0609 08:37:54.279170 27019 net.cpp:408] conv8_2_conv8_2_relu_0_split -> conv8_2_conv8_2_relu_0_split_3
I0609 08:37:54.279328 27019 net.cpp:150] Setting up conv8_2_conv8_2_relu_0_split
I0609 08:37:54.279345 27019 net.cpp:157] Top shape: 1 256 3 3 (2304)
I0609 08:37:54.279351 27019 net.cpp:157] Top shape: 1 256 3 3 (2304)
I0609 08:37:54.279358 27019 net.cpp:157] Top shape: 1 256 3 3 (2304)
I0609 08:37:54.279364 27019 net.cpp:157] Top shape: 1 256 3 3 (2304)
I0609 08:37:54.279371 27019 net.cpp:165] Memory required for data: 235266112
I0609 08:37:54.279376 27019 layer_factory.hpp:77] Creating layer conv9_1
I0609 08:37:54.279397 27019 net.cpp:100] Creating Layer conv9_1
I0609 08:37:54.279403 27019 net.cpp:434] conv9_1 <- conv8_2_conv8_2_relu_0_split_0
I0609 08:37:54.279415 27019 net.cpp:408] conv9_1 -> conv9_1
I0609 08:37:54.281884 27019 net.cpp:150] Setting up conv9_1
I0609 08:37:54.281920 27019 net.cpp:157] Top shape: 1 128 3 3 (1152)
I0609 08:37:54.281926 27019 net.cpp:165] Memory required for data: 235270720
I0609 08:37:54.281936 27019 layer_factory.hpp:77] Creating layer conv9_1_relu
I0609 08:37:54.281954 27019 net.cpp:100] Creating Layer conv9_1_relu
I0609 08:37:54.281961 27019 net.cpp:434] conv9_1_relu <- conv9_1
I0609 08:37:54.281970 27019 net.cpp:395] conv9_1_relu -> conv9_1 (in-place)
I0609 08:37:54.282274 27019 net.cpp:150] Setting up conv9_1_relu
I0609 08:37:54.282291 27019 net.cpp:157] Top shape: 1 128 3 3 (1152)
I0609 08:37:54.282299 27019 net.cpp:165] Memory required for data: 235275328
I0609 08:37:54.282305 27019 layer_factory.hpp:77] Creating layer conv9_2
I0609 08:37:54.282321 27019 net.cpp:100] Creating Layer conv9_2
I0609 08:37:54.282328 27019 net.cpp:434] conv9_2 <- conv9_1
I0609 08:37:54.282341 27019 net.cpp:408] conv9_2 -> conv9_2
I0609 08:37:54.288554 27019 net.cpp:150] Setting up conv9_2
I0609 08:37:54.288583 27019 net.cpp:157] Top shape: 1 256 1 1 (256)
I0609 08:37:54.288590 27019 net.cpp:165] Memory required for data: 235276352
I0609 08:37:54.288633 27019 layer_factory.hpp:77] Creating layer conv9_2_relu
I0609 08:37:54.288645 27019 net.cpp:100] Creating Layer conv9_2_relu
I0609 08:37:54.288652 27019 net.cpp:434] conv9_2_relu <- conv9_2
I0609 08:37:54.288661 27019 net.cpp:395] conv9_2_relu -> conv9_2 (in-place)
I0609 08:37:54.289273 27019 net.cpp:150] Setting up conv9_2_relu
I0609 08:37:54.289307 27019 net.cpp:157] Top shape: 1 256 1 1 (256)
I0609 08:37:54.289314 27019 net.cpp:165] Memory required for data: 235277376
I0609 08:37:54.289320 27019 layer_factory.hpp:77] Creating layer conv9_2_conv9_2_relu_0_split
I0609 08:37:54.289330 27019 net.cpp:100] Creating Layer conv9_2_conv9_2_relu_0_split
I0609 08:37:54.289337 27019 net.cpp:434] conv9_2_conv9_2_relu_0_split <- conv9_2
I0609 08:37:54.289352 27019 net.cpp:408] conv9_2_conv9_2_relu_0_split -> conv9_2_conv9_2_relu_0_split_0
I0609 08:37:54.289363 27019 net.cpp:408] conv9_2_conv9_2_relu_0_split -> conv9_2_conv9_2_relu_0_split_1
I0609 08:37:54.289372 27019 net.cpp:408] conv9_2_conv9_2_relu_0_split -> conv9_2_conv9_2_relu_0_split_2
I0609 08:37:54.289499 27019 net.cpp:150] Setting up conv9_2_conv9_2_relu_0_split
I0609 08:37:54.289513 27019 net.cpp:157] Top shape: 1 256 1 1 (256)
I0609 08:37:54.289521 27019 net.cpp:157] Top shape: 1 256 1 1 (256)
I0609 08:37:54.289527 27019 net.cpp:157] Top shape: 1 256 1 1 (256)
I0609 08:37:54.289533 27019 net.cpp:165] Memory required for data: 235280448
I0609 08:37:54.289539 27019 layer_factory.hpp:77] Creating layer conv4_3_norm
I0609 08:37:54.289552 27019 net.cpp:100] Creating Layer conv4_3_norm
I0609 08:37:54.289561 27019 net.cpp:434] conv4_3_norm <- conv4_3_relu4_3_0_split_1
I0609 08:37:54.289572 27019 net.cpp:408] conv4_3_norm -> conv4_3_norm
I0609 08:37:54.289919 27019 net.cpp:150] Setting up conv4_3_norm
I0609 08:37:54.289935 27019 net.cpp:157] Top shape: 1 512 38 38 (739328)
I0609 08:37:54.289940 27019 net.cpp:165] Memory required for data: 238237760
I0609 08:37:54.289948 27019 layer_factory.hpp:77] Creating layer conv4_3_norm_conv4_3_norm_0_split
I0609 08:37:54.289958 27019 net.cpp:100] Creating Layer conv4_3_norm_conv4_3_norm_0_split
I0609 08:37:54.289963 27019 net.cpp:434] conv4_3_norm_conv4_3_norm_0_split <- conv4_3_norm
I0609 08:37:54.289970 27019 net.cpp:408] conv4_3_norm_conv4_3_norm_0_split -> conv4_3_norm_conv4_3_norm_0_split_0
I0609 08:37:54.289981 27019 net.cpp:408] conv4_3_norm_conv4_3_norm_0_split -> conv4_3_norm_conv4_3_norm_0_split_1
I0609 08:37:54.289988 27019 net.cpp:408] conv4_3_norm_conv4_3_norm_0_split -> conv4_3_norm_conv4_3_norm_0_split_2
I0609 08:37:54.290081 27019 net.cpp:150] Setting up conv4_3_norm_conv4_3_norm_0_split
I0609 08:37:54.290092 27019 net.cpp:157] Top shape: 1 512 38 38 (739328)
I0609 08:37:54.290099 27019 net.cpp:157] Top shape: 1 512 38 38 (739328)
I0609 08:37:54.290105 27019 net.cpp:157] Top shape: 1 512 38 38 (739328)
I0609 08:37:54.290110 27019 net.cpp:165] Memory required for data: 247109696
I0609 08:37:54.290115 27019 layer_factory.hpp:77] Creating layer conv4_3_norm_mbox_loc
I0609 08:37:54.290130 27019 net.cpp:100] Creating Layer conv4_3_norm_mbox_loc
I0609 08:37:54.290136 27019 net.cpp:434] conv4_3_norm_mbox_loc <- conv4_3_norm_conv4_3_norm_0_split_0
I0609 08:37:54.290144 27019 net.cpp:408] conv4_3_norm_mbox_loc -> conv4_3_norm_mbox_loc
I0609 08:37:54.293534 27019 net.cpp:150] Setting up conv4_3_norm_mbox_loc
I0609 08:37:54.293570 27019 net.cpp:157] Top shape: 1 16 38 38 (23104)
I0609 08:37:54.293576 27019 net.cpp:165] Memory required for data: 247202112
I0609 08:37:54.293591 27019 layer_factory.hpp:77] Creating layer conv4_3_norm_mbox_loc_perm
I0609 08:37:54.293603 27019 net.cpp:100] Creating Layer conv4_3_norm_mbox_loc_perm
I0609 08:37:54.293617 27019 net.cpp:434] conv4_3_norm_mbox_loc_perm <- conv4_3_norm_mbox_loc
I0609 08:37:54.293628 27019 net.cpp:408] conv4_3_norm_mbox_loc_perm -> conv4_3_norm_mbox_loc_perm
I0609 08:37:54.293886 27019 net.cpp:150] Setting up conv4_3_norm_mbox_loc_perm
I0609 08:37:54.293902 27019 net.cpp:157] Top shape: 1 38 38 16 (23104)
I0609 08:37:54.293908 27019 net.cpp:165] Memory required for data: 247294528
I0609 08:37:54.293932 27019 layer_factory.hpp:77] Creating layer conv4_3_norm_mbox_loc_flat
I0609 08:37:54.293948 27019 net.cpp:100] Creating Layer conv4_3_norm_mbox_loc_flat
I0609 08:37:54.293956 27019 net.cpp:434] conv4_3_norm_mbox_loc_flat <- conv4_3_norm_mbox_loc_perm
I0609 08:37:54.293962 27019 net.cpp:408] conv4_3_norm_mbox_loc_flat -> conv4_3_norm_mbox_loc_flat
I0609 08:37:54.294029 27019 net.cpp:150] Setting up conv4_3_norm_mbox_loc_flat
I0609 08:37:54.294044 27019 net.cpp:157] Top shape: 1 23104 (23104)
I0609 08:37:54.294049 27019 net.cpp:165] Memory required for data: 247386944
I0609 08:37:54.294055 27019 layer_factory.hpp:77] Creating layer conv4_3_norm_mbox_conf
I0609 08:37:54.294086 27019 net.cpp:100] Creating Layer conv4_3_norm_mbox_conf
I0609 08:37:54.294097 27019 net.cpp:434] conv4_3_norm_mbox_conf <- conv4_3_norm_conv4_3_norm_0_split_1
I0609 08:37:54.294111 27019 net.cpp:408] conv4_3_norm_mbox_conf -> conv4_3_norm_mbox_conf
I0609 08:37:54.300940 27019 net.cpp:150] Setting up conv4_3_norm_mbox_conf
I0609 08:37:54.300972 27019 net.cpp:157] Top shape: 1 84 38 38 (121296)
I0609 08:37:54.300977 27019 net.cpp:165] Memory required for data: 247872128
I0609 08:37:54.300988 27019 layer_factory.hpp:77] Creating layer conv4_3_norm_mbox_conf_perm
I0609 08:37:54.301002 27019 net.cpp:100] Creating Layer conv4_3_norm_mbox_conf_perm
I0609 08:37:54.301023 27019 net.cpp:434] conv4_3_norm_mbox_conf_perm <- conv4_3_norm_mbox_conf
I0609 08:37:54.301035 27019 net.cpp:408] conv4_3_norm_mbox_conf_perm -> conv4_3_norm_mbox_conf_perm
I0609 08:37:54.301298 27019 net.cpp:150] Setting up conv4_3_norm_mbox_conf_perm
I0609 08:37:54.301313 27019 net.cpp:157] Top shape: 1 38 38 84 (121296)
I0609 08:37:54.301321 27019 net.cpp:165] Memory required for data: 248357312
I0609 08:37:54.301326 27019 layer_factory.hpp:77] Creating layer conv4_3_norm_mbox_conf_flat
I0609 08:37:54.301340 27019 net.cpp:100] Creating Layer conv4_3_norm_mbox_conf_flat
I0609 08:37:54.301348 27019 net.cpp:434] conv4_3_norm_mbox_conf_flat <- conv4_3_norm_mbox_conf_perm
I0609 08:37:54.301357 27019 net.cpp:408] conv4_3_norm_mbox_conf_flat -> conv4_3_norm_mbox_conf_flat
I0609 08:37:54.301403 27019 net.cpp:150] Setting up conv4_3_norm_mbox_conf_flat
I0609 08:37:54.301416 27019 net.cpp:157] Top shape: 1 121296 (121296)
I0609 08:37:54.301424 27019 net.cpp:165] Memory required for data: 248842496
I0609 08:37:54.301429 27019 layer_factory.hpp:77] Creating layer conv4_3_norm_mbox_priorbox
I0609 08:37:54.301441 27019 net.cpp:100] Creating Layer conv4_3_norm_mbox_priorbox
I0609 08:37:54.301448 27019 net.cpp:434] conv4_3_norm_mbox_priorbox <- conv4_3_norm_conv4_3_norm_0_split_2
I0609 08:37:54.301457 27019 net.cpp:434] conv4_3_norm_mbox_priorbox <- data_data_0_split_1
I0609 08:37:54.301467 27019 net.cpp:408] conv4_3_norm_mbox_priorbox -> conv4_3_norm_mbox_priorbox
I0609 08:37:54.301517 27019 net.cpp:150] Setting up conv4_3_norm_mbox_priorbox
I0609 08:37:54.301532 27019 net.cpp:157] Top shape: 1 2 23104 (46208)
I0609 08:37:54.301537 27019 net.cpp:165] Memory required for data: 249027328
I0609 08:37:54.301543 27019 layer_factory.hpp:77] Creating layer fc7_mbox_loc
I0609 08:37:54.301563 27019 net.cpp:100] Creating Layer fc7_mbox_loc
I0609 08:37:54.301570 27019 net.cpp:434] fc7_mbox_loc <- fc7_relu7_0_split_1
I0609 08:37:54.301581 27019 net.cpp:408] fc7_mbox_loc -> fc7_mbox_loc
I0609 08:37:54.306573 27019 net.cpp:150] Setting up fc7_mbox_loc
I0609 08:37:54.306599 27019 net.cpp:157] Top shape: 1 24 19 19 (8664)
I0609 08:37:54.306605 27019 net.cpp:165] Memory required for data: 249061984
I0609 08:37:54.306619 27019 layer_factory.hpp:77] Creating layer fc7_mbox_loc_perm
I0609 08:37:54.306637 27019 net.cpp:100] Creating Layer fc7_mbox_loc_perm
I0609 08:37:54.306643 27019 net.cpp:434] fc7_mbox_loc_perm <- fc7_mbox_loc
I0609 08:37:54.306655 27019 net.cpp:408] fc7_mbox_loc_perm -> fc7_mbox_loc_perm
I0609 08:37:54.306915 27019 net.cpp:150] Setting up fc7_mbox_loc_perm
I0609 08:37:54.306931 27019 net.cpp:157] Top shape: 1 19 19 24 (8664)
I0609 08:37:54.306937 27019 net.cpp:165] Memory required for data: 249096640
I0609 08:37:54.306980 27019 layer_factory.hpp:77] Creating layer fc7_mbox_loc_flat
I0609 08:37:54.306989 27019 net.cpp:100] Creating Layer fc7_mbox_loc_flat
I0609 08:37:54.306998 27019 net.cpp:434] fc7_mbox_loc_flat <- fc7_mbox_loc_perm
I0609 08:37:54.307008 27019 net.cpp:408] fc7_mbox_loc_flat -> fc7_mbox_loc_flat
I0609 08:37:54.307059 27019 net.cpp:150] Setting up fc7_mbox_loc_flat
I0609 08:37:54.307068 27019 net.cpp:157] Top shape: 1 8664 (8664)
I0609 08:37:54.307073 27019 net.cpp:165] Memory required for data: 249131296
I0609 08:37:54.307080 27019 layer_factory.hpp:77] Creating layer fc7_mbox_conf
I0609 08:37:54.307098 27019 net.cpp:100] Creating Layer fc7_mbox_conf
I0609 08:37:54.307126 27019 net.cpp:434] fc7_mbox_conf <- fc7_relu7_0_split_2
I0609 08:37:54.307138 27019 net.cpp:408] fc7_mbox_conf -> fc7_mbox_conf
I0609 08:37:54.323846 27019 net.cpp:150] Setting up fc7_mbox_conf
I0609 08:37:54.323890 27019 net.cpp:157] Top shape: 1 126 19 19 (45486)
I0609 08:37:54.323897 27019 net.cpp:165] Memory required for data: 249313240
I0609 08:37:54.323912 27019 layer_factory.hpp:77] Creating layer fc7_mbox_conf_perm
I0609 08:37:54.323926 27019 net.cpp:100] Creating Layer fc7_mbox_conf_perm
I0609 08:37:54.323942 27019 net.cpp:434] fc7_mbox_conf_perm <- fc7_mbox_conf
I0609 08:37:54.323953 27019 net.cpp:408] fc7_mbox_conf_perm -> fc7_mbox_conf_perm
I0609 08:37:54.324224 27019 net.cpp:150] Setting up fc7_mbox_conf_perm
I0609 08:37:54.324237 27019 net.cpp:157] Top shape: 1 19 19 126 (45486)
I0609 08:37:54.324244 27019 net.cpp:165] Memory required for data: 249495184
I0609 08:37:54.324249 27019 layer_factory.hpp:77] Creating layer fc7_mbox_conf_flat
I0609 08:37:54.324264 27019 net.cpp:100] Creating Layer fc7_mbox_conf_flat
I0609 08:37:54.324270 27019 net.cpp:434] fc7_mbox_conf_flat <- fc7_mbox_conf_perm
I0609 08:37:54.324282 27019 net.cpp:408] fc7_mbox_conf_flat -> fc7_mbox_conf_flat
I0609 08:37:54.324331 27019 net.cpp:150] Setting up fc7_mbox_conf_flat
I0609 08:37:54.324345 27019 net.cpp:157] Top shape: 1 45486 (45486)
I0609 08:37:54.324350 27019 net.cpp:165] Memory required for data: 249677128
I0609 08:37:54.324357 27019 layer_factory.hpp:77] Creating layer fc7_mbox_priorbox
I0609 08:37:54.324368 27019 net.cpp:100] Creating Layer fc7_mbox_priorbox
I0609 08:37:54.324374 27019 net.cpp:434] fc7_mbox_priorbox <- fc7_relu7_0_split_3
I0609 08:37:54.324384 27019 net.cpp:434] fc7_mbox_priorbox <- data_data_0_split_2
I0609 08:37:54.324395 27019 net.cpp:408] fc7_mbox_priorbox -> fc7_mbox_priorbox
I0609 08:37:54.324447 27019 net.cpp:150] Setting up fc7_mbox_priorbox
I0609 08:37:54.324460 27019 net.cpp:157] Top shape: 1 2 8664 (17328)
I0609 08:37:54.324466 27019 net.cpp:165] Memory required for data: 249746440
I0609 08:37:54.324473 27019 layer_factory.hpp:77] Creating layer conv6_2_mbox_loc
I0609 08:37:54.324492 27019 net.cpp:100] Creating Layer conv6_2_mbox_loc
I0609 08:37:54.324508 27019 net.cpp:434] conv6_2_mbox_loc <- conv6_2_conv6_2_relu_0_split_1
I0609 08:37:54.324520 27019 net.cpp:408] conv6_2_mbox_loc -> conv6_2_mbox_loc
I0609 08:37:54.328608 27019 net.cpp:150] Setting up conv6_2_mbox_loc
I0609 08:37:54.328634 27019 net.cpp:157] Top shape: 1 24 10 10 (2400)
I0609 08:37:54.328640 27019 net.cpp:165] Memory required for data: 249756040
I0609 08:37:54.328656 27019 layer_factory.hpp:77] Creating layer conv6_2_mbox_loc_perm
I0609 08:37:54.328670 27019 net.cpp:100] Creating Layer conv6_2_mbox_loc_perm
I0609 08:37:54.328678 27019 net.cpp:434] conv6_2_mbox_loc_perm <- conv6_2_mbox_loc
I0609 08:37:54.328687 27019 net.cpp:408] conv6_2_mbox_loc_perm -> conv6_2_mbox_loc_perm
I0609 08:37:54.328960 27019 net.cpp:150] Setting up conv6_2_mbox_loc_perm
I0609 08:37:54.328974 27019 net.cpp:157] Top shape: 1 10 10 24 (2400)
I0609 08:37:54.328984 27019 net.cpp:165] Memory required for data: 249765640
I0609 08:37:54.328991 27019 layer_factory.hpp:77] Creating layer conv6_2_mbox_loc_flat
I0609 08:37:54.329000 27019 net.cpp:100] Creating Layer conv6_2_mbox_loc_flat
I0609 08:37:54.329010 27019 net.cpp:434] conv6_2_mbox_loc_flat <- conv6_2_mbox_loc_perm
I0609 08:37:54.329053 27019 net.cpp:408] conv6_2_mbox_loc_flat -> conv6_2_mbox_loc_flat
I0609 08:37:54.329102 27019 net.cpp:150] Setting up conv6_2_mbox_loc_flat
I0609 08:37:54.329111 27019 net.cpp:157] Top shape: 1 2400 (2400)
I0609 08:37:54.329118 27019 net.cpp:165] Memory required for data: 249775240
I0609 08:37:54.329123 27019 layer_factory.hpp:77] Creating layer conv6_2_mbox_conf
I0609 08:37:54.329140 27019 net.cpp:100] Creating Layer conv6_2_mbox_conf
I0609 08:37:54.329149 27019 net.cpp:434] conv6_2_mbox_conf <- conv6_2_conv6_2_relu_0_split_2
I0609 08:37:54.329159 27019 net.cpp:408] conv6_2_mbox_conf -> conv6_2_mbox_conf
I0609 08:37:54.338150 27019 net.cpp:150] Setting up conv6_2_mbox_conf
I0609 08:37:54.338201 27019 net.cpp:157] Top shape: 1 126 10 10 (12600)
I0609 08:37:54.338207 27019 net.cpp:165] Memory required for data: 249825640
I0609 08:37:54.338224 27019 layer_factory.hpp:77] Creating layer conv6_2_mbox_conf_perm
I0609 08:37:54.338245 27019 net.cpp:100] Creating Layer conv6_2_mbox_conf_perm
I0609 08:37:54.338259 27019 net.cpp:434] conv6_2_mbox_conf_perm <- conv6_2_mbox_conf
I0609 08:37:54.338275 27019 net.cpp:408] conv6_2_mbox_conf_perm -> conv6_2_mbox_conf_perm
I0609 08:37:54.338551 27019 net.cpp:150] Setting up conv6_2_mbox_conf_perm
I0609 08:37:54.338565 27019 net.cpp:157] Top shape: 1 10 10 126 (12600)
I0609 08:37:54.338573 27019 net.cpp:165] Memory required for data: 249876040
I0609 08:37:54.338579 27019 layer_factory.hpp:77] Creating layer conv6_2_mbox_conf_flat
I0609 08:37:54.338588 27019 net.cpp:100] Creating Layer conv6_2_mbox_conf_flat
I0609 08:37:54.338596 27019 net.cpp:434] conv6_2_mbox_conf_flat <- conv6_2_mbox_conf_perm
I0609 08:37:54.338604 27019 net.cpp:408] conv6_2_mbox_conf_flat -> conv6_2_mbox_conf_flat
I0609 08:37:54.338654 27019 net.cpp:150] Setting up conv6_2_mbox_conf_flat
I0609 08:37:54.338680 27019 net.cpp:157] Top shape: 1 12600 (12600)
I0609 08:37:54.338687 27019 net.cpp:165] Memory required for data: 249926440
I0609 08:37:54.338693 27019 layer_factory.hpp:77] Creating layer conv6_2_mbox_priorbox
I0609 08:37:54.338707 27019 net.cpp:100] Creating Layer conv6_2_mbox_priorbox
I0609 08:37:54.338714 27019 net.cpp:434] conv6_2_mbox_priorbox <- conv6_2_conv6_2_relu_0_split_3
I0609 08:37:54.338726 27019 net.cpp:434] conv6_2_mbox_priorbox <- data_data_0_split_3
I0609 08:37:54.338735 27019 net.cpp:408] conv6_2_mbox_priorbox -> conv6_2_mbox_priorbox
I0609 08:37:54.338786 27019 net.cpp:150] Setting up conv6_2_mbox_priorbox
I0609 08:37:54.338799 27019 net.cpp:157] Top shape: 1 2 2400 (4800)
I0609 08:37:54.338804 27019 net.cpp:165] Memory required for data: 249945640
I0609 08:37:54.338810 27019 layer_factory.hpp:77] Creating layer conv7_2_mbox_loc
I0609 08:37:54.338829 27019 net.cpp:100] Creating Layer conv7_2_mbox_loc
I0609 08:37:54.338835 27019 net.cpp:434] conv7_2_mbox_loc <- conv7_2_conv7_2_relu_0_split_1
I0609 08:37:54.338846 27019 net.cpp:408] conv7_2_mbox_loc -> conv7_2_mbox_loc
I0609 08:37:54.341883 27019 net.cpp:150] Setting up conv7_2_mbox_loc
I0609 08:37:54.341918 27019 net.cpp:157] Top shape: 1 24 5 5 (600)
I0609 08:37:54.341924 27019 net.cpp:165] Memory required for data: 249948040
I0609 08:37:54.341935 27019 layer_factory.hpp:77] Creating layer conv7_2_mbox_loc_perm
I0609 08:37:54.341948 27019 net.cpp:100] Creating Layer conv7_2_mbox_loc_perm
I0609 08:37:54.341959 27019 net.cpp:434] conv7_2_mbox_loc_perm <- conv7_2_mbox_loc
I0609 08:37:54.341970 27019 net.cpp:408] conv7_2_mbox_loc_perm -> conv7_2_mbox_loc_perm
I0609 08:37:54.342243 27019 net.cpp:150] Setting up conv7_2_mbox_loc_perm
I0609 08:37:54.342255 27019 net.cpp:157] Top shape: 1 5 5 24 (600)
I0609 08:37:54.342262 27019 net.cpp:165] Memory required for data: 249950440
I0609 08:37:54.342267 27019 layer_factory.hpp:77] Creating layer conv7_2_mbox_loc_flat
I0609 08:37:54.342278 27019 net.cpp:100] Creating Layer conv7_2_mbox_loc_flat
I0609 08:37:54.342285 27019 net.cpp:434] conv7_2_mbox_loc_flat <- conv7_2_mbox_loc_perm
I0609 08:37:54.342295 27019 net.cpp:408] conv7_2_mbox_loc_flat -> conv7_2_mbox_loc_flat
I0609 08:37:54.342370 27019 net.cpp:150] Setting up conv7_2_mbox_loc_flat
I0609 08:37:54.342381 27019 net.cpp:157] Top shape: 1 600 (600)
I0609 08:37:54.342387 27019 net.cpp:165] Memory required for data: 249952840
I0609 08:37:54.342392 27019 layer_factory.hpp:77] Creating layer conv7_2_mbox_conf
I0609 08:37:54.342413 27019 net.cpp:100] Creating Layer conv7_2_mbox_conf
I0609 08:37:54.342422 27019 net.cpp:434] conv7_2_mbox_conf <- conv7_2_conv7_2_relu_0_split_2
I0609 08:37:54.342432 27019 net.cpp:408] conv7_2_mbox_conf -> conv7_2_mbox_conf
I0609 08:37:54.348532 27019 net.cpp:150] Setting up conv7_2_mbox_conf
I0609 08:37:54.348577 27019 net.cpp:157] Top shape: 1 126 5 5 (3150)
I0609 08:37:54.348582 27019 net.cpp:165] Memory required for data: 249965440
I0609 08:37:54.348598 27019 layer_factory.hpp:77] Creating layer conv7_2_mbox_conf_perm
I0609 08:37:54.348613 27019 net.cpp:100] Creating Layer conv7_2_mbox_conf_perm
I0609 08:37:54.348625 27019 net.cpp:434] conv7_2_mbox_conf_perm <- conv7_2_mbox_conf
I0609 08:37:54.348635 27019 net.cpp:408] conv7_2_mbox_conf_perm -> conv7_2_mbox_conf_perm
I0609 08:37:54.348915 27019 net.cpp:150] Setting up conv7_2_mbox_conf_perm
I0609 08:37:54.348929 27019 net.cpp:157] Top shape: 1 5 5 126 (3150)
I0609 08:37:54.348934 27019 net.cpp:165] Memory required for data: 249978040
I0609 08:37:54.348939 27019 layer_factory.hpp:77] Creating layer conv7_2_mbox_conf_flat
I0609 08:37:54.348948 27019 net.cpp:100] Creating Layer conv7_2_mbox_conf_flat
I0609 08:37:54.348954 27019 net.cpp:434] conv7_2_mbox_conf_flat <- conv7_2_mbox_conf_perm
I0609 08:37:54.348961 27019 net.cpp:408] conv7_2_mbox_conf_flat -> conv7_2_mbox_conf_flat
I0609 08:37:54.349004 27019 net.cpp:150] Setting up conv7_2_mbox_conf_flat
I0609 08:37:54.349020 27019 net.cpp:157] Top shape: 1 3150 (3150)
I0609 08:37:54.349025 27019 net.cpp:165] Memory required for data: 249990640
I0609 08:37:54.349030 27019 layer_factory.hpp:77] Creating layer conv7_2_mbox_priorbox
I0609 08:37:54.349040 27019 net.cpp:100] Creating Layer conv7_2_mbox_priorbox
I0609 08:37:54.349048 27019 net.cpp:434] conv7_2_mbox_priorbox <- conv7_2_conv7_2_relu_0_split_3
I0609 08:37:54.349056 27019 net.cpp:434] conv7_2_mbox_priorbox <- data_data_0_split_4
I0609 08:37:54.349062 27019 net.cpp:408] conv7_2_mbox_priorbox -> conv7_2_mbox_priorbox
I0609 08:37:54.349107 27019 net.cpp:150] Setting up conv7_2_mbox_priorbox
I0609 08:37:54.349119 27019 net.cpp:157] Top shape: 1 2 600 (1200)
I0609 08:37:54.349124 27019 net.cpp:165] Memory required for data: 249995440
I0609 08:37:54.349130 27019 layer_factory.hpp:77] Creating layer conv8_2_mbox_loc
I0609 08:37:54.349145 27019 net.cpp:100] Creating Layer conv8_2_mbox_loc
I0609 08:37:54.349153 27019 net.cpp:434] conv8_2_mbox_loc <- conv8_2_conv8_2_relu_0_split_1
I0609 08:37:54.349162 27019 net.cpp:408] conv8_2_mbox_loc -> conv8_2_mbox_loc
I0609 08:37:54.351938 27019 net.cpp:150] Setting up conv8_2_mbox_loc
I0609 08:37:54.351963 27019 net.cpp:157] Top shape: 1 16 3 3 (144)
I0609 08:37:54.351970 27019 net.cpp:165] Memory required for data: 249996016
I0609 08:37:54.352001 27019 layer_factory.hpp:77] Creating layer conv8_2_mbox_loc_perm
I0609 08:37:54.352023 27019 net.cpp:100] Creating Layer conv8_2_mbox_loc_perm
I0609 08:37:54.352030 27019 net.cpp:434] conv8_2_mbox_loc_perm <- conv8_2_mbox_loc
I0609 08:37:54.352041 27019 net.cpp:408] conv8_2_mbox_loc_perm -> conv8_2_mbox_loc_perm
I0609 08:37:54.352319 27019 net.cpp:150] Setting up conv8_2_mbox_loc_perm
I0609 08:37:54.352332 27019 net.cpp:157] Top shape: 1 3 3 16 (144)
I0609 08:37:54.352339 27019 net.cpp:165] Memory required for data: 249996592
I0609 08:37:54.352345 27019 layer_factory.hpp:77] Creating layer conv8_2_mbox_loc_flat
I0609 08:37:54.352356 27019 net.cpp:100] Creating Layer conv8_2_mbox_loc_flat
I0609 08:37:54.352365 27019 net.cpp:434] conv8_2_mbox_loc_flat <- conv8_2_mbox_loc_perm
I0609 08:37:54.352375 27019 net.cpp:408] conv8_2_mbox_loc_flat -> conv8_2_mbox_loc_flat
I0609 08:37:54.352427 27019 net.cpp:150] Setting up conv8_2_mbox_loc_flat
I0609 08:37:54.352445 27019 net.cpp:157] Top shape: 1 144 (144)
I0609 08:37:54.352474 27019 net.cpp:165] Memory required for data: 249997168
I0609 08:37:54.352481 27019 layer_factory.hpp:77] Creating layer conv8_2_mbox_conf
I0609 08:37:54.352499 27019 net.cpp:100] Creating Layer conv8_2_mbox_conf
I0609 08:37:54.352505 27019 net.cpp:434] conv8_2_mbox_conf <- conv8_2_conv8_2_relu_0_split_2
I0609 08:37:54.352515 27019 net.cpp:408] conv8_2_mbox_conf -> conv8_2_mbox_conf
I0609 08:37:54.358945 27019 net.cpp:150] Setting up conv8_2_mbox_conf
I0609 08:37:54.358985 27019 net.cpp:157] Top shape: 1 84 3 3 (756)
I0609 08:37:54.358991 27019 net.cpp:165] Memory required for data: 250000192
I0609 08:37:54.359002 27019 layer_factory.hpp:77] Creating layer conv8_2_mbox_conf_perm
I0609 08:37:54.359024 27019 net.cpp:100] Creating Layer conv8_2_mbox_conf_perm
I0609 08:37:54.359032 27019 net.cpp:434] conv8_2_mbox_conf_perm <- conv8_2_mbox_conf
I0609 08:37:54.359043 27019 net.cpp:408] conv8_2_mbox_conf_perm -> conv8_2_mbox_conf_perm
I0609 08:37:54.359323 27019 net.cpp:150] Setting up conv8_2_mbox_conf_perm
I0609 08:37:54.359339 27019 net.cpp:157] Top shape: 1 3 3 84 (756)
I0609 08:37:54.359345 27019 net.cpp:165] Memory required for data: 250003216
I0609 08:37:54.359350 27019 layer_factory.hpp:77] Creating layer conv8_2_mbox_conf_flat
I0609 08:37:54.359360 27019 net.cpp:100] Creating Layer conv8_2_mbox_conf_flat
I0609 08:37:54.359366 27019 net.cpp:434] conv8_2_mbox_conf_flat <- conv8_2_mbox_conf_perm
I0609 08:37:54.359377 27019 net.cpp:408] conv8_2_mbox_conf_flat -> conv8_2_mbox_conf_flat
I0609 08:37:54.359426 27019 net.cpp:150] Setting up conv8_2_mbox_conf_flat
I0609 08:37:54.359438 27019 net.cpp:157] Top shape: 1 756 (756)
I0609 08:37:54.359446 27019 net.cpp:165] Memory required for data: 250006240
I0609 08:37:54.359452 27019 layer_factory.hpp:77] Creating layer conv8_2_mbox_priorbox
I0609 08:37:54.359464 27019 net.cpp:100] Creating Layer conv8_2_mbox_priorbox
I0609 08:37:54.359472 27019 net.cpp:434] conv8_2_mbox_priorbox <- conv8_2_conv8_2_relu_0_split_3
I0609 08:37:54.359479 27019 net.cpp:434] conv8_2_mbox_priorbox <- data_data_0_split_5
I0609 08:37:54.359488 27019 net.cpp:408] conv8_2_mbox_priorbox -> conv8_2_mbox_priorbox
I0609 08:37:54.359541 27019 net.cpp:150] Setting up conv8_2_mbox_priorbox
I0609 08:37:54.359555 27019 net.cpp:157] Top shape: 1 2 144 (288)
I0609 08:37:54.359560 27019 net.cpp:165] Memory required for data: 250007392
I0609 08:37:54.359565 27019 layer_factory.hpp:77] Creating layer conv9_2_mbox_loc
I0609 08:37:54.359582 27019 net.cpp:100] Creating Layer conv9_2_mbox_loc
I0609 08:37:54.359589 27019 net.cpp:434] conv9_2_mbox_loc <- conv9_2_conv9_2_relu_0_split_0
I0609 08:37:54.359606 27019 net.cpp:408] conv9_2_mbox_loc -> conv9_2_mbox_loc
I0609 08:37:54.362722 27019 net.cpp:150] Setting up conv9_2_mbox_loc
I0609 08:37:54.362754 27019 net.cpp:157] Top shape: 1 16 1 1 (16)
I0609 08:37:54.362761 27019 net.cpp:165] Memory required for data: 250007456
I0609 08:37:54.362772 27019 layer_factory.hpp:77] Creating layer conv9_2_mbox_loc_perm
I0609 08:37:54.362787 27019 net.cpp:100] Creating Layer conv9_2_mbox_loc_perm
I0609 08:37:54.362794 27019 net.cpp:434] conv9_2_mbox_loc_perm <- conv9_2_mbox_loc
I0609 08:37:54.362805 27019 net.cpp:408] conv9_2_mbox_loc_perm -> conv9_2_mbox_loc_perm
I0609 08:37:54.363111 27019 net.cpp:150] Setting up conv9_2_mbox_loc_perm
I0609 08:37:54.363127 27019 net.cpp:157] Top shape: 1 1 1 16 (16)
I0609 08:37:54.363133 27019 net.cpp:165] Memory required for data: 250007520
I0609 08:37:54.363139 27019 layer_factory.hpp:77] Creating layer conv9_2_mbox_loc_flat
I0609 08:37:54.363149 27019 net.cpp:100] Creating Layer conv9_2_mbox_loc_flat
I0609 08:37:54.363155 27019 net.cpp:434] conv9_2_mbox_loc_flat <- conv9_2_mbox_loc_perm
I0609 08:37:54.363163 27019 net.cpp:408] conv9_2_mbox_loc_flat -> conv9_2_mbox_loc_flat
I0609 08:37:54.363214 27019 net.cpp:150] Setting up conv9_2_mbox_loc_flat
I0609 08:37:54.363227 27019 net.cpp:157] Top shape: 1 16 (16)
I0609 08:37:54.363232 27019 net.cpp:165] Memory required for data: 250007584
I0609 08:37:54.363265 27019 layer_factory.hpp:77] Creating layer conv9_2_mbox_conf
I0609 08:37:54.363282 27019 net.cpp:100] Creating Layer conv9_2_mbox_conf
I0609 08:37:54.363289 27019 net.cpp:434] conv9_2_mbox_conf <- conv9_2_conv9_2_relu_0_split_1
I0609 08:37:54.363301 27019 net.cpp:408] conv9_2_mbox_conf -> conv9_2_mbox_conf
I0609 08:37:54.369977 27019 net.cpp:150] Setting up conv9_2_mbox_conf
I0609 08:37:54.370012 27019 net.cpp:157] Top shape: 1 84 1 1 (84)
I0609 08:37:54.370016 27019 net.cpp:165] Memory required for data: 250007920
I0609 08:37:54.370030 27019 layer_factory.hpp:77] Creating layer conv9_2_mbox_conf_perm
I0609 08:37:54.370041 27019 net.cpp:100] Creating Layer conv9_2_mbox_conf_perm
I0609 08:37:54.370061 27019 net.cpp:434] conv9_2_mbox_conf_perm <- conv9_2_mbox_conf
I0609 08:37:54.370071 27019 net.cpp:408] conv9_2_mbox_conf_perm -> conv9_2_mbox_conf_perm
I0609 08:37:54.370404 27019 net.cpp:150] Setting up conv9_2_mbox_conf_perm
I0609 08:37:54.370419 27019 net.cpp:157] Top shape: 1 1 1 84 (84)
I0609 08:37:54.370424 27019 net.cpp:165] Memory required for data: 250008256
I0609 08:37:54.370431 27019 layer_factory.hpp:77] Creating layer conv9_2_mbox_conf_flat
I0609 08:37:54.370445 27019 net.cpp:100] Creating Layer conv9_2_mbox_conf_flat
I0609 08:37:54.370460 27019 net.cpp:434] conv9_2_mbox_conf_flat <- conv9_2_mbox_conf_perm
I0609 08:37:54.370476 27019 net.cpp:408] conv9_2_mbox_conf_flat -> conv9_2_mbox_conf_flat
I0609 08:37:54.370540 27019 net.cpp:150] Setting up conv9_2_mbox_conf_flat
I0609 08:37:54.370554 27019 net.cpp:157] Top shape: 1 84 (84)
I0609 08:37:54.370565 27019 net.cpp:165] Memory required for data: 250008592
I0609 08:37:54.370581 27019 layer_factory.hpp:77] Creating layer conv9_2_mbox_priorbox
I0609 08:37:54.370601 27019 net.cpp:100] Creating Layer conv9_2_mbox_priorbox
I0609 08:37:54.370609 27019 net.cpp:434] conv9_2_mbox_priorbox <- conv9_2_conv9_2_relu_0_split_2
I0609 08:37:54.370617 27019 net.cpp:434] conv9_2_mbox_priorbox <- data_data_0_split_6
I0609 08:37:54.370631 27019 net.cpp:408] conv9_2_mbox_priorbox -> conv9_2_mbox_priorbox
I0609 08:37:54.370707 27019 net.cpp:150] Setting up conv9_2_mbox_priorbox
I0609 08:37:54.370721 27019 net.cpp:157] Top shape: 1 2 16 (32)
I0609 08:37:54.370726 27019 net.cpp:165] Memory required for data: 250008720
I0609 08:37:54.370733 27019 layer_factory.hpp:77] Creating layer mbox_loc
I0609 08:37:54.370748 27019 net.cpp:100] Creating Layer mbox_loc
I0609 08:37:54.370764 27019 net.cpp:434] mbox_loc <- conv4_3_norm_mbox_loc_flat
I0609 08:37:54.370779 27019 net.cpp:434] mbox_loc <- fc7_mbox_loc_flat
I0609 08:37:54.370807 27019 net.cpp:434] mbox_loc <- conv6_2_mbox_loc_flat
I0609 08:37:54.370820 27019 net.cpp:434] mbox_loc <- conv7_2_mbox_loc_flat
I0609 08:37:54.370827 27019 net.cpp:434] mbox_loc <- conv8_2_mbox_loc_flat
I0609 08:37:54.370834 27019 net.cpp:434] mbox_loc <- conv9_2_mbox_loc_flat
I0609 08:37:54.370854 27019 net.cpp:408] mbox_loc -> mbox_loc
I0609 08:37:54.370937 27019 net.cpp:150] Setting up mbox_loc
I0609 08:37:54.370983 27019 net.cpp:157] Top shape: 1 34928 (34928)
I0609 08:37:54.370990 27019 net.cpp:165] Memory required for data: 250148432
I0609 08:37:54.370999 27019 layer_factory.hpp:77] Creating layer mbox_conf
I0609 08:37:54.371018 27019 net.cpp:100] Creating Layer mbox_conf
I0609 08:37:54.371033 27019 net.cpp:434] mbox_conf <- conv4_3_norm_mbox_conf_flat
I0609 08:37:54.371047 27019 net.cpp:434] mbox_conf <- fc7_mbox_conf_flat
I0609 08:37:54.371054 27019 net.cpp:434] mbox_conf <- conv6_2_mbox_conf_flat
I0609 08:37:54.371062 27019 net.cpp:434] mbox_conf <- conv7_2_mbox_conf_flat
I0609 08:37:54.371074 27019 net.cpp:434] mbox_conf <- conv8_2_mbox_conf_flat
I0609 08:37:54.371088 27019 net.cpp:434] mbox_conf <- conv9_2_mbox_conf_flat
I0609 08:37:54.371104 27019 net.cpp:408] mbox_conf -> mbox_conf
I0609 08:37:54.371203 27019 net.cpp:150] Setting up mbox_conf
I0609 08:37:54.371217 27019 net.cpp:157] Top shape: 1 183372 (183372)
I0609 08:37:54.371228 27019 net.cpp:165] Memory required for data: 250881920
I0609 08:37:54.371239 27019 layer_factory.hpp:77] Creating layer mbox_priorbox
I0609 08:37:54.371289 27019 net.cpp:100] Creating Layer mbox_priorbox
I0609 08:37:54.371304 27019 net.cpp:434] mbox_priorbox <- conv4_3_norm_mbox_priorbox
I0609 08:37:54.371318 27019 net.cpp:434] mbox_priorbox <- fc7_mbox_priorbox
I0609 08:37:54.371333 27019 net.cpp:434] mbox_priorbox <- conv6_2_mbox_priorbox
I0609 08:37:54.371341 27019 net.cpp:434] mbox_priorbox <- conv7_2_mbox_priorbox
I0609 08:37:54.371348 27019 net.cpp:434] mbox_priorbox <- conv8_2_mbox_priorbox
I0609 08:37:54.371356 27019 net.cpp:434] mbox_priorbox <- conv9_2_mbox_priorbox
I0609 08:37:54.371368 27019 net.cpp:408] mbox_priorbox -> mbox_priorbox
I0609 08:37:54.371459 27019 net.cpp:150] Setting up mbox_priorbox
I0609 08:37:54.371477 27019 net.cpp:157] Top shape: 1 2 34928 (69856)
I0609 08:37:54.371484 27019 net.cpp:165] Memory required for data: 251161344
I0609 08:37:54.371490 27019 layer_factory.hpp:77] Creating layer mbox_conf_reshape
I0609 08:37:54.371515 27019 net.cpp:100] Creating Layer mbox_conf_reshape
I0609 08:37:54.371531 27019 net.cpp:434] mbox_conf_reshape <- mbox_conf
I0609 08:37:54.371552 27019 net.cpp:408] mbox_conf_reshape -> mbox_conf_reshape
I0609 08:37:54.371629 27019 net.cpp:150] Setting up mbox_conf_reshape
I0609 08:37:54.371642 27019 net.cpp:157] Top shape: 1 8732 21 (183372)
I0609 08:37:54.371649 27019 net.cpp:165] Memory required for data: 251894832
I0609 08:37:54.371654 27019 layer_factory.hpp:77] Creating layer mbox_conf_softmax
I0609 08:37:54.371668 27019 net.cpp:100] Creating Layer mbox_conf_softmax
I0609 08:37:54.371675 27019 net.cpp:434] mbox_conf_softmax <- mbox_conf_reshape
I0609 08:37:54.371682 27019 net.cpp:408] mbox_conf_softmax -> mbox_conf_softmax
I0609 08:37:54.372144 27019 net.cpp:150] Setting up mbox_conf_softmax
I0609 08:37:54.372169 27019 net.cpp:157] Top shape: 1 8732 21 (183372)
I0609 08:37:54.372174 27019 net.cpp:165] Memory required for data: 252628320
I0609 08:37:54.372179 27019 layer_factory.hpp:77] Creating layer mbox_conf_flatten
I0609 08:37:54.372189 27019 net.cpp:100] Creating Layer mbox_conf_flatten
I0609 08:37:54.372195 27019 net.cpp:434] mbox_conf_flatten <- mbox_conf_softmax
I0609 08:37:54.372202 27019 net.cpp:408] mbox_conf_flatten -> mbox_conf_flatten
I0609 08:37:54.372272 27019 net.cpp:150] Setting up mbox_conf_flatten
I0609 08:37:54.372285 27019 net.cpp:157] Top shape: 1 183372 (183372)
I0609 08:37:54.372292 27019 net.cpp:165] Memory required for data: 253361808
I0609 08:37:54.372298 27019 layer_factory.hpp:77] Creating layer detection_out
I0609 08:37:54.372324 27019 net.cpp:100] Creating Layer detection_out
I0609 08:37:54.372335 27019 net.cpp:434] detection_out <- mbox_loc
I0609 08:37:54.372342 27019 net.cpp:434] detection_out <- mbox_conf_flatten
I0609 08:37:54.372349 27019 net.cpp:434] detection_out <- mbox_priorbox
I0609 08:37:54.372360 27019 net.cpp:408] detection_out -> detection_out
I0609 08:37:54.376400 27019 net.cpp:150] Setting up detection_out
I0609 08:37:54.376443 27019 net.cpp:157] Top shape: 1 1 1 7 (7)
I0609 08:37:54.376452 27019 net.cpp:165] Memory required for data: 253361836
I0609 08:37:54.376461 27019 layer_factory.hpp:77] Creating layer detection_eval
I0609 08:37:54.386894 27019 net.cpp:100] Creating Layer detection_eval
I0609 08:37:54.386932 27019 net.cpp:434] detection_eval <- detection_out
I0609 08:37:54.386945 27019 net.cpp:434] detection_eval <- label
I0609 08:37:54.386957 27019 net.cpp:408] detection_eval -> detection_eval
I0609 08:37:54.394223 27019 net.cpp:150] Setting up detection_eval
I0609 08:37:54.394290 27019 net.cpp:157] Top shape: 1 1 21 5 (105)
I0609 08:37:54.394311 27019 net.cpp:165] Memory required for data: 253362256
I0609 08:37:54.394335 27019 net.cpp:228] detection_eval does not need backward computation.
I0609 08:37:54.394356 27019 net.cpp:228] detection_out does not need backward computation.
I0609 08:37:54.394376 27019 net.cpp:228] mbox_conf_flatten does not need backward computation.
I0609 08:37:54.394393 27019 net.cpp:228] mbox_conf_softmax does not need backward computation.
…
