…
      sampler {
        min_scale: 0.3
        max_scale: 1
        min_aspect_ratio: 0.5
        max_aspect_ratio: 2
      }
      sample_constraint {
        min_jaccard_overlap: 0.9
      }
      max_sample: 1
      max_trials: 50
    }
    batch_sampler {
      sampler {
        min_scale: 0.3
        max_scale: 1
        min_aspect_ratio: 0.5
        max_aspect_ratio: 2
      }
      sample_constraint {
        max_jaccard_overlap: 1
      }
      max_sample: 1
      max_trials: 50
    }
    label_map_file: "data/VOC0712/labelmap_voc.prototxt"
  }
}
layer {
  name: "conv1_1"
  type: "Convolution"
  bottom: "data"
  top: "conv1_1"
  param {
    lr_mult: 1
    decay_mult: 1
  }
  param {
    lr_mult: 2
    decay_mult: 0
  }
  convolution_param {
    num_output: 64
    pad: 1
    kernel_size: 3
    weight_filler {
      type: "xavier"
    }
    bias_filler {
      type: "constant"
      value: 0
    }
  }
}
layer {
  name: "relu1_1"
  type: "ReLU"
  bottom: "conv1_1"
  top: "conv1_1"
}
layer {
  name: "conv1_2"
  type: "Convolution"
  bottom: "conv1_1"
  top: "conv1_2"
  param {
    lr_mult: 1
    decay_mult: 1
  }
  param {
    lr_mult: 2
    decay_mult: 0
  }
  convolution_param {
    num_output: 64
    pad: 1
    kernel_size: 3
    weight_filler {
      type: "xavier"
    }
    bias_filler {
      type: "constant"
      value: 0
    }
  }
}
layer {
  name: "relu1_2"
  type: "ReLU"
  bottom: "conv1_2"
  top: "conv1_2"
}
layer {
  name: "pool1"
  type: "Pooling"
  bottom: "conv1_2"
  top: "pool1"
  pooling_param {
    pool: MAX
    kernel_size: 2
    stride: 2
  }
}
layer {
  name: "conv2_1"
  type: "Convolution"
  bottom: "pool1"
  top: "conv2_1"
  param {
    lr_mult: 1
    decay_mult: 1
  }
  param {
    lr_mult: 2
    decay_mult: 0
  }
  convolution_param {
    num_output: 128
    pad: 1
    kernel_size: 3
    weight_filler {
      type: "xavier"
    }
    bias_filler {
      type: "constant"
      value: 0
    }
  }
}
layer {
  name: "relu2_1"
  type: "ReLU"
  bottom: "conv2_1"
  top: "conv2_1"
}
layer {
  name: "conv2_2"
  type: "Convolution"
  bottom: "conv2_1"
  top: "conv2_2"
  param {
    lr_mult: 1
    decay_mult: 1
  }
  param {
    lr_mult: 2
    decay_mult: 0
  }
  convolution_param {
    num_output: 128
    pad: 1
    kernel_size: 3
    weight_filler {
      type: "xavier"
    }
    bias_filler {
      type: "constant"
      value: 0
    }
  }
}
layer {
  name: "relu2_2"
  type: "ReLU"
  bottom: "conv2_2"
  top: "conv2_2"
}
layer {
  name: "pool2"
  type: "Pooling"
  bottom: "conv2_2"
  top: "pool2"
  pooling_param {
    pool: MAX
    kernel_size: 2
    stride: 2
  }
}
layer {
  name: "conv3_1"
  type: "Convolution"
  bottom: "pool2"
  top: "conv3_1"
  param {
    lr_mult: 1
    decay_mult: 1
  }
  param {
    lr_mult: 2
    decay_mult: 0
  }
  convolution_param {
    num_output: 256
    pad: 1
    kernel_size: 3
    weight_filler {
      type: "xavier"
    }
    bias_filler {
      type: "constant"
      value: 0
    }
  }
}
layer {
  name: "relu3_1"
  type: "ReLU"
  bottom: "conv3_1"
  top: "conv3_1"
}
layer {
  name: "conv3_2"
  type: "Convolution"
  bottom: "conv3_1"
  top: "conv3_2"
  param {
    lr_mult: 1
    decay_mult: 1
  }
  param {
    lr_mult: 2
    decay_mult: 0
  }
  convolution_param {
    num_output: 256
    pad: 1
    kernel_size: 3
    weight_filler {
      type: "xavier"
    }
    bias_filler {
      type: "constant"
      value: 0
    }
  }
}
layer {
  name: "relu3_2"
  type: "ReLU"
  bottom: "conv3_2"
  top: "conv3_2"
}
layer {
  name: "conv3_3"
  type: "Convolution"
  bottom: "conv3_2"
  top: "conv3_3"
  param {
    lr_mult: 1
    decay_mult: 1
  }
  param {
    lr_mult: 2
    decay_mult: 0
  }
  convolution_param {
    num_output: 256
    pad: 1
    kernel_size: 3
    weight_filler {
      type: "xavier"
    }
    bias_filler {
      type: "constant"
      value: 0
    }
  }
}
layer {
  name: "relu3_3"
  type: "ReLU"
  bottom: "conv3_3"
  top: "conv3_3"
}
layer {
  name: "pool3"
  type: "Pooling"
  bottom: "conv3_3"
  top: "pool3"
  pooling_param {
    pool: MAX
    kernel_size: 2
    stride: 2
  }
}
layer {
  name: "conv4_1"
  type: "Convolution"
  bottom: "pool3"
  top: "conv4_1"
  param {
    lr_mult: 1
    decay_mult: 1
  }
  param {
    lr_mult: 2
    decay_mult: 0
  }
  convolution_param {
    num_output: 512
    pad: 1
    kernel_size: 3
    weight_filler {
      type: "xavier"
    }
    bias_filler {
      type: "constant"
      value: 0
    }
  }
}
layer {
  name: "relu4_1"
  type: "ReLU"
  bottom: "conv4_1"
  top: "conv4_1"
}
layer {
  name: "conv4_2"
  type: "Convolution"
  bottom: "conv4_1"
  top: "conv4_2"
  param {
    lr_mult: 1
    decay_mult: 1
  }
  param {
    lr_mult: 2
    decay_mult: 0
  }
  convolution_param {
    num_output: 512
    pad: 1
    kernel_size: 3
    weight_filler {
      type: "xavier"
    }
    bias_filler {
      type: "constant"
      value: 0
    }
  }
}
layer {
  name: "relu4_2"
  type: "ReLU"
  bottom: "conv4_2"
  top: "conv4_2"
}
layer {
  name: "conv4_3"
  type: "Convolution"
  bottom: "conv4_2"
  top: "conv4_3"
  param {
    lr_mult: 1
    decay_mult: 1
  }
  param {
    lr_mult: 2
    decay_mult: 0
  }
  convolution_param {
    num_output: 512
    pad: 1
    kernel_size: 3
    weight_filler {
      type: "xavier"
    }
    bias_filler {
      type: "constant"
      value: 0
    }
  }
}
layer {
  name: "relu4_3"
  type: "ReLU"
  bottom: "conv4_3"
  top: "conv4_3"
}
layer {
  name: "pool4"
  type: "Pooling"
  bottom: "conv4_3"
  top: "pool4"
  pooling_param {
    pool: MAX
    kernel_size: 2
    stride: 2
  }
}
layer {
  name: "conv5_1"
  type: "Convolution"
  bottom: "pool4"
  top: "conv5_1"
  param {
    lr_mult: 1
    decay_mult: 1
  }
  param {
    lr_mult: 2
    decay_mult: 0
  }
  convolution_param {
    num_output: 512
    pad: 1
    kernel_size: 3
    weight_filler {
      type: "xavier"
    }
    bias_filler {
      type: "constant"
      value: 0
    }
    dilation: 1
  }
}
layer {
  name: "relu5_1"
  type: "ReLU"
  bottom: "conv5_1"
  top: "conv5_1"
}
layer {
  name: "conv5_2"
  type: "Convolution"
  bottom: "conv5_1"
  top: "conv5_2"
  param {
    lr_mult: 1
    decay_mult: 1
  }
  param {
    lr_mult: 2
    decay_mult: 0
  }
  convolution_param {
    num_output: 512
    pad: 1
    kernel_size: 3
    weight_filler {
      type: "xavier"
    }
    bias_filler {
      type: "constant"
      value: 0
    }
    dilation: 1
  }
}
layer {
  name: "relu5_2"
  type: "ReLU"
  bottom: "conv5_2"
  top: "conv5_2"
}
layer {
  name: "conv5_3"
  type: "Convolution"
  bottom: "conv5_2"
  top: "conv5_3"
  param {
    lr_mult: 1
    decay_mult: 1
  }
  param {
    lr_mult: 2
    decay_mult: 0
  }
  convolution_param {
    num_output: 512
    pad: 1
    kernel_size: 3
    weight_filler {
      type: "xavier"
    }
    bias_filler {
      type: "constant"
      value: 0
    }
    dilation: 1
  }
}
layer {
  name: "relu5_3"
  type: "ReLU"
  bottom: "conv5_3"
  top: "conv5_3"
}
layer {
  name: "pool5"
  type: "Pooling"
  bottom: "conv5_3"
  top: "pool5"
  pooling_param {
    pool: MAX
    kernel_size: 3
    stride: 1
    pad: 1
  }
}
layer {
  name: "fc6"
  type: "Convolution"
  bottom: "pool5"
  top: "fc6"
  param {
    lr_mult: 1
    decay_mult: 1
  }
  param {
    lr_mult: 2
    decay_mult: 0
  }
  convolution_param {
    num_output: 1024
    pad: 6
    kernel_size: 3
    weight_filler {
      type: "xavier"
    }
    bias_filler {
      type: "constant"
      value: 0
    }
    dilation: 6
  }
}
layer {
  name: "relu6"
  type: "ReLU"
  bottom: "fc6"
  top: "fc6"
}
layer {
  name: "fc7"
  type: "Convolution"
  bottom: "fc6"
  top: "fc7"
  param {
    lr_mult: 1
    decay_mult: 1
  }
  param {
    lr_mult: 2
    decay_mult: 0
  }
  convolution_param {
    num_output: 1024
    kernel_size: 1
    weight_filler {
      type: "xavier"
    }
    bias_filler {
      type: "constant"
      value: 0
    }
  }
}
layer {
  name: "relu7"
  type: "ReLU"
  bottom: "fc7"
  top: "fc7"
}
layer {
  name: "conv6_1"
  type: "Convolution"
  bottom: "fc7"
  top: "conv6_1"
  param {
    lr_mult: 1
    decay_mult: 1
  }
  param {
    lr_mult: 2
    decay_mult: 0
  }
  convolution_param {
    num_output: 256
    pad: 0
    kernel_size: 1
    stride: 1
    weight_filler {
      type: "xavier"
    }
    bias_filler {
      type: "constant"
      value: 0
    }
  }
}
layer {
  name: "conv6_1_relu"
  type: "ReLU"
  bottom: "conv6_1"
  top: "conv6_1"
}
layer {
  name: "conv6_2"
  type: "Convolution"
  bottom: "conv6_1"
  top: "conv6_2"
  param {
    lr_mult: 1
    decay_mult: 1
  }
  param {
    lr_mult: 2
    decay_mult: 0
  }
  convolution_param {
    num_output: 512
    pad: 1
    kernel_size: 3
    stride: 2
    weight_filler {
      type: "xavier"
    }
    bias_filler {
      type: "constant"
      value: 0
    }
  }
}
layer {
  name: "conv6_2_relu"
  type: "ReLU"
  bottom: "conv6_2"
  top: "conv6_2"
}
layer {
  name: "conv7_1"
  type: "Convolution"
  bottom: "conv6_2"
  top: "conv7_1"
  param {
    lr_mult: 1
    decay_mult: 1
  }
  param {
    lr_mult: 2
    decay_mult: 0
  }
  convolution_param {
    num_output: 128
    pad: 0
    kernel_size: 1
    stride: 1
    weight_filler {
      type: "xavier"
    }
    bias_filler {
      type: "constant"
      value: 0
    }
  }
}
layer {
  name: "conv7_1_relu"
  type: "ReLU"
  bottom: "conv7_1"
  top: "conv7_1"
}
layer {
  name: "conv7_2"
  type: "Convolution"
  bottom: "conv7_1"
  top: "conv7_2"
  param {
    lr_mult: 1
    decay_mult: 1
  }
  param {
    lr_mult: 2
    decay_mult: 0
  }
  convolution_param {
    num_output: 256
    pad: 1
    kernel_size: 3
    stride: 2
    weight_filler {
      type: "xavier"
    }
    bias_filler {
      type: "constant"
      value: 0
    }
  }
}
layer {
  name: "conv7_2_relu"
  type: "ReLU"
  bottom: "conv7_2"
  top: "conv7_2"
}
layer {
  name: "conv8_1"
  type: "Convolution"
  bottom: "conv7_2"
  top: "conv8_1"
  param {
    lr_mult: 1
    decay_mult: 1
  }
  param {
    lr_mult: 2
    decay_mult: 0
  }
  convolution_param {
    num_output: 128
    pad: 0
    kernel_size: 1
    stride: 1
    weight_filler {
      type: "xavier"
    }
    bias_filler {
      type: "constant"
      value: 0
    }
  }
}
layer {
  name: "conv8_1_relu"
  type: "ReLU"
  bottom: "conv8_1"
  top: "conv8_1"
}
layer {
  name: "conv8_2"
  type: "Convolution"
  bottom: "conv8_1"
  top: "conv8_2"
  param {
    lr_mult: 1
    decay_mult: 1
  }
  param {
    lr_mult: 2
    decay_mult: 0
  }
  convolution_param {
    num_output: 256
    pad: 0
    kernel_size: 3
    stride: 1
    weight_filler {
      type: "xavier"
    }
    bias_filler {
      type: "constant"
      value: 0
    }
  }
}
layer {
  name: "conv8_2_relu"
  type: "ReLU"
  bottom: "conv8_2"
  top: "conv8_2"
}
layer {
  name: "conv9_1"
  type: "Convolution"
  bottom: "conv8_2"
  top: "conv9_1"
  param {
    lr_mult: 1
    decay_mult: 1
  }
  param {
    lr_mult: 2
    decay_mult: 0
  }
  convolution_param {
    num_output: 128
    pad: 0
    kernel_size: 1
    stride: 1
    weight_filler {
      type: "xavier"
    }
    bias_filler {
      type: "constant"
      value: 0
    }
  }
}
layer {
  name: "conv9_1_relu"
  type: "ReLU"
  bottom: "conv9_1"
  top: "conv9_1"
}
layer {
  name: "conv9_2"
  type: "Convolution"
  bottom: "conv9_1"
  top: "conv9_2"
  param {
    lr_mult: 1
    decay_mult: 1
  }
  param {
    lr_mult: 2
    decay_mult: 0
  }
  convolution_param {
    num_output: 256
    pad: 0
    kernel_size: 3
    stride: 1
    weight_filler {
      type: "xavier"
    }
    bias_filler {
      type: "constant"
      value: 0
    }
  }
}
layer {
  name: "conv9_2_relu"
  type: "ReLU"
  bottom: "conv9_2"
  top: "conv9_2"
}
layer {
  name: "conv4_3_norm"
  type: "Normalize"
  bottom: "conv4_3"
  top: "conv4_3_norm"
  norm_param {
    across_spatial: false
    scale_filler {
      type: "constant"
      value: 20
    }
    channel_shared: false
  }
}
layer {
  name: "conv4_3_norm_mbox_loc"
  type: "Convolution"
  bottom: "conv4_3_norm"
  top: "conv4_3_norm_mbox_loc"
  param {
    lr_mult: 1
    decay_mult: 1
  }
  param {
    lr_mult: 2
    decay_mult: 0
  }
  convolution_param {
    num_output: 16
    pad: 1
    kernel_size: 3
    stride: 1
    weight_filler {
      type: "xavier"
    }
    bias_filler {
      type: "constant"
      value: 0
    }
  }
}
layer {
  name: "conv4_3_norm_mbox_loc_perm"
  type: "Permute"
  bottom: "conv4_3_norm_mbox_loc"
  top: "conv4_3_norm_mbox_loc_perm"
  permute_param {
    order: 0
    order: 2
    order: 3
    order: 1
  }
}
layer {
  name: "conv4_3_norm_mbox_loc_flat"
  type: "Flatten"
  bottom: "conv4_3_norm_mbox_loc_perm"
  top: "conv4_3_norm_mbox_loc_flat"
  flatten_param {
    axis: 1
  }
}
layer {
  name: "conv4_3_norm_mbox_conf"
  type: "Convolution"
  bottom: "conv4_3_norm"
  top: "conv4_3_norm_mbox_conf"
  param {
    lr_mult: 1
    decay_mult: 1
  }
  param {
    lr_mult: 2
    decay_mult: 0
  }
  convolution_param {
    num_output: 84
    pad: 1
    kernel_size: 3
    stride: 1
    weight_filler {
      type: "xavier"
    }
    bias_filler {
      type: "constant"
      value: 0
    }
  }
}
layer {
  name: "conv4_3_norm_mbox_conf_perm"
  type: "Permute"
  bottom: "conv4_3_norm_mbox_conf"
  top: "conv4_3_norm_mbox_conf_perm"
  permute_param {
    order: 0
    order: 2
    order: 3
    order: 1
  }
}
layer {
  name: "conv4_3_norm_mbox_conf_flat"
  type: "Flatten"
  bottom: "conv4_3_norm_mbox_conf_perm"
  top: "conv4_3_norm_mbox_conf_flat"
  flatten_param {
    axis: 1
  }
}
layer {
  name: "conv4_3_norm_mbox_priorbox"
  type: "PriorBox"
  bottom: "conv4_3_norm"
  bottom: "data"
  top: "conv4_3_norm_mbox_priorbox"
  prior_box_param {
    min_size: 30
    max_size: 60
    aspect_ratio: 2
    flip: true
    clip: false
    variance: 0.1
    variance: 0.1
    variance: 0.2
    variance: 0.2
    step: 8
    offset: 0.5
  }
}
layer {
  name: "fc7_mbox_loc"
  type: "Convolution"
  bottom: "fc7"
  top: "fc7_mbox_loc"
  param {
    lr_mult: 1
    decay_mult: 1
  }
  param {
    lr_mult: 2
    decay_mult: 0
  }
  convolution_param {
    num_output: 24
    pad: 1
    kernel_size: 3
    stride: 1
    weight_filler {
      type: "xavier"
    }
    bias_filler {
      type: "constant"
      value: 0
    }
  }
}
layer {
  name: "fc7_mbox_loc_perm"
  type: "Permute"
  bottom: "fc7_mbox_loc"
  top: "fc7_mbox_loc_perm"
  permute_param {
    order: 0
    order: 2
    order: 3
    order: 1
  }
}
layer {
  name: "fc7_mbox_loc_flat"
  type: "Flatten"
  bottom: "fc7_mbox_loc_perm"
  top: "fc7_mbox_loc_flat"
  flatten_param {
    axis: 1
  }
}
layer {
  name: "fc7_mbox_conf"
  type: "Convolution"
  bottom: "fc7"
  top: "fc7_mbox_conf"
  param {
    lr_mult: 1
    decay_mult: 1
  }
  param {
    lr_mult: 2
    decay_mult: 0
  }
  convolution_param {
    num_output: 126
    pad: 1
    kernel_size: 3
    stride: 1
    weight_filler {
      type: "xavier"
    }
    bias_filler {
      type: "constant"
      value: 0
    }
  }
}
layer {
  name: "fc7_mbox_conf_perm"
  type: "Permute"
  bottom: "fc7_mbox_conf"
  top: "fc7_mbox_conf_perm"
  permute_param {
    order: 0
    order: 2
    order: 3
    order: 1
  }
}
layer {
  name: "fc7_mbox_conf_flat"
  type: "Flatten"
  bottom: "fc7_mbox_conf_perm"
  top: "fc7_mbox_conf_flat"
  flatten_param {
    axis: 1
  }
}
layer {
  name: "fc7_mbox_priorbox"
  type: "PriorBox"
  bottom: "fc7"
  bottom: "data"
  top: "fc7_mbox_priorbox"
  prior_box_param {
    min_size: 60
    max_size: 111
    aspect_ratio: 2
    aspect_ratio: 3
    flip: true
    clip: false
    variance: 0.1
    variance: 0.1
    variance: 0.2
    variance: 0.2
    step: 16
    offset: 0.5
  }
}
layer {
  name: "conv6_2_mbox_loc"
  type: "Convolution"
  bottom: "conv6_2"
  top: "conv6_2_mbox_loc"
  param {
    lr_mult: 1
    decay_mult: 1
  }
  param {
    lr_mult: 2
    decay_mult: 0
  }
  convolution_param {
    num_output: 24
    pad: 1
    kernel_size: 3
    stride: 1
    weight_filler {
      type: "xavier"
    }
    bias_filler {
      type: "constant"
      value: 0
    }
  }
}
layer {
  name: "conv6_2_mbox_loc_perm"
  type: "Permute"
  bottom: "conv6_2_mbox_loc"
  top: "conv6_2_mbox_loc_perm"
  permute_param {
    order: 0
    order: 2
    order: 3
    order: 1
  }
}
layer {
  name: "conv6_2_mbox_loc_flat"
  type: "Flatten"
  bottom: "conv6_2_mbox_loc_perm"
  top: "conv6_2_mbox_loc_flat"
  flatten_param {
    axis: 1
  }
}
layer {
  name: "conv6_2_mbox_conf"
  type: "Convolution"
  bottom: "conv6_2"
  top: "conv6_2_mbox_conf"
  param {
    lr_mult: 1
    decay_mult: 1
  }
  param {
    lr_mult: 2
    decay_mult: 0
  }
  convolution_param {
    num_output: 126
    pad: 1
    kernel_size: 3
    stride: 1
    weight_filler {
      type: "xavier"
    }
    bias_filler {
      type: "constant"
      value: 0
    }
  }
}
layer {
  name: "conv6_2_mbox_conf_perm"
  type: "Permute"
  bottom: "conv6_2_mbox_conf"
  top: "conv6_2_mbox_conf_perm"
  permute_param {
    order: 0
    order: 2
    order: 3
    order: 1
  }
}
layer {
  name: "conv6_2_mbox_conf_flat"
  type: "Flatten"
  bottom: "conv6_2_mbox_conf_perm"
  top: "conv6_2_mbox_conf_flat"
  flatten_param {
    axis: 1
  }
}
layer {
  name: "conv6_2_mbox_priorbox"
  type: "PriorBox"
  bottom: "conv6_2"
  bottom: "data"
  top: "conv6_2_mbox_priorbox"
  prior_box_param {
    min_size: 111
    max_size: 162
    aspect_ratio: 2
    aspect_ratio: 3
    flip: true
    clip: false
    variance: 0.1
    variance: 0.1
    variance: 0.2
    variance: 0.2
    step: 32
    offset: 0.5
  }
}
layer {
  name: "conv7_2_mbox_loc"
  type: "Convolution"
  bottom: "conv7_2"
  top: "conv7_2_mbox_loc"
  param {
    lr_mult: 1
    decay_mult: 1
  }
  param {
    lr_mult: 2
    decay_mult: 0
  }
  convolution_param {
    num_output: 24
    pad: 1
    kernel_size: 3
    stride: 1
    weight_filler {
      type: "xavier"
    }
    bias_filler {
      type: "constant"
      value: 0
    }
  }
}
layer {
  name: "conv7_2_mbox_loc_perm"
  type: "Permute"
  bottom: "conv7_2_mbox_loc"
  top: "conv7_2_mbox_loc_perm"
  permute_param {
    order: 0
    order: 2
    order: 3
    order: 1
  }
}
layer {
  name: "conv7_2_mbox_loc_flat"
  type: "Flatten"
  bottom: "conv7_2_mbox_loc_perm"
  top: "conv7_2_mbox_loc_flat"
  flatten_param {
    axis: 1
  }
}
layer {
  name: "conv7_2_mbox_conf"
  type: "Convolution"
  bottom: "conv7_2"
  top: "conv7_2_mbox_conf"
  param {
    lr_mult: 1
    decay_mult: 1
  }
  param {
    lr_mult: 2
    decay_mult: 0
  }
  convolution_param {
    num_output: 126
    pad: 1
    kernel_size: 3
    stride: 1
    weight_filler {
      type: "xavier"
    }
    bias_filler {
      type: "constant"
      value: 0
    }
  }
}
layer {
  name: "conv7_2_mbox_conf_perm"
  type: "Permute"
  bottom: "conv7_2_mbox_conf"
  top: "conv7_2_mbox_conf_perm"
  permute_param {
    order: 0
    order: 2
    order: 3
    order: 1
  }
}
layer {
  name: "conv7_2_mbox_conf_flat"
  type: "Flatten"
  bottom: "conv7_2_mbox_conf_perm"
  top: "conv7_2_mbox_conf_flat"
  flatten_param {
    axis: 1
  }
}
layer {
  name: "conv7_2_mbox_priorbox"
  type: "PriorBox"
  bottom: "conv7_2"
  bottom: "data"
  top: "conv7_2_mbox_priorbox"
  prior_box_param {
    min_size: 162
    max_size: 213
    aspect_ratio: 2
    aspect_ratio: 3
    flip: true
    clip: false
    variance: 0.1
    variance: 0.1
    variance: 0.2
    variance: 0.2
    step: 64
    offset: 0.5
  }
}
layer {
  name: "conv8_2_mbox_loc"
  type: "Convolution"
  bottom: "conv8_2"
  top: "conv8_2_mbox_loc"
  param {
    lr_mult: 1
    decay_mult: 1
  }
  param {
    lr_mult: 2
    decay_mult: 0
  }
  convolution_param {
    num_output: 16
    pad: 1
    kernel_size: 3
    stride: 1
    weight_filler {
      type: "xavier"
    }
    bias_filler {
      type: "constant"
      value: 0
    }
  }
}
layer {
  name: "conv8_2_mbox_loc_perm"
  type: "Permute"
  bottom: "conv8_2_mbox_loc"
  top: "conv8_2_mbox_loc_perm"
  permute_param {
    order: 0
    order: 2
    order: 3
    order: 1
  }
}
layer {
  name: "conv8_2_mbox_loc_flat"
  type: "Flatten"
  bottom: "conv8_2_mbox_loc_perm"
  top: "conv8_2_mbox_loc_flat"
  flatten_param {
    axis: 1
  }
}
layer {
  name: "conv8_2_mbox_conf"
  type: "Convolution"
  bottom: "conv8_2"
  top: "conv8_2_mbox_conf"
  param {
    lr_mult: 1
    decay_mult: 1
  }
  param {
    lr_mult: 2
    decay_mult: 0
  }
  convolution_param {
    num_output: 84
    pad: 1
    kernel_size: 3
    stride: 1
    weight_filler {
      type: "xavier"
    }
    bias_filler {
      type: "constant"
      value: 0
    }
  }
}
layer {
  name: "conv8_2_mbox_conf_perm"
  type: "Permute"
  bottom: "conv8_2_mbox_conf"
  top: "conv8_2_mbox_conf_perm"
  permute_param {
    order: 0
    order: 2
    order: 3
    order: 1
  }
}
layer {
  name: "conv8_2_mbox_conf_flat"
  type: "Flatten"
  bottom: "conv8_2_mbox_conf_perm"
  top: "conv8_2_mbox_conf_flat"
  flatten_param {
    axis: 1
  }
}
layer {
  name: "conv8_2_mbox_priorbox"
  type: "PriorBox"
  bottom: "conv8_2"
  bottom: "data"
  top: "conv8_2_mbox_priorbox"
  prior_box_param {
    min_size: 213
    max_size: 264
    aspect_ratio: 2
    flip: true
    clip: false
    variance: 0.1
    variance: 0.1
    variance: 0.2
    variance: 0.2
    step: 100
    offset: 0.5
  }
}
layer {
  name: "conv9_2_mbox_loc"
  type: "Convolution"
  bottom: "conv9_2"
  top: "conv9_2_mbox_loc"
  param {
    lr_mult: 1
    decay_mult: 1
  }
  param {
    lr_mult: 2
    decay_mult: 0
  }
  convolution_param {
    num_output: 16
    pad: 1
    kernel_size: 3
    stride: 1
    weight_filler {
      type: "xavier"
    }
    bias_filler {
      type: "constant"
      value: 0
    }
  }
}
layer {
  name: "conv9_2_mbox_loc_perm"
  type: "Permute"
  bottom: "conv9_2_mbox_loc"
  top: "conv9_2_mbox_loc_perm"
  permute_param {
    order: 0
    order: 2
    order: 3
    order: 1
  }
}
layer {
  name: "conv9_2_mbox_loc_flat"
  type: "Flatten"
  bottom: "conv9_2_mbox_loc_perm"
  top: "conv9_2_mbox_loc_flat"
  flatten_param {
    axis: 1
  }
}
layer {
  name: "conv9_2_mbox_conf"
  type: "Convolution"
  bottom: "conv9_2"
  top: "conv9_2_mbox_conf"
  param {
    lr_mult: 1
    decay_mult: 1
  }
  param {
    lr_mult: 2
    decay_mult: 0
  }
  convolution_param {
    num_output: 84
    pad: 1
    kernel_size: 3
    stride: 1
    weight_filler {
      type: "xavier"
    }
    bias_filler {
      type: "constant"
      value: 0
    }
  }
}
layer {
  name: "conv9_2_mbox_conf_perm"
  type: "Permute"
  bottom: "conv9_2_mbox_conf"
  top: "conv9_2_mbox_conf_perm"
  permute_param {
    order: 0
    order: 2
    order: 3
    order: 1
  }
}
layer {
  name: "conv9_2_mbox_conf_flat"
  type: "Flatten"
  bottom: "conv9_2_mbox_conf_perm"
  top: "conv9_2_mbox_conf_flat"
  flatten_param {
    axis: 1
  }
}
layer {
  name: "conv9_2_mbox_priorbox"
  type: "PriorBox"
  bottom: "conv9_2"
  bottom: "data"
  top: "conv9_2_mbox_priorbox"
  prior_box_param {
    min_size: 264
    max_size: 315
    aspect_ratio: 2
    flip: true
    clip: false
    variance: 0.1
    variance: 0.1
    variance: 0.2
    variance: 0.2
    step: 300
    offset: 0.5
  }
}
layer {
  name: "mbox_loc"
  type: "Concat"
  bottom: "conv4_3_norm_mbox_loc_flat"
  bottom: "fc7_mbox_loc_flat"
  bottom: "conv6_2_mbox_loc_flat"
  bottom: "conv7_2_mbox_loc_flat"
  bottom: "conv8_2_mbox_loc_flat"
  bottom: "conv9_2_mbox_loc_flat"
  top: "mbox_loc"
  concat_param {
    axis: 1
  }
}
layer {
  name: "mbox_conf"
  type: "Concat"
  bottom: "conv4_3_norm_mbox_conf_flat"
  bottom: "fc7_mbox_conf_flat"
  bottom: "conv6_2_mbox_conf_flat"
  bottom: "conv7_2_mbox_conf_flat"
  bottom: "conv8_2_mbox_conf_flat"
  bottom: "conv9_2_mbox_conf_flat"
  top: "mbox_conf"
  concat_param {
    axis: 1
  }
}
layer {
  name: "mbox_priorbox"
  type: "Concat"
  bottom: "conv4_3_norm_mbox_priorbox"
  bottom: "fc7_mbox_priorbox"
  bottom: "conv6_2_mbox_priorbox"
  bottom: "conv7_2_mbox_priorbox"
  bottom: "conv8_2_mbox_priorbox"
  bottom: "conv9_2_mbox_priorbox"
  top: "mbox_priorbox"
  concat_param {
    axis: 2
  }
}
layer {
  name: "mbox_loss"
  type: "MultiBoxLoss"
  bottom: "mbox_loc"
  bottom: "mbox_conf"
  bottom: "mbox_priorbox"
  bottom: "label"
  top: "mbox_loss"
  include {
    phase: TRAIN
  }
  propagate_down: true
  propagate_down: true
  propagate_down: false
  propagate_down: false
  loss_param {
    normalization: VALID
  }
  multibox_loss_param {
    loc_loss_type: SMOOTH_L1
    conf_loss_type: SOFTMAX
    loc_weight: 1
    num_classes: 21
    share_location: true
    match_type: PER_PREDICTION
    overlap_threshold: 0.5
    use_prior_for_matching: true
    background_label_id: 0
    use_difficult_gt: true
    neg_pos_ratio: 3
    neg_overlap: 0.5
    code_type: CENTER_SIZE
    ignore_cross_boundary_bbox: false
    mining_type: MAX_NEGATIVE
  }
}
I0608 22:27:54.815870 23885 layer_factory.hpp:77] Creating layer data
I0608 22:27:54.816357 23885 net.cpp:100] Creating Layer data
I0608 22:27:54.816388 23885 net.cpp:408] data -> data
I0608 22:27:54.816437 23885 net.cpp:408] data -> label
I0608 22:27:54.818727 23897 db_lmdb.cpp:35] Opened lmdb examples/VOC0712/VOC0712_trainval_lmdb
I0608 22:27:54.842620 23885 annotated_data_layer.cpp:62] output data size: 8,3,300,300
I0608 22:27:54.865363 23885 net.cpp:150] Setting up data
I0608 22:27:54.865476 23885 net.cpp:157] Top shape: 8 3 300 300 (2160000)
I0608 22:27:54.865487 23885 net.cpp:157] Top shape: 1 1 1 8 (8)
I0608 22:27:54.865494 23885 net.cpp:165] Memory required for data: 8640032
I0608 22:27:54.865548 23885 layer_factory.hpp:77] Creating layer data_data_0_split
I0608 22:27:54.865569 23885 net.cpp:100] Creating Layer data_data_0_split
I0608 22:27:54.865578 23885 net.cpp:434] data_data_0_split <- data
I0608 22:27:54.865600 23885 net.cpp:408] data_data_0_split -> data_data_0_split_0
I0608 22:27:54.865617 23885 net.cpp:408] data_data_0_split -> data_data_0_split_1
I0608 22:27:54.865627 23885 net.cpp:408] data_data_0_split -> data_data_0_split_2
I0608 22:27:54.865636 23885 net.cpp:408] data_data_0_split -> data_data_0_split_3
I0608 22:27:54.865649 23885 net.cpp:408] data_data_0_split -> data_data_0_split_4
I0608 22:27:54.865658 23885 net.cpp:408] data_data_0_split -> data_data_0_split_5
I0608 22:27:54.865667 23885 net.cpp:408] data_data_0_split -> data_data_0_split_6
I0608 22:27:54.865803 23885 net.cpp:150] Setting up data_data_0_split
I0608 22:27:54.865818 23885 net.cpp:157] Top shape: 8 3 300 300 (2160000)
I0608 22:27:54.865825 23885 net.cpp:157] Top shape: 8 3 300 300 (2160000)
I0608 22:27:54.865833 23885 net.cpp:157] Top shape: 8 3 300 300 (2160000)
I0608 22:27:54.865840 23885 net.cpp:157] Top shape: 8 3 300 300 (2160000)
I0608 22:27:54.865847 23885 net.cpp:157] Top shape: 8 3 300 300 (2160000)
I0608 22:27:54.865854 23885 net.cpp:157] Top shape: 8 3 300 300 (2160000)
I0608 22:27:54.865862 23885 net.cpp:157] Top shape: 8 3 300 300 (2160000)
I0608 22:27:54.865869 23885 net.cpp:165] Memory required for data: 69120032
I0608 22:27:54.865875 23885 layer_factory.hpp:77] Creating layer conv1_1
I0608 22:27:54.865900 23885 net.cpp:100] Creating Layer conv1_1
I0608 22:27:54.865916 23885 net.cpp:434] conv1_1 <- data_data_0_split_0
I0608 22:27:54.865927 23885 net.cpp:408] conv1_1 -> conv1_1
I0608 22:27:56.081099 23885 net.cpp:150] Setting up conv1_1
I0608 22:27:56.081140 23885 net.cpp:157] Top shape: 8 64 300 300 (46080000)
I0608 22:27:56.081146 23885 net.cpp:165] Memory required for data: 253440032
I0608 22:27:56.081172 23885 layer_factory.hpp:77] Creating layer relu1_1
I0608 22:27:56.081194 23885 net.cpp:100] Creating Layer relu1_1
I0608 22:27:56.081203 23885 net.cpp:434] relu1_1 <- conv1_1
I0608 22:27:56.081213 23885 net.cpp:395] relu1_1 -> conv1_1 (in-place)
I0608 22:27:56.081768 23885 net.cpp:150] Setting up relu1_1
I0608 22:27:56.081789 23885 net.cpp:157] Top shape: 8 64 300 300 (46080000)
I0608 22:27:56.081794 23885 net.cpp:165] Memory required for data: 437760032
I0608 22:27:56.081799 23885 layer_factory.hpp:77] Creating layer conv1_2
I0608 22:27:56.081820 23885 net.cpp:100] Creating Layer conv1_2
I0608 22:27:56.081838 23885 net.cpp:434] conv1_2 <- conv1_1
I0608 22:27:56.081848 23885 net.cpp:408] conv1_2 -> conv1_2
I0608 22:27:56.085001 23885 net.cpp:150] Setting up conv1_2
I0608 22:27:56.085036 23885 net.cpp:157] Top shape: 8 64 300 300 (46080000)
I0608 22:27:56.085042 23885 net.cpp:165] Memory required for data: 622080032
I0608 22:27:56.085057 23885 layer_factory.hpp:77] Creating layer relu1_2
I0608 22:27:56.085069 23885 net.cpp:100] Creating Layer relu1_2
I0608 22:27:56.085077 23885 net.cpp:434] relu1_2 <- conv1_2
I0608 22:27:56.085088 23885 net.cpp:395] relu1_2 -> conv1_2 (in-place)
I0608 22:27:56.085625 23885 net.cpp:150] Setting up relu1_2
I0608 22:27:56.085655 23885 net.cpp:157] Top shape: 8 64 300 300 (46080000)
I0608 22:27:56.085662 23885 net.cpp:165] Memory required for data: 806400032
I0608 22:27:56.085669 23885 layer_factory.hpp:77] Creating layer pool1
I0608 22:27:56.085680 23885 net.cpp:100] Creating Layer pool1
I0608 22:27:56.085686 23885 net.cpp:434] pool1 <- conv1_2
I0608 22:27:56.085700 23885 net.cpp:408] pool1 -> pool1
I0608 22:27:56.085780 23885 net.cpp:150] Setting up pool1
I0608 22:27:56.085794 23885 net.cpp:157] Top shape: 8 64 150 150 (11520000)
I0608 22:27:56.085801 23885 net.cpp:165] Memory required for data: 852480032
I0608 22:27:56.085808 23885 layer_factory.hpp:77] Creating layer conv2_1
I0608 22:27:56.085824 23885 net.cpp:100] Creating Layer conv2_1
I0608 22:27:56.085829 23885 net.cpp:434] conv2_1 <- pool1
I0608 22:27:56.085837 23885 net.cpp:408] conv2_1 -> conv2_1
I0608 22:27:56.088567 23885 net.cpp:150] Setting up conv2_1
I0608 22:27:56.088595 23885 net.cpp:157] Top shape: 8 128 150 150 (23040000)
I0608 22:27:56.088603 23885 net.cpp:165] Memory required for data: 944640032
I0608 22:27:56.088616 23885 layer_factory.hpp:77] Creating layer relu2_1
I0608 22:27:56.088629 23885 net.cpp:100] Creating Layer relu2_1
I0608 22:27:56.088635 23885 net.cpp:434] relu2_1 <- conv2_1
I0608 22:27:56.088647 23885 net.cpp:395] relu2_1 -> conv2_1 (in-place)
I0608 22:27:56.088896 23885 net.cpp:150] Setting up relu2_1
I0608 22:27:56.088908 23885 net.cpp:157] Top shape: 8 128 150 150 (23040000)
I0608 22:27:56.088914 23885 net.cpp:165] Memory required for data: 1036800032
I0608 22:27:56.088922 23885 layer_factory.hpp:77] Creating layer conv2_2
I0608 22:27:56.088933 23885 net.cpp:100] Creating Layer conv2_2
I0608 22:27:56.088940 23885 net.cpp:434] conv2_2 <- conv2_1
I0608 22:27:56.088949 23885 net.cpp:408] conv2_2 -> conv2_2
I0608 22:27:56.093160 23885 net.cpp:150] Setting up conv2_2
I0608 22:27:56.093189 23885 net.cpp:157] Top shape: 8 128 150 150 (23040000)
I0608 22:27:56.093194 23885 net.cpp:165] Memory required for data: 1128960032
I0608 22:27:56.093205 23885 layer_factory.hpp:77] Creating layer relu2_2
I0608 22:27:56.093216 23885 net.cpp:100] Creating Layer relu2_2
I0608 22:27:56.093221 23885 net.cpp:434] relu2_2 <- conv2_2
I0608 22:27:56.093238 23885 net.cpp:395] relu2_2 -> conv2_2 (in-place)
I0608 22:27:56.093762 23885 net.cpp:150] Setting up relu2_2
I0608 22:27:56.093786 23885 net.cpp:157] Top shape: 8 128 150 150 (23040000)
I0608 22:27:56.093791 23885 net.cpp:165] Memory required for data: 1221120032
I0608 22:27:56.093796 23885 layer_factory.hpp:77] Creating layer pool2
I0608 22:27:56.093806 23885 net.cpp:100] Creating Layer pool2
I0608 22:27:56.093812 23885 net.cpp:434] pool2 <- conv2_2
I0608 22:27:56.093828 23885 net.cpp:408] pool2 -> pool2
I0608 22:27:56.093893 23885 net.cpp:150] Setting up pool2
I0608 22:27:56.093905 23885 net.cpp:157] Top shape: 8 128 75 75 (5760000)
I0608 22:27:56.093911 23885 net.cpp:165] Memory required for data: 1244160032
I0608 22:27:56.093916 23885 layer_factory.hpp:77] Creating layer conv3_1
I0608 22:27:56.093935 23885 net.cpp:100] Creating Layer conv3_1
I0608 22:27:56.093942 23885 net.cpp:434] conv3_1 <- pool2
I0608 22:27:56.093950 23885 net.cpp:408] conv3_1 -> conv3_1
I0608 22:27:56.099499 23885 net.cpp:150] Setting up conv3_1
I0608 22:27:56.099529 23885 net.cpp:157] Top shape: 8 256 75 75 (11520000)
I0608 22:27:56.099534 23885 net.cpp:165] Memory required for data: 1290240032
I0608 22:27:56.099566 23885 layer_factory.hpp:77] Creating layer relu3_1
I0608 22:27:56.099587 23885 net.cpp:100] Creating Layer relu3_1
I0608 22:27:56.099594 23885 net.cpp:434] relu3_1 <- conv3_1
I0608 22:27:56.099609 23885 net.cpp:395] relu3_1 -> conv3_1 (in-place)
I0608 22:27:56.099892 23885 net.cpp:150] Setting up relu3_1
I0608 22:27:56.099905 23885 net.cpp:157] Top shape: 8 256 75 75 (11520000)
I0608 22:27:56.099912 23885 net.cpp:165] Memory required for data: 1336320032
I0608 22:27:56.099918 23885 layer_factory.hpp:77] Creating layer conv3_2
I0608 22:27:56.099938 23885 net.cpp:100] Creating Layer conv3_2
I0608 22:27:56.099949 23885 net.cpp:434] conv3_2 <- conv3_1
I0608 22:27:56.099958 23885 net.cpp:408] conv3_2 -> conv3_2
I0608 22:27:56.108507 23885 net.cpp:150] Setting up conv3_2
I0608 22:27:56.108547 23885 net.cpp:157] Top shape: 8 256 75 75 (11520000)
I0608 22:27:56.108554 23885 net.cpp:165] Memory required for data: 1382400032
I0608 22:27:56.108574 23885 layer_factory.hpp:77] Creating layer relu3_2
I0608 22:27:56.108590 23885 net.cpp:100] Creating Layer relu3_2
I0608 22:27:56.108598 23885 net.cpp:434] relu3_2 <- conv3_2
I0608 22:27:56.108611 23885 net.cpp:395] relu3_2 -> conv3_2 (in-place)
I0608 22:27:56.109172 23885 net.cpp:150] Setting up relu3_2
I0608 22:27:56.109192 23885 net.cpp:157] Top shape: 8 256 75 75 (11520000)
I0608 22:27:56.109201 23885 net.cpp:165] Memory required for data: 1428480032
I0608 22:27:56.109208 23885 layer_factory.hpp:77] Creating layer conv3_3
I0608 22:27:56.109269 23885 net.cpp:100] Creating Layer conv3_3
I0608 22:27:56.109277 23885 net.cpp:434] conv3_3 <- conv3_2
I0608 22:27:56.109287 23885 net.cpp:408] conv3_3 -> conv3_3
I0608 22:27:56.117863 23885 net.cpp:150] Setting up conv3_3
I0608 22:27:56.117900 23885 net.cpp:157] Top shape: 8 256 75 75 (11520000)
I0608 22:27:56.117907 23885 net.cpp:165] Memory required for data: 1474560032
I0608 22:27:56.117918 23885 layer_factory.hpp:77] Creating layer relu3_3
I0608 22:27:56.117933 23885 net.cpp:100] Creating Layer relu3_3
I0608 22:27:56.117954 23885 net.cpp:434] relu3_3 <- conv3_3
I0608 22:27:56.117964 23885 net.cpp:395] relu3_3 -> conv3_3 (in-place)
I0608 22:27:56.118516 23885 net.cpp:150] Setting up relu3_3
I0608 22:27:56.118538 23885 net.cpp:157] Top shape: 8 256 75 75 (11520000)
I0608 22:27:56.118543 23885 net.cpp:165] Memory required for data: 1520640032
I0608 22:27:56.118549 23885 layer_factory.hpp:77] Creating layer pool3
I0608 22:27:56.118576 23885 net.cpp:100] Creating Layer pool3
I0608 22:27:56.118583 23885 net.cpp:434] pool3 <- conv3_3
I0608 22:27:56.118594 23885 net.cpp:408] pool3 -> pool3
I0608 22:27:56.118669 23885 net.cpp:150] Setting up pool3
I0608 22:27:56.118681 23885 net.cpp:157] Top shape: 8 256 38 38 (2957312)
I0608 22:27:56.118687 23885 net.cpp:165] Memory required for data: 1532469280
I0608 22:27:56.118693 23885 layer_factory.hpp:77] Creating layer conv4_1
I0608 22:27:56.118712 23885 net.cpp:100] Creating Layer conv4_1
I0608 22:27:56.118729 23885 net.cpp:434] conv4_1 <- pool3
I0608 22:27:56.118742 23885 net.cpp:408] conv4_1 -> conv4_1
I0608 22:27:56.134714 23885 net.cpp:150] Setting up conv4_1
I0608 22:27:56.134753 23885 net.cpp:157] Top shape: 8 512 38 38 (5914624)
I0608 22:27:56.134759 23885 net.cpp:165] Memory required for data: 1556127776
I0608 22:27:56.134771 23885 layer_factory.hpp:77] Creating layer relu4_1
I0608 22:27:56.134788 23885 net.cpp:100] Creating Layer relu4_1
I0608 22:27:56.134809 23885 net.cpp:434] relu4_1 <- conv4_1
I0608 22:27:56.134820 23885 net.cpp:395] relu4_1 -> conv4_1 (in-place)
I0608 22:27:56.135105 23885 net.cpp:150] Setting up relu4_1
I0608 22:27:56.135121 23885 net.cpp:157] Top shape: 8 512 38 38 (5914624)
I0608 22:27:56.135128 23885 net.cpp:165] Memory required for data: 1579786272
I0608 22:27:56.135133 23885 layer_factory.hpp:77] Creating layer conv4_2
I0608 22:27:56.135151 23885 net.cpp:100] Creating Layer conv4_2
I0608 22:27:56.135164 23885 net.cpp:434] conv4_2 <- conv4_1
I0608 22:27:56.135174 23885 net.cpp:408] conv4_2 -> conv4_2
I0608 22:27:56.163488 23885 net.cpp:150] Setting up conv4_2
I0608 22:27:56.163532 23885 net.cpp:157] Top shape: 8 512 38 38 (5914624)
I0608 22:27:56.163537 23885 net.cpp:165] Memory required for data: 1603444768
I0608 22:27:56.163563 23885 layer_factory.hpp:77] Creating layer relu4_2
I0608 22:27:56.163594 23885 net.cpp:100] Creating Layer relu4_2
I0608 22:27:56.163604 23885 net.cpp:434] relu4_2 <- conv4_2
I0608 22:27:56.163614 23885 net.cpp:395] relu4_2 -> conv4_2 (in-place)
I0608 22:27:56.164177 23885 net.cpp:150] Setting up relu4_2
I0608 22:27:56.164202 23885 net.cpp:157] Top shape: 8 512 38 38 (5914624)
I0608 22:27:56.164208 23885 net.cpp:165] Memory required for data: 1627103264
I0608 22:27:56.164214 23885 layer_factory.hpp:77] Creating layer conv4_3
I0608 22:27:56.164233 23885 net.cpp:100] Creating Layer conv4_3
I0608 22:27:56.164253 23885 net.cpp:434] conv4_3 <- conv4_2
I0608 22:27:56.164263 23885 net.cpp:408] conv4_3 -> conv4_3
I0608 22:27:56.191897 23885 net.cpp:150] Setting up conv4_3
I0608 22:27:56.191953 23885 net.cpp:157] Top shape: 8 512 38 38 (5914624)
I0608 22:27:56.191961 23885 net.cpp:165] Memory required for data: 1650761760
I0608 22:27:56.191974 23885 layer_factory.hpp:77] Creating layer relu4_3
I0608 22:27:56.191990 23885 net.cpp:100] Creating Layer relu4_3
I0608 22:27:56.191999 23885 net.cpp:434] relu4_3 <- conv4_3
I0608 22:27:56.192010 23885 net.cpp:395] relu4_3 -> conv4_3 (in-place)
I0608 22:27:56.192276 23885 net.cpp:150] Setting up relu4_3
I0608 22:27:56.192291 23885 net.cpp:157] Top shape: 8 512 38 38 (5914624)
I0608 22:27:56.192325 23885 net.cpp:165] Memory required for data: 1674420256
I0608 22:27:56.192332 23885 layer_factory.hpp:77] Creating layer conv4_3_relu4_3_0_split
I0608 22:27:56.192342 23885 net.cpp:100] Creating Layer conv4_3_relu4_3_0_split
I0608 22:27:56.192348 23885 net.cpp:434] conv4_3_relu4_3_0_split <- conv4_3
I0608 22:27:56.192358 23885 net.cpp:408] conv4_3_relu4_3_0_split -> conv4_3_relu4_3_0_split_0
I0608 22:27:56.192368 23885 net.cpp:408] conv4_3_relu4_3_0_split -> conv4_3_relu4_3_0_split_1
I0608 22:27:56.192430 23885 net.cpp:150] Setting up conv4_3_relu4_3_0_split
I0608 22:27:56.192443 23885 net.cpp:157] Top shape: 8 512 38 38 (5914624)
I0608 22:27:56.192451 23885 net.cpp:157] Top shape: 8 512 38 38 (5914624)
I0608 22:27:56.192456 23885 net.cpp:165] Memory required for data: 1721737248
I0608 22:27:56.192461 23885 layer_factory.hpp:77] Creating layer pool4
I0608 22:27:56.192476 23885 net.cpp:100] Creating Layer pool4
I0608 22:27:56.192482 23885 net.cpp:434] pool4 <- conv4_3_relu4_3_0_split_0
I0608 22:27:56.192492 23885 net.cpp:408] pool4 -> pool4
I0608 22:27:56.192548 23885 net.cpp:150] Setting up pool4
I0608 22:27:56.192561 23885 net.cpp:157] Top shape: 8 512 19 19 (1478656)
I0608 22:27:56.192567 23885 net.cpp:165] Memory required for data: 1727651872
I0608 22:27:56.192574 23885 layer_factory.hpp:77] Creating layer conv5_1
I0608 22:27:56.192590 23885 net.cpp:100] Creating Layer conv5_1
I0608 22:27:56.192597 23885 net.cpp:434] conv5_1 <- pool4
I0608 22:27:56.192607 23885 net.cpp:408] conv5_1 -> conv5_1
I0608 22:27:56.220780 23885 net.cpp:150] Setting up conv5_1
I0608 22:27:56.220825 23885 net.cpp:157] Top shape: 8 512 19 19 (1478656)
I0608 22:27:56.220832 23885 net.cpp:165] Memory required for data: 1733566496
I0608 22:27:56.220850 23885 layer_factory.hpp:77] Creating layer relu5_1
I0608 22:27:56.220865 23885 net.cpp:100] Creating Layer relu5_1
I0608 22:27:56.220886 23885 net.cpp:434] relu5_1 <- conv5_1
I0608 22:27:56.220906 23885 net.cpp:395] relu5_1 -> conv5_1 (in-place)
I0608 22:27:56.221509 23885 net.cpp:150] Setting up relu5_1
I0608 22:27:56.221530 23885 net.cpp:157] Top shape: 8 512 19 19 (1478656)
I0608 22:27:56.221536 23885 net.cpp:165] Memory required for data: 1739481120
I0608 22:27:56.221545 23885 layer_factory.hpp:77] Creating layer conv5_2
I0608 22:27:56.221567 23885 net.cpp:100] Creating Layer conv5_2
I0608 22:27:56.221575 23885 net.cpp:434] conv5_2 <- conv5_1
I0608 22:27:56.221587 23885 net.cpp:408] conv5_2 -> conv5_2
I0608 22:27:56.250066 23885 net.cpp:150] Setting up conv5_2
I0608 22:27:56.250108 23885 net.cpp:157] Top shape: 8 512 19 19 (1478656)
I0608 22:27:56.250115 23885 net.cpp:165] Memory required for data: 1745395744
I0608 22:27:56.250129 23885 layer_factory.hpp:77] Creating layer relu5_2
I0608 22:27:56.250149 23885 net.cpp:100] Creating Layer relu5_2
I0608 22:27:56.250157 23885 net.cpp:434] relu5_2 <- conv5_2
I0608 22:27:56.250172 23885 net.cpp:395] relu5_2 -> conv5_2 (in-place)
I0608 22:27:56.250737 23885 net.cpp:150] Setting up relu5_2
I0608 22:27:56.250761 23885 net.cpp:157] Top shape: 8 512 19 19 (1478656)
I0608 22:27:56.250766 23885 net.cpp:165] Memory required for data: 1751310368
I0608 22:27:56.250771 23885 layer_factory.hpp:77] Creating layer conv5_3
I0608 22:27:56.250788 23885 net.cpp:100] Creating Layer conv5_3
I0608 22:27:56.250795 23885 net.cpp:434] conv5_3 <- conv5_2
I0608 22:27:56.250820 23885 net.cpp:408] conv5_3 -> conv5_3
I0608 22:27:56.277956 23885 net.cpp:150] Setting up conv5_3
I0608 22:27:56.278017 23885 net.cpp:157] Top shape: 8 512 19 19 (1478656)
I0608 22:27:56.278023 23885 net.cpp:165] Memory required for data: 1757224992
I0608 22:27:56.278040 23885 layer_factory.hpp:77] Creating layer relu5_3
I0608 22:27:56.278072 23885 net.cpp:100] Creating Layer relu5_3
I0608 22:27:56.278082 23885 net.cpp:434] relu5_3 <- conv5_3
I0608 22:27:56.278093 23885 net.cpp:395] relu5_3 -> conv5_3 (in-place)
I0608 22:27:56.278405 23885 net.cpp:150] Setting up relu5_3
I0608 22:27:56.278419 23885 net.cpp:157] Top shape: 8 512 19 19 (1478656)
I0608 22:27:56.278426 23885 net.cpp:165] Memory required for data: 1763139616
I0608 22:27:56.278470 23885 layer_factory.hpp:77] Creating layer pool5
I0608 22:27:56.278481 23885 net.cpp:100] Creating Layer pool5
I0608 22:27:56.278488 23885 net.cpp:434] pool5 <- conv5_3
I0608 22:27:56.278502 23885 net.cpp:408] pool5 -> pool5
I0608 22:27:56.278573 23885 net.cpp:150] Setting up pool5
I0608 22:27:56.278589 23885 net.cpp:157] Top shape: 8 512 19 19 (1478656)
I0608 22:27:56.278595 23885 net.cpp:165] Memory required for data: 1769054240
I0608 22:27:56.278602 23885 layer_factory.hpp:77] Creating layer fc6
I0608 22:27:56.278617 23885 net.cpp:100] Creating Layer fc6
I0608 22:27:56.278635 23885 net.cpp:434] fc6 <- pool5
I0608 22:27:56.278648 23885 net.cpp:408] fc6 -> fc6
I0608 22:27:56.334625 23885 net.cpp:150] Setting up fc6
I0608 22:27:56.334671 23885 net.cpp:157] Top shape: 8 1024 19 19 (2957312)
I0608 22:27:56.334677 23885 net.cpp:165] Memory required for data: 1780883488
I0608 22:27:56.334692 23885 layer_factory.hpp:77] Creating layer relu6
I0608 22:27:56.334717 23885 net.cpp:100] Creating Layer relu6
I0608 22:27:56.334728 23885 net.cpp:434] relu6 <- fc6
I0608 22:27:56.334738 23885 net.cpp:395] relu6 -> fc6 (in-place)
I0608 22:27:56.335533 23885 net.cpp:150] Setting up relu6
I0608 22:27:56.335562 23885 net.cpp:157] Top shape: 8 1024 19 19 (2957312)
I0608 22:27:56.335568 23885 net.cpp:165] Memory required for data: 1792712736
I0608 22:27:56.335577 23885 layer_factory.hpp:77] Creating layer fc7
I0608 22:27:56.335605 23885 net.cpp:100] Creating Layer fc7
I0608 22:27:56.335613 23885 net.cpp:434] fc7 <- fc6
I0608 22:27:56.335623 23885 net.cpp:408] fc7 -> fc7
I0608 22:27:56.350003 23885 net.cpp:150] Setting up fc7
I0608 22:27:56.350052 23885 net.cpp:157] Top shape: 8 1024 19 19 (2957312)
I0608 22:27:56.350060 23885 net.cpp:165] Memory required for data: 1804541984
I0608 22:27:56.350078 23885 layer_factory.hpp:77] Creating layer relu7
I0608 22:27:56.350095 23885 net.cpp:100] Creating Layer relu7
I0608 22:27:56.350105 23885 net.cpp:434] relu7 <- fc7
I0608 22:27:56.350121 23885 net.cpp:395] relu7 -> fc7 (in-place)
I0608 22:27:56.350394 23885 net.cpp:150] Setting up relu7
I0608 22:27:56.350407 23885 net.cpp:157] Top shape: 8 1024 19 19 (2957312)
I0608 22:27:56.350414 23885 net.cpp:165] Memory required for data: 1816371232
I0608 22:27:56.350420 23885 layer_factory.hpp:77] Creating layer fc7_relu7_0_split
I0608 22:27:56.350435 23885 net.cpp:100] Creating Layer fc7_relu7_0_split
I0608 22:27:56.350441 23885 net.cpp:434] fc7_relu7_0_split <- fc7
I0608 22:27:56.350452 23885 net.cpp:408] fc7_relu7_0_split -> fc7_relu7_0_split_0
I0608 22:27:56.350468 23885 net.cpp:408] fc7_relu7_0_split -> fc7_relu7_0_split_1
I0608 22:27:56.350486 23885 net.cpp:408] fc7_relu7_0_split -> fc7_relu7_0_split_2
I0608 22:27:56.350500 23885 net.cpp:408] fc7_relu7_0_split -> fc7_relu7_0_split_3
I0608 22:27:56.350606 23885 net.cpp:150] Setting up fc7_relu7_0_split
I0608 22:27:56.350618 23885 net.cpp:157] Top shape: 8 1024 19 19 (2957312)
I0608 22:27:56.350627 23885 net.cpp:157] Top shape: 8 1024 19 19 (2957312)
I0608 22:27:56.350636 23885 net.cpp:157] Top shape: 8 1024 19 19 (2957312)
I0608 22:27:56.350644 23885 net.cpp:157] Top shape: 8 1024 19 19 (2957312)
I0608 22:27:56.350651 23885 net.cpp:165] Memory required for data: 1863688224
I0608 22:27:56.350657 23885 layer_factory.hpp:77] Creating layer conv6_1
I0608 22:27:56.350675 23885 net.cpp:100] Creating Layer conv6_1
I0608 22:27:56.350684 23885 net.cpp:434] conv6_1 <- fc7_relu7_0_split_0
I0608 22:27:56.350697 23885 net.cpp:408] conv6_1 -> conv6_1
I0608 22:27:56.355895 23885 net.cpp:150] Setting up conv6_1
I0608 22:27:56.355922 23885 net.cpp:157] Top shape: 8 256 19 19 (739328)
I0608 22:27:56.355928 23885 net.cpp:165] Memory required for data: 1866645536
I0608 22:27:56.355940 23885 layer_factory.hpp:77] Creating layer conv6_1_relu
I0608 22:27:56.355952 23885 net.cpp:100] Creating Layer conv6_1_relu
I0608 22:27:56.355962 23885 net.cpp:434] conv6_1_relu <- conv6_1
I0608 22:27:56.355974 23885 net.cpp:395] conv6_1_relu -> conv6_1 (in-place)
I0608 22:27:56.356557 23885 net.cpp:150] Setting up conv6_1_relu
I0608 22:27:56.356588 23885 net.cpp:157] Top shape: 8 256 19 19 (739328)
I0608 22:27:56.356595 23885 net.cpp:165] Memory required for data: 1869602848
I0608 22:27:56.356601 23885 layer_factory.hpp:77] Creating layer conv6_2
I0608 22:27:56.356619 23885 net.cpp:100] Creating Layer conv6_2
I0608 22:27:56.356628 23885 net.cpp:434] conv6_2 <- conv6_1
I0608 22:27:56.356642 23885 net.cpp:408] conv6_2 -> conv6_2
I0608 22:27:56.372990 23885 net.cpp:150] Setting up conv6_2
I0608 22:27:56.373034 23885 net.cpp:157] Top shape: 8 512 10 10 (409600)
I0608 22:27:56.373041 23885 net.cpp:165] Memory required for data: 1871241248
I0608 22:27:56.373071 23885 layer_factory.hpp:77] Creating layer conv6_2_relu
I0608 22:27:56.373085 23885 net.cpp:100] Creating Layer conv6_2_relu
I0608 22:27:56.373095 23885 net.cpp:434] conv6_2_relu <- conv6_2
I0608 22:27:56.373106 23885 net.cpp:395] conv6_2_relu -> conv6_2 (in-place)
I0608 22:27:56.373713 23885 net.cpp:150] Setting up conv6_2_relu
I0608 22:27:56.373739 23885 net.cpp:157] Top shape: 8 512 10 10 (409600)
I0608 22:27:56.373744 23885 net.cpp:165] Memory required for data: 1872879648
I0608 22:27:56.373751 23885 layer_factory.hpp:77] Creating layer conv6_2_conv6_2_relu_0_split
I0608 22:27:56.373769 23885 net.cpp:100] Creating Layer conv6_2_conv6_2_relu_0_split
I0608 22:27:56.373775 23885 net.cpp:434] conv6_2_conv6_2_relu_0_split <- conv6_2
I0608 22:27:56.373785 23885 net.cpp:408] conv6_2_conv6_2_relu_0_split -> conv6_2_conv6_2_relu_0_split_0
I0608 22:27:56.373797 23885 net.cpp:408] conv6_2_conv6_2_relu_0_split -> conv6_2_conv6_2_relu_0_split_1
I0608 22:27:56.373809 23885 net.cpp:408] conv6_2_conv6_2_relu_0_split -> conv6_2_conv6_2_relu_0_split_2
I0608 22:27:56.373819 23885 net.cpp:408] conv6_2_conv6_2_relu_0_split -> conv6_2_conv6_2_relu_0_split_3
I0608 22:27:56.373931 23885 net.cpp:150] Setting up conv6_2_conv6_2_relu_0_split
I0608 22:27:56.373944 23885 net.cpp:157] Top shape: 8 512 10 10 (409600)
I0608 22:27:56.373950 23885 net.cpp:157] Top shape: 8 512 10 10 (409600)
I0608 22:27:56.373957 23885 net.cpp:157] Top shape: 8 512 10 10 (409600)
I0608 22:27:56.373963 23885 net.cpp:157] Top shape: 8 512 10 10 (409600)
I0608 22:27:56.373968 23885 net.cpp:165] Memory required for data: 1879433248
I0608 22:27:56.373975 23885 layer_factory.hpp:77] Creating layer conv7_1
I0608 22:27:56.373992 23885 net.cpp:100] Creating Layer conv7_1
I0608 22:27:56.374002 23885 net.cpp:434] conv7_1 <- conv6_2_conv6_2_relu_0_split_0
I0608 22:27:56.374016 23885 net.cpp:408] conv7_1 -> conv7_1
I0608 22:27:56.376544 23885 net.cpp:150] Setting up conv7_1
I0608 22:27:56.376567 23885 net.cpp:157] Top shape: 8 128 10 10 (102400)
I0608 22:27:56.376575 23885 net.cpp:165] Memory required for data: 1879842848
I0608 22:27:56.376585 23885 layer_factory.hpp:77] Creating layer conv7_1_relu
I0608 22:27:56.376600 23885 net.cpp:100] Creating Layer conv7_1_relu
I0608 22:27:56.376607 23885 net.cpp:434] conv7_1_relu <- conv7_1
I0608 22:27:56.376616 23885 net.cpp:395] conv7_1_relu -> conv7_1 (in-place)
I0608 22:27:56.378379 23885 net.cpp:150] Setting up conv7_1_relu
I0608 22:27:56.378398 23885 net.cpp:157] Top shape: 8 128 10 10 (102400)
I0608 22:27:56.378404 23885 net.cpp:165] Memory required for data: 1880252448
I0608 22:27:56.378412 23885 layer_factory.hpp:77] Creating layer conv7_2
I0608 22:27:56.378429 23885 net.cpp:100] Creating Layer conv7_2
I0608 22:27:56.378437 23885 net.cpp:434] conv7_2 <- conv7_1
I0608 22:27:56.378450 23885 net.cpp:408] conv7_2 -> conv7_2
I0608 22:27:56.384230 23885 net.cpp:150] Setting up conv7_2
I0608 22:27:56.384268 23885 net.cpp:157] Top shape: 8 256 5 5 (51200)
I0608 22:27:56.384274 23885 net.cpp:165] Memory required for data: 1880457248
I0608 22:27:56.384289 23885 layer_factory.hpp:77] Creating layer conv7_2_relu
I0608 22:27:56.384304 23885 net.cpp:100] Creating Layer conv7_2_relu
I0608 22:27:56.384316 23885 net.cpp:434] conv7_2_relu <- conv7_2
I0608 22:27:56.384328 23885 net.cpp:395] conv7_2_relu -> conv7_2 (in-place)
I0608 22:27:56.384945 23885 net.cpp:150] Setting up conv7_2_relu
I0608 22:27:56.385001 23885 net.cpp:157] Top shape: 8 256 5 5 (51200)
I0608 22:27:56.385007 23885 net.cpp:165] Memory required for data: 1880662048
I0608 22:27:56.385015 23885 layer_factory.hpp:77] Creating layer conv7_2_conv7_2_relu_0_split
I0608 22:27:56.385026 23885 net.cpp:100] Creating Layer conv7_2_conv7_2_relu_0_split
I0608 22:27:56.385033 23885 net.cpp:434] conv7_2_conv7_2_relu_0_split <- conv7_2
I0608 22:27:56.385047 23885 net.cpp:408] conv7_2_conv7_2_relu_0_split -> conv7_2_conv7_2_relu_0_split_0
I0608 22:27:56.385058 23885 net.cpp:408] conv7_2_conv7_2_relu_0_split -> conv7_2_conv7_2_relu_0_split_1
I0608 22:27:56.385068 23885 net.cpp:408] conv7_2_conv7_2_relu_0_split -> conv7_2_conv7_2_relu_0_split_2
I0608 22:27:56.385077 23885 net.cpp:408] conv7_2_conv7_2_relu_0_split -> conv7_2_conv7_2_relu_0_split_3
I0608 22:27:56.385200 23885 net.cpp:150] Setting up conv7_2_conv7_2_relu_0_split
I0608 22:27:56.385262 23885 net.cpp:157] Top shape: 8 256 5 5 (51200)
I0608 22:27:56.385291 23885 net.cpp:157] Top shape: 8 256 5 5 (51200)
I0608 22:27:56.385316 23885 net.cpp:157] Top shape: 8 256 5 5 (51200)
I0608 22:27:56.385340 23885 net.cpp:157] Top shape: 8 256 5 5 (51200)
I0608 22:27:56.385362 23885 net.cpp:165] Memory required for data: 1881481248
I0608 22:27:56.385385 23885 layer_factory.hpp:77] Creating layer conv8_1
I0608 22:27:56.385419 23885 net.cpp:100] Creating Layer conv8_1
I0608 22:27:56.385443 23885 net.cpp:434] conv8_1 <- conv7_2_conv7_2_relu_0_split_0
I0608 22:27:56.385473 23885 net.cpp:408] conv8_1 -> conv8_1
I0608 22:27:56.389158 23885 net.cpp:150] Setting up conv8_1
I0608 22:27:56.389196 23885 net.cpp:157] Top shape: 8 128 5 5 (25600)
I0608 22:27:56.389202 23885 net.cpp:165] Memory required for data: 1881583648
I0608 22:27:56.389225 23885 layer_factory.hpp:77] Creating layer conv8_1_relu
I0608 22:27:56.389240 23885 net.cpp:100] Creating Layer conv8_1_relu
I0608 22:27:56.389257 23885 net.cpp:434] conv8_1_relu <- conv8_1
I0608 22:27:56.389271 23885 net.cpp:395] conv8_1_relu -> conv8_1 (in-place)
I0608 22:27:56.389547 23885 net.cpp:150] Setting up conv8_1_relu
I0608 22:27:56.389565 23885 net.cpp:157] Top shape: 8 128 5 5 (25600)
I0608 22:27:56.389571 23885 net.cpp:165] Memory required for data: 1881686048
I0608 22:27:56.389577 23885 layer_factory.hpp:77] Creating layer conv8_2
I0608 22:27:56.389597 23885 net.cpp:100] Creating Layer conv8_2
I0608 22:27:56.389605 23885 net.cpp:434] conv8_2 <- conv8_1
I0608 22:27:56.389621 23885 net.cpp:408] conv8_2 -> conv8_2
I0608 22:27:56.395826 23885 net.cpp:150] Setting up conv8_2
I0608 22:27:56.395870 23885 net.cpp:157] Top shape: 8 256 3 3 (18432)
I0608 22:27:56.395876 23885 net.cpp:165] Memory required for data: 1881759776
I0608 22:27:56.395900 23885 layer_factory.hpp:77] Creating layer conv8_2_relu
I0608 22:27:56.395918 23885 net.cpp:100] Creating Layer conv8_2_relu
I0608 22:27:56.395928 23885 net.cpp:434] conv8_2_relu <- conv8_2
I0608 22:27:56.395948 23885 net.cpp:395] conv8_2_relu -> conv8_2 (in-place)
I0608 22:27:56.396544 23885 net.cpp:150] Setting up conv8_2_relu
I0608 22:27:56.396569 23885 net.cpp:157] Top shape: 8 256 3 3 (18432)
I0608 22:27:56.396575 23885 net.cpp:165] Memory required for data: 1881833504
I0608 22:27:56.396582 23885 layer_factory.hpp:77] Creating layer conv8_2_conv8_2_relu_0_split
I0608 22:27:56.396595 23885 net.cpp:100] Creating Layer conv8_2_conv8_2_relu_0_split
I0608 22:27:56.396605 23885 net.cpp:434] conv8_2_conv8_2_relu_0_split <- conv8_2
I0608 22:27:56.396617 23885 net.cpp:408] conv8_2_conv8_2_relu_0_split -> conv8_2_conv8_2_relu_0_split_0
I0608 22:27:56.396632 23885 net.cpp:408] conv8_2_conv8_2_relu_0_split -> conv8_2_conv8_2_relu_0_split_1
I0608 22:27:56.396646 23885 net.cpp:408] conv8_2_conv8_2_relu_0_split -> conv8_2_conv8_2_relu_0_split_2
I0608 22:27:56.396656 23885 net.cpp:408] conv8_2_conv8_2_relu_0_split -> conv8_2_conv8_2_relu_0_split_3
I0608 22:27:56.396772 23885 net.cpp:150] Setting up conv8_2_conv8_2_relu_0_split
I0608 22:27:56.396785 23885 net.cpp:157] Top shape: 8 256 3 3 (18432)
I0608 22:27:56.396793 23885 net.cpp:157] Top shape: 8 256 3 3 (18432)
I0608 22:27:56.396834 23885 net.cpp:157] Top shape: 8 256 3 3 (18432)
I0608 22:27:56.396842 23885 net.cpp:157] Top shape: 8 256 3 3 (18432)
I0608 22:27:56.396850 23885 net.cpp:165] Memory required for data: 1882128416
I0608 22:27:56.396857 23885 layer_factory.hpp:77] Creating layer conv9_1
I0608 22:27:56.396875 23885 net.cpp:100] Creating Layer conv9_1
I0608 22:27:56.396886 23885 net.cpp:434] conv9_1 <- conv8_2_conv8_2_relu_0_split_0
I0608 22:27:56.396898 23885 net.cpp:408] conv9_1 -> conv9_1
I0608 22:27:56.399152 23885 net.cpp:150] Setting up conv9_1
I0608 22:27:56.399179 23885 net.cpp:157] Top shape: 8 128 3 3 (9216)
I0608 22:27:56.399185 23885 net.cpp:165] Memory required for data: 1882165280
I0608 22:27:56.399199 23885 layer_factory.hpp:77] Creating layer conv9_1_relu
I0608 22:27:56.399209 23885 net.cpp:100] Creating Layer conv9_1_relu
I0608 22:27:56.399221 23885 net.cpp:434] conv9_1_relu <- conv9_1
I0608 22:27:56.399233 23885 net.cpp:395] conv9_1_relu -> conv9_1 (in-place)
I0608 22:27:56.399827 23885 net.cpp:150] Setting up conv9_1_relu
I0608 22:27:56.399852 23885 net.cpp:157] Top shape: 8 128 3 3 (9216)
I0608 22:27:56.399857 23885 net.cpp:165] Memory required for data: 1882202144
I0608 22:27:56.399864 23885 layer_factory.hpp:77] Creating layer conv9_2
I0608 22:27:56.399884 23885 net.cpp:100] Creating Layer conv9_2
I0608 22:27:56.399897 23885 net.cpp:434] conv9_2 <- conv9_1
I0608 22:27:56.399907 23885 net.cpp:408] conv9_2 -> conv9_2
I0608 22:27:56.407572 23885 net.cpp:150] Setting up conv9_2
I0608 22:27:56.407608 23885 net.cpp:157] Top shape: 8 256 1 1 (2048)
I0608 22:27:56.407614 23885 net.cpp:165] Memory required for data: 1882210336
I0608 22:27:56.407631 23885 layer_factory.hpp:77] Creating layer conv9_2_relu
I0608 22:27:56.407644 23885 net.cpp:100] Creating Layer conv9_2_relu
I0608 22:27:56.407660 23885 net.cpp:434] conv9_2_relu <- conv9_2
I0608 22:27:56.407670 23885 net.cpp:395] conv9_2_relu -> conv9_2 (in-place)
I0608 22:27:56.407960 23885 net.cpp:150] Setting up conv9_2_relu
I0608 22:27:56.407979 23885 net.cpp:157] Top shape: 8 256 1 1 (2048)
I0608 22:27:56.407985 23885 net.cpp:165] Memory required for data: 1882218528
I0608 22:27:56.407991 23885 layer_factory.hpp:77] Creating layer conv9_2_conv9_2_relu_0_split
I0608 22:27:56.408008 23885 net.cpp:100] Creating Layer conv9_2_conv9_2_relu_0_split
I0608 22:27:56.408015 23885 net.cpp:434] conv9_2_conv9_2_relu_0_split <- conv9_2
I0608 22:27:56.408023 23885 net.cpp:408] conv9_2_conv9_2_relu_0_split -> conv9_2_conv9_2_relu_0_split_0
I0608 22:27:56.408038 23885 net.cpp:408] conv9_2_conv9_2_relu_0_split -> conv9_2_conv9_2_relu_0_split_1
I0608 22:27:56.408051 23885 net.cpp:408] conv9_2_conv9_2_relu_0_split -> conv9_2_conv9_2_relu_0_split_2
I0608 22:27:56.408145 23885 net.cpp:150] Setting up conv9_2_conv9_2_relu_0_split
I0608 22:27:56.408159 23885 net.cpp:157] Top shape: 8 256 1 1 (2048)
I0608 22:27:56.408165 23885 net.cpp:157] Top shape: 8 256 1 1 (2048)
I0608 22:27:56.408172 23885 net.cpp:157] Top shape: 8 256 1 1 (2048)
I0608 22:27:56.408181 23885 net.cpp:165] Memory required for data: 1882243104
I0608 22:27:56.408188 23885 layer_factory.hpp:77] Creating layer conv4_3_norm
I0608 22:27:56.408210 23885 net.cpp:100] Creating Layer conv4_3_norm
I0608 22:27:56.408221 23885 net.cpp:434] conv4_3_norm <- conv4_3_relu4_3_0_split_1
I0608 22:27:56.408231 23885 net.cpp:408] conv4_3_norm -> conv4_3_norm
I0608 22:27:56.408500 23885 net.cpp:150] Setting up conv4_3_norm
I0608 22:27:56.408517 23885 net.cpp:157] Top shape: 8 512 38 38 (5914624)
I0608 22:27:56.408524 23885 net.cpp:165] Memory required for data: 1905901600
I0608 22:27:56.408532 23885 layer_factory.hpp:77] Creating layer conv4_3_norm_conv4_3_norm_0_split
I0608 22:27:56.408543 23885 net.cpp:100] Creating Layer conv4_3_norm_conv4_3_norm_0_split
I0608 22:27:56.408550 23885 net.cpp:434] conv4_3_norm_conv4_3_norm_0_split <- conv4_3_norm
I0608 22:27:56.408557 23885 net.cpp:408] conv4_3_norm_conv4_3_norm_0_split -> conv4_3_norm_conv4_3_norm_0_split_0
I0608 22:27:56.408571 23885 net.cpp:408] conv4_3_norm_conv4_3_norm_0_split -> conv4_3_norm_conv4_3_norm_0_split_1
I0608 22:27:56.408608 23885 net.cpp:408] conv4_3_norm_conv4_3_norm_0_split -> conv4_3_norm_conv4_3_norm_0_split_2
I0608 22:27:56.408689 23885 net.cpp:150] Setting up conv4_3_norm_conv4_3_norm_0_split
I0608 22:27:56.408700 23885 net.cpp:157] Top shape: 8 512 38 38 (5914624)
I0608 22:27:56.408709 23885 net.cpp:157] Top shape: 8 512 38 38 (5914624)
I0608 22:27:56.408715 23885 net.cpp:157] Top shape: 8 512 38 38 (5914624)
I0608 22:27:56.408723 23885 net.cpp:165] Memory required for data: 1976877088
I0608 22:27:56.408730 23885 layer_factory.hpp:77] Creating layer conv4_3_norm_mbox_loc
I0608 22:27:56.408746 23885 net.cpp:100] Creating Layer conv4_3_norm_mbox_loc
I0608 22:27:56.408756 23885 net.cpp:434] conv4_3_norm_mbox_loc <- conv4_3_norm_conv4_3_norm_0_split_0
I0608 22:27:56.408767 23885 net.cpp:408] conv4_3_norm_mbox_loc -> conv4_3_norm_mbox_loc
I0608 22:27:56.412104 23885 net.cpp:150] Setting up conv4_3_norm_mbox_loc
I0608 22:27:56.412142 23885 net.cpp:157] Top shape: 8 16 38 38 (184832)
I0608 22:27:56.412149 23885 net.cpp:165] Memory required for data: 1977616416
I0608 22:27:56.412168 23885 layer_factory.hpp:77] Creating layer conv4_3_norm_mbox_loc_perm
I0608 22:27:56.412184 23885 net.cpp:100] Creating Layer conv4_3_norm_mbox_loc_perm
I0608 22:27:56.412194 23885 net.cpp:434] conv4_3_norm_mbox_loc_perm <- conv4_3_norm_mbox_loc
I0608 22:27:56.412205 23885 net.cpp:408] conv4_3_norm_mbox_loc_perm -> conv4_3_norm_mbox_loc_perm
I0608 22:27:56.412405 23885 net.cpp:150] Setting up conv4_3_norm_mbox_loc_perm
I0608 22:27:56.412417 23885 net.cpp:157] Top shape: 8 38 38 16 (184832)
I0608 22:27:56.412423 23885 net.cpp:165] Memory required for data: 1978355744
I0608 22:27:56.412430 23885 layer_factory.hpp:77] Creating layer conv4_3_norm_mbox_loc_flat
I0608 22:27:56.412441 23885 net.cpp:100] Creating Layer conv4_3_norm_mbox_loc_flat
I0608 22:27:56.412448 23885 net.cpp:434] conv4_3_norm_mbox_loc_flat <- conv4_3_norm_mbox_loc_perm
I0608 22:27:56.412461 23885 net.cpp:408] conv4_3_norm_mbox_loc_flat -> conv4_3_norm_mbox_loc_flat
I0608 22:27:56.412514 23885 net.cpp:150] Setting up conv4_3_norm_mbox_loc_flat
I0608 22:27:56.412526 23885 net.cpp:157] Top shape: 8 23104 (184832)
I0608 22:27:56.412533 23885 net.cpp:165] Memory required for data: 1979095072
I0608 22:27:56.412539 23885 layer_factory.hpp:77] Creating layer conv4_3_norm_mbox_conf
I0608 22:27:56.412565 23885 net.cpp:100] Creating Layer conv4_3_norm_mbox_conf
I0608 22:27:56.412575 23885 net.cpp:434] conv4_3_norm_mbox_conf <- conv4_3_norm_conv4_3_norm_0_split_1
I0608 22:27:56.412590 23885 net.cpp:408] conv4_3_norm_mbox_conf -> conv4_3_norm_mbox_conf
I0608 22:27:56.418730 23885 net.cpp:150] Setting up conv4_3_norm_mbox_conf
I0608 22:27:56.418757 23885 net.cpp:157] Top shape: 8 84 38 38 (970368)
I0608 22:27:56.418763 23885 net.cpp:165] Memory required for data: 1982976544
I0608 22:27:56.418788 23885 layer_factory.hpp:77] Creating layer conv4_3_norm_mbox_conf_perm
I0608 22:27:56.418803 23885 net.cpp:100] Creating Layer conv4_3_norm_mbox_conf_perm
I0608 22:27:56.418815 23885 net.cpp:434] conv4_3_norm_mbox_conf_perm <- conv4_3_norm_mbox_conf
I0608 22:27:56.418826 23885 net.cpp:408] conv4_3_norm_mbox_conf_perm -> conv4_3_norm_mbox_conf_perm
I0608 22:27:56.419034 23885 net.cpp:150] Setting up conv4_3_norm_mbox_conf_perm
I0608 22:27:56.419052 23885 net.cpp:157] Top shape: 8 38 38 84 (970368)
I0608 22:27:56.419059 23885 net.cpp:165] Memory required for data: 1986858016
I0608 22:27:56.419064 23885 layer_factory.hpp:77] Creating layer conv4_3_norm_mbox_conf_flat
I0608 22:27:56.419076 23885 net.cpp:100] Creating Layer conv4_3_norm_mbox_conf_flat
I0608 22:27:56.419083 23885 net.cpp:434] conv4_3_norm_mbox_conf_flat <- conv4_3_norm_mbox_conf_perm
I0608 22:27:56.419090 23885 net.cpp:408] conv4_3_norm_mbox_conf_flat -> conv4_3_norm_mbox_conf_flat
I0608 22:27:56.419137 23885 net.cpp:150] Setting up conv4_3_norm_mbox_conf_flat
I0608 22:27:56.419148 23885 net.cpp:157] Top shape: 8 121296 (970368)
I0608 22:27:56.419154 23885 net.cpp:165] Memory required for data: 1990739488
I0608 22:27:56.419188 23885 layer_factory.hpp:77] Creating layer conv4_3_norm_mbox_priorbox
I0608 22:27:56.419204 23885 net.cpp:100] Creating Layer conv4_3_norm_mbox_priorbox
I0608 22:27:56.419214 23885 net.cpp:434] conv4_3_norm_mbox_priorbox <- conv4_3_norm_conv4_3_norm_0_split_2
I0608 22:27:56.419222 23885 net.cpp:434] conv4_3_norm_mbox_priorbox <- data_data_0_split_1
I0608 22:27:56.419231 23885 net.cpp:408] conv4_3_norm_mbox_priorbox -> conv4_3_norm_mbox_priorbox
I0608 22:27:56.419284 23885 net.cpp:150] Setting up conv4_3_norm_mbox_priorbox
I0608 22:27:56.419297 23885 net.cpp:157] Top shape: 1 2 23104 (46208)
I0608 22:27:56.419303 23885 net.cpp:165] Memory required for data: 1990924320
I0608 22:27:56.419309 23885 layer_factory.hpp:77] Creating layer fc7_mbox_loc
I0608 22:27:56.419325 23885 net.cpp:100] Creating Layer fc7_mbox_loc
I0608 22:27:56.419335 23885 net.cpp:434] fc7_mbox_loc <- fc7_relu7_0_split_1
I0608 22:27:56.419348 23885 net.cpp:408] fc7_mbox_loc -> fc7_mbox_loc
I0608 22:27:56.423979 23885 net.cpp:150] Setting up fc7_mbox_loc
I0608 22:27:56.424010 23885 net.cpp:157] Top shape: 8 24 19 19 (69312)
I0608 22:27:56.424015 23885 net.cpp:165] Memory required for data: 1991201568
I0608 22:27:56.424032 23885 layer_factory.hpp:77] Creating layer fc7_mbox_loc_perm
I0608 22:27:56.424053 23885 net.cpp:100] Creating Layer fc7_mbox_loc_perm
I0608 22:27:56.424062 23885 net.cpp:434] fc7_mbox_loc_perm <- fc7_mbox_loc
I0608 22:27:56.424078 23885 net.cpp:408] fc7_mbox_loc_perm -> fc7_mbox_loc_perm
I0608 22:27:56.424278 23885 net.cpp:150] Setting up fc7_mbox_loc_perm
I0608 22:27:56.424291 23885 net.cpp:157] Top shape: 8 19 19 24 (69312)
I0608 22:27:56.424298 23885 net.cpp:165] Memory required for data: 1991478816
I0608 22:27:56.424302 23885 layer_factory.hpp:77] Creating layer fc7_mbox_loc_flat
I0608 22:27:56.424315 23885 net.cpp:100] Creating Layer fc7_mbox_loc_flat
I0608 22:27:56.424321 23885 net.cpp:434] fc7_mbox_loc_flat <- fc7_mbox_loc_perm
I0608 22:27:56.424338 23885 net.cpp:408] fc7_mbox_loc_flat -> fc7_mbox_loc_flat
I0608 22:27:56.424377 23885 net.cpp:150] Setting up fc7_mbox_loc_flat
I0608 22:27:56.424388 23885 net.cpp:157] Top shape: 8 8664 (69312)
I0608 22:27:56.424394 23885 net.cpp:165] Memory required for data: 1991756064
I0608 22:27:56.424401 23885 layer_factory.hpp:77] Creating layer fc7_mbox_conf
I0608 22:27:56.424417 23885 net.cpp:100] Creating Layer fc7_mbox_conf
I0608 22:27:56.424427 23885 net.cpp:434] fc7_mbox_conf <- fc7_relu7_0_split_2
I0608 22:27:56.424439 23885 net.cpp:408] fc7_mbox_conf -> fc7_mbox_conf
I0608 22:27:56.439378 23885 net.cpp:150] Setting up fc7_mbox_conf
I0608 22:27:56.439431 23885 net.cpp:157] Top shape: 8 126 19 19 (363888)
I0608 22:27:56.439438 23885 net.cpp:165] Memory required for data: 1993211616
I0608 22:27:56.439460 23885 layer_factory.hpp:77] Creating layer fc7_mbox_conf_perm
I0608 22:27:56.439477 23885 net.cpp:100] Creating Layer fc7_mbox_conf_perm
I0608 22:27:56.439491 23885 net.cpp:434] fc7_mbox_conf_perm <- fc7_mbox_conf
I0608 22:27:56.439507 23885 net.cpp:408] fc7_mbox_conf_perm -> fc7_mbox_conf_perm
I0608 22:27:56.439709 23885 net.cpp:150] Setting up fc7_mbox_conf_perm
I0608 22:27:56.439721 23885 net.cpp:157] Top shape: 8 19 19 126 (363888)
I0608 22:27:56.439728 23885 net.cpp:165] Memory required for data: 1994667168
I0608 22:27:56.439734 23885 layer_factory.hpp:77] Creating layer fc7_mbox_conf_flat
I0608 22:27:56.439749 23885 net.cpp:100] Creating Layer fc7_mbox_conf_flat
I0608 22:27:56.439755 23885 net.cpp:434] fc7_mbox_conf_flat <- fc7_mbox_conf_perm
I0608 22:27:56.439765 23885 net.cpp:408] fc7_mbox_conf_flat -> fc7_mbox_conf_flat
I0608 22:27:56.439808 23885 net.cpp:150] Setting up fc7_mbox_conf_flat
I0608 22:27:56.439820 23885 net.cpp:157] Top shape: 8 45486 (363888)
I0608 22:27:56.439826 23885 net.cpp:165] Memory required for data: 1996122720
I0608 22:27:56.439831 23885 layer_factory.hpp:77] Creating layer fc7_mbox_priorbox
I0608 22:27:56.439841 23885 net.cpp:100] Creating Layer fc7_mbox_priorbox
I0608 22:27:56.439851 23885 net.cpp:434] fc7_mbox_priorbox <- fc7_relu7_0_split_3
I0608 22:27:56.439891 23885 net.cpp:434] fc7_mbox_priorbox <- data_data_0_split_2
I0608 22:27:56.439905 23885 net.cpp:408] fc7_mbox_priorbox -> fc7_mbox_priorbox
I0608 22:27:56.439952 23885 net.cpp:150] Setting up fc7_mbox_priorbox
I0608 22:27:56.439963 23885 net.cpp:157] Top shape: 1 2 8664 (17328)
I0608 22:27:56.439970 23885 net.cpp:165] Memory required for data: 1996192032
I0608 22:27:56.439976 23885 layer_factory.hpp:77] Creating layer conv6_2_mbox_loc
I0608 22:27:56.439997 23885 net.cpp:100] Creating Layer conv6_2_mbox_loc
I0608 22:27:56.440007 23885 net.cpp:434] conv6_2_mbox_loc <- conv6_2_conv6_2_relu_0_split_1
I0608 22:27:56.440019 23885 net.cpp:408] conv6_2_mbox_loc -> conv6_2_mbox_loc
I0608 22:27:56.443825 23885 net.cpp:150] Setting up conv6_2_mbox_loc
I0608 22:27:56.443852 23885 net.cpp:157] Top shape: 8 24 10 10 (19200)
I0608 22:27:56.443857 23885 net.cpp:165] Memory required for data: 1996268832
I0608 22:27:56.443867 23885 layer_factory.hpp:77] Creating layer conv6_2_mbox_loc_perm
I0608 22:27:56.443879 23885 net.cpp:100] Creating Layer conv6_2_mbox_loc_perm
I0608 22:27:56.443886 23885 net.cpp:434] conv6_2_mbox_loc_perm <- conv6_2_mbox_loc
I0608 22:27:56.443907 23885 net.cpp:408] conv6_2_mbox_loc_perm -> conv6_2_mbox_loc_perm
I0608 22:27:56.444109 23885 net.cpp:150] Setting up conv6_2_mbox_loc_perm
I0608 22:27:56.444124 23885 net.cpp:157] Top shape: 8 10 10 24 (19200)
I0608 22:27:56.444129 23885 net.cpp:165] Memory required for data: 1996345632
I0608 22:27:56.444135 23885 layer_factory.hpp:77] Creating layer conv6_2_mbox_loc_flat
I0608 22:27:56.444144 23885 net.cpp:100] Creating Layer conv6_2_mbox_loc_flat
I0608 22:27:56.444151 23885 net.cpp:434] conv6_2_mbox_loc_flat <- conv6_2_mbox_loc_perm
I0608 22:27:56.444164 23885 net.cpp:408] conv6_2_mbox_loc_flat -> conv6_2_mbox_loc_flat
I0608 22:27:56.444200 23885 net.cpp:150] Setting up conv6_2_mbox_loc_flat
I0608 22:27:56.444208 23885 net.cpp:157] Top shape: 8 2400 (19200)
I0608 22:27:56.444213 23885 net.cpp:165] Memory required for data: 1996422432
I0608 22:27:56.444219 23885 layer_factory.hpp:77] Creating layer conv6_2_mbox_conf
I0608 22:27:56.444237 23885 net.cpp:100] Creating Layer conv6_2_mbox_conf
I0608 22:27:56.444244 23885 net.cpp:434] conv6_2_mbox_conf <- conv6_2_conv6_2_relu_0_split_2
I0608 22:27:56.444254 23885 net.cpp:408] conv6_2_mbox_conf -> conv6_2_mbox_conf
I0608 22:27:56.452654 23885 net.cpp:150] Setting up conv6_2_mbox_conf
I0608 22:27:56.452692 23885 net.cpp:157] Top shape: 8 126 10 10 (100800)
I0608 22:27:56.452698 23885 net.cpp:165] Memory required for data: 1996825632
I0608 22:27:56.452711 23885 layer_factory.hpp:77] Creating layer conv6_2_mbox_conf_perm
I0608 22:27:56.452724 23885 net.cpp:100] Creating Layer conv6_2_mbox_conf_perm
I0608 22:27:56.452746 23885 net.cpp:434] conv6_2_mbox_conf_perm <- conv6_2_mbox_conf
I0608 22:27:56.452760 23885 net.cpp:408] conv6_2_mbox_conf_perm -> conv6_2_mbox_conf_perm
I0608 22:27:56.452965 23885 net.cpp:150] Setting up conv6_2_mbox_conf_perm
I0608 22:27:56.452981 23885 net.cpp:157] Top shape: 8 10 10 126 (100800)
I0608 22:27:56.452986 23885 net.cpp:165] Memory required for data: 1997228832
I0608 22:27:56.452994 23885 layer_factory.hpp:77] Creating layer conv6_2_mbox_conf_flat
I0608 22:27:56.453003 23885 net.cpp:100] Creating Layer conv6_2_mbox_conf_flat
I0608 22:27:56.453013 23885 net.cpp:434] conv6_2_mbox_conf_flat <- conv6_2_mbox_conf_perm
I0608 22:27:56.453021 23885 net.cpp:408] conv6_2_mbox_conf_flat -> conv6_2_mbox_conf_flat
I0608 22:27:56.453060 23885 net.cpp:150] Setting up conv6_2_mbox_conf_flat
I0608 22:27:56.453073 23885 net.cpp:157] Top shape: 8 12600 (100800)
I0608 22:27:56.453079 23885 net.cpp:165] Memory required for data: 1997632032
I0608 22:27:56.453085 23885 layer_factory.hpp:77] Creating layer conv6_2_mbox_priorbox
I0608 22:27:56.453099 23885 net.cpp:100] Creating Layer conv6_2_mbox_priorbox
I0608 22:27:56.453105 23885 net.cpp:434] conv6_2_mbox_priorbox <- conv6_2_conv6_2_relu_0_split_3
I0608 22:27:56.453114 23885 net.cpp:434] conv6_2_mbox_priorbox <- data_data_0_split_3
I0608 22:27:56.453150 23885 net.cpp:408] conv6_2_mbox_priorbox -> conv6_2_mbox_priorbox
I0608 22:27:56.453194 23885 net.cpp:150] Setting up conv6_2_mbox_priorbox
I0608 22:27:56.453207 23885 net.cpp:157] Top shape: 1 2 2400 (4800)
I0608 22:27:56.453213 23885 net.cpp:165] Memory required for data: 1997651232
I0608 22:27:56.453219 23885 layer_factory.hpp:77] Creating layer conv7_2_mbox_loc
I0608 22:27:56.453236 23885 net.cpp:100] Creating Layer conv7_2_mbox_loc
I0608 22:27:56.453243 23885 net.cpp:434] conv7_2_mbox_loc <- conv7_2_conv7_2_relu_0_split_1
I0608 22:27:56.453254 23885 net.cpp:408] conv7_2_mbox_loc -> conv7_2_mbox_loc
I0608 22:27:56.456501 23885 net.cpp:150] Setting up conv7_2_mbox_loc
I0608 22:27:56.456532 23885 net.cpp:157] Top shape: 8 24 5 5 (4800)
I0608 22:27:56.456537 23885 net.cpp:165] Memory required for data: 1997670432
I0608 22:27:56.456549 23885 layer_factory.hpp:77] Creating layer conv7_2_mbox_loc_perm
I0608 22:27:56.456571 23885 net.cpp:100] Creating Layer conv7_2_mbox_loc_perm
I0608 22:27:56.456583 23885 net.cpp:434] conv7_2_mbox_loc_perm <- conv7_2_mbox_loc
I0608 22:27:56.456593 23885 net.cpp:408] conv7_2_mbox_loc_perm -> conv7_2_mbox_loc_perm
I0608 22:27:56.456794 23885 net.cpp:150] Setting up conv7_2_mbox_loc_perm
I0608 22:27:56.456809 23885 net.cpp:157] Top shape: 8 5 5 24 (4800)
I0608 22:27:56.456815 23885 net.cpp:165] Memory required for data: 1997689632
I0608 22:27:56.456821 23885 layer_factory.hpp:77] Creating layer conv7_2_mbox_loc_flat
I0608 22:27:56.456830 23885 net.cpp:100] Creating Layer conv7_2_mbox_loc_flat
I0608 22:27:56.456836 23885 net.cpp:434] conv7_2_mbox_loc_flat <- conv7_2_mbox_loc_perm
I0608 22:27:56.456848 23885 net.cpp:408] conv7_2_mbox_loc_flat -> conv7_2_mbox_loc_flat
I0608 22:27:56.456889 23885 net.cpp:150] Setting up conv7_2_mbox_loc_flat
I0608 22:27:56.456902 23885 net.cpp:157] Top shape: 8 600 (4800)
I0608 22:27:56.456907 23885 net.cpp:165] Memory required for data: 1997708832
I0608 22:27:56.456913 23885 layer_factory.hpp:77] Creating layer conv7_2_mbox_conf
I0608 22:27:56.456931 23885 net.cpp:100] Creating Layer conv7_2_mbox_conf
I0608 22:27:56.456941 23885 net.cpp:434] conv7_2_mbox_conf <- conv7_2_conv7_2_relu_0_split_2
I0608 22:27:56.456953 23885 net.cpp:408] conv7_2_mbox_conf -> conv7_2_mbox_conf
I0608 22:27:56.462465 23885 net.cpp:150] Setting up conv7_2_mbox_conf
I0608 22:27:56.462497 23885 net.cpp:157] Top shape: 8 126 5 5 (25200)
I0608 22:27:56.462503 23885 net.cpp:165] Memory required for data: 1997809632
I0608 22:27:56.462517 23885 layer_factory.hpp:77] Creating layer conv7_2_mbox_conf_perm
I0608 22:27:56.462532 23885 net.cpp:100] Creating Layer conv7_2_mbox_conf_perm
I0608 22:27:56.462544 23885 net.cpp:434] conv7_2_mbox_conf_perm <- conv7_2_mbox_conf
I0608 22:27:56.462558 23885 net.cpp:408] conv7_2_mbox_conf_perm -> conv7_2_mbox_conf_perm
I0608 22:27:56.462774 23885 net.cpp:150] Setting up conv7_2_mbox_conf_perm
I0608 22:27:56.462790 23885 net.cpp:157] Top shape: 8 5 5 126 (25200)
I0608 22:27:56.462795 23885 net.cpp:165] Memory required for data: 1997910432
I0608 22:27:56.462800 23885 layer_factory.hpp:77] Creating layer conv7_2_mbox_conf_flat
I0608 22:27:56.462812 23885 net.cpp:100] Creating Layer conv7_2_mbox_conf_flat
I0608 22:27:56.462819 23885 net.cpp:434] conv7_2_mbox_conf_flat <- conv7_2_mbox_conf_perm
I0608 22:27:56.462833 23885 net.cpp:408] conv7_2_mbox_conf_flat -> conv7_2_mbox_conf_flat
I0608 22:27:56.462879 23885 net.cpp:150] Setting up conv7_2_mbox_conf_flat
I0608 22:27:56.462893 23885 net.cpp:157] Top shape: 8 3150 (25200)
I0608 22:27:56.462898 23885 net.cpp:165] Memory required for data: 1998011232
I0608 22:27:56.462904 23885 layer_factory.hpp:77] Creating layer conv7_2_mbox_priorbox
I0608 22:27:56.462916 23885 net.cpp:100] Creating Layer conv7_2_mbox_priorbox
I0608 22:27:56.462924 23885 net.cpp:434] conv7_2_mbox_priorbox <- conv7_2_conv7_2_relu_0_split_3
I0608 22:27:56.462931 23885 net.cpp:434] conv7_2_mbox_priorbox <- data_data_0_split_4
I0608 22:27:56.462940 23885 net.cpp:408] conv7_2_mbox_priorbox -> conv7_2_mbox_priorbox
I0608 22:27:56.463047 23885 net.cpp:150] Setting up conv7_2_mbox_priorbox
I0608 22:27:56.463058 23885 net.cpp:157] Top shape: 1 2 600 (1200)
I0608 22:27:56.463063 23885 net.cpp:165] Memory required for data: 1998016032
I0608 22:27:56.463068 23885 layer_factory.hpp:77] Creating layer conv8_2_mbox_loc
I0608 22:27:56.463085 23885 net.cpp:100] Creating Layer conv8_2_mbox_loc
I0608 22:27:56.463093 23885 net.cpp:434] conv8_2_mbox_loc <- conv8_2_conv8_2_relu_0_split_1
I0608 22:27:56.463105 23885 net.cpp:408] conv8_2_mbox_loc -> conv8_2_mbox_loc
I0608 22:27:56.465628 23885 net.cpp:150] Setting up conv8_2_mbox_loc
I0608 22:27:56.465653 23885 net.cpp:157] Top shape: 8 16 3 3 (1152)
I0608 22:27:56.465658 23885 net.cpp:165] Memory required for data: 1998020640
I0608 22:27:56.465699 23885 layer_factory.hpp:77] Creating layer conv8_2_mbox_loc_perm
I0608 22:27:56.465710 23885 net.cpp:100] Creating Layer conv8_2_mbox_loc_perm
I0608 22:27:56.465718 23885 net.cpp:434] conv8_2_mbox_loc_perm <- conv8_2_mbox_loc
I0608 22:27:56.465726 23885 net.cpp:408] conv8_2_mbox_loc_perm -> conv8_2_mbox_loc_perm
I0608 22:27:56.465936 23885 net.cpp:150] Setting up conv8_2_mbox_loc_perm
I0608 22:27:56.465948 23885 net.cpp:157] Top shape: 8 3 3 16 (1152)
I0608 22:27:56.465955 23885 net.cpp:165] Memory required for data: 1998025248
I0608 22:27:56.465960 23885 layer_factory.hpp:77] Creating layer conv8_2_mbox_loc_flat
I0608 22:27:56.465968 23885 net.cpp:100] Creating Layer conv8_2_mbox_loc_flat
I0608 22:27:56.465975 23885 net.cpp:434] conv8_2_mbox_loc_flat <- conv8_2_mbox_loc_perm
I0608 22:27:56.465986 23885 net.cpp:408] conv8_2_mbox_loc_flat -> conv8_2_mbox_loc_flat
I0608 22:27:56.466022 23885 net.cpp:150] Setting up conv8_2_mbox_loc_flat
I0608 22:27:56.466032 23885 net.cpp:157] Top shape: 8 144 (1152)
I0608 22:27:56.466038 23885 net.cpp:165] Memory required for data: 1998029856
I0608 22:27:56.466044 23885 layer_factory.hpp:77] Creating layer conv8_2_mbox_conf
I0608 22:27:56.466058 23885 net.cpp:100] Creating Layer conv8_2_mbox_conf
I0608 22:27:56.466065 23885 net.cpp:434] conv8_2_mbox_conf <- conv8_2_conv8_2_relu_0_split_2
I0608 22:27:56.466075 23885 net.cpp:408] conv8_2_mbox_conf -> conv8_2_mbox_conf
I0608 22:27:56.470451 23885 net.cpp:150] Setting up conv8_2_mbox_conf
I0608 22:27:56.470480 23885 net.cpp:157] Top shape: 8 84 3 3 (6048)
I0608 22:27:56.470486 23885 net.cpp:165] Memory required for data: 1998054048
I0608 22:27:56.470497 23885 layer_factory.hpp:77] Creating layer conv8_2_mbox_conf_perm
I0608 22:27:56.470508 23885 net.cpp:100] Creating Layer conv8_2_mbox_conf_perm
I0608 22:27:56.470516 23885 net.cpp:434] conv8_2_mbox_conf_perm <- conv8_2_mbox_conf
I0608 22:27:56.470531 23885 net.cpp:408] conv8_2_mbox_conf_perm -> conv8_2_mbox_conf_perm
I0608 22:27:56.470746 23885 net.cpp:150] Setting up conv8_2_mbox_conf_perm
I0608 22:27:56.470759 23885 net.cpp:157] Top shape: 8 3 3 84 (6048)
I0608 22:27:56.470764 23885 net.cpp:165] Memory required for data: 1998078240
I0608 22:27:56.470770 23885 layer_factory.hpp:77] Creating layer conv8_2_mbox_conf_flat
I0608 22:27:56.470782 23885 net.cpp:100] Creating Layer conv8_2_mbox_conf_flat
I0608 22:27:56.470788 23885 net.cpp:434] conv8_2_mbox_conf_flat <- conv8_2_mbox_conf_perm
I0608 22:27:56.470798 23885 net.cpp:408] conv8_2_mbox_conf_flat -> conv8_2_mbox_conf_flat
I0608 22:27:56.470834 23885 net.cpp:150] Setting up conv8_2_mbox_conf_flat
I0608 22:27:56.470842 23885 net.cpp:157] Top shape: 8 756 (6048)
I0608 22:27:56.470849 23885 net.cpp:165] Memory required for data: 1998102432
I0608 22:27:56.470854 23885 layer_factory.hpp:77] Creating layer conv8_2_mbox_priorbox
I0608 22:27:56.470865 23885 net.cpp:100] Creating Layer conv8_2_mbox_priorbox
I0608 22:27:56.470871 23885 net.cpp:434] conv8_2_mbox_priorbox <- conv8_2_conv8_2_relu_0_split_3
I0608 22:27:56.470880 23885 net.cpp:434] conv8_2_mbox_priorbox <- data_data_0_split_5
I0608 22:27:56.470890 23885 net.cpp:408] conv8_2_mbox_priorbox -> conv8_2_mbox_priorbox
I0608 22:27:56.470932 23885 net.cpp:150] Setting up conv8_2_mbox_priorbox
I0608 22:27:56.470952 23885 net.cpp:157] Top shape: 1 2 144 (288)
I0608 22:27:56.470991 23885 net.cpp:165] Memory required for data: 1998103584
I0608 22:27:56.470999 23885 layer_factory.hpp:77] Creating layer conv9_2_mbox_loc
I0608 22:27:56.471014 23885 net.cpp:100] Creating Layer conv9_2_mbox_loc
I0608 22:27:56.471021 23885 net.cpp:434] conv9_2_mbox_loc <- conv9_2_conv9_2_relu_0_split_0
I0608 22:27:56.471032 23885 net.cpp:408] conv9_2_mbox_loc -> conv9_2_mbox_loc
I0608 22:27:56.473369 23885 net.cpp:150] Setting up conv9_2_mbox_loc
I0608 22:27:56.473394 23885 net.cpp:157] Top shape: 8 16 1 1 (128)
I0608 22:27:56.473400 23885 net.cpp:165] Memory required for data: 1998104096
I0608 22:27:56.473409 23885 layer_factory.hpp:77] Creating layer conv9_2_mbox_loc_perm
I0608 22:27:56.473423 23885 net.cpp:100] Creating Layer conv9_2_mbox_loc_perm
I0608 22:27:56.473428 23885 net.cpp:434] conv9_2_mbox_loc_perm <- conv9_2_mbox_loc
I0608 22:27:56.473446 23885 net.cpp:408] conv9_2_mbox_loc_perm -> conv9_2_mbox_loc_perm
I0608 22:27:56.473654 23885 net.cpp:150] Setting up conv9_2_mbox_loc_perm
I0608 22:27:56.473665 23885 net.cpp:157] Top shape: 8 1 1 16 (128)
I0608 22:27:56.473671 23885 net.cpp:165] Memory required for data: 1998104608
I0608 22:27:56.473677 23885 layer_factory.hpp:77] Creating layer conv9_2_mbox_loc_flat
I0608 22:27:56.473685 23885 net.cpp:100] Creating Layer conv9_2_mbox_loc_flat
I0608 22:27:56.473693 23885 net.cpp:434] conv9_2_mbox_loc_flat <- conv9_2_mbox_loc_perm
I0608 22:27:56.473703 23885 net.cpp:408] conv9_2_mbox_loc_flat -> conv9_2_mbox_loc_flat
I0608 22:27:56.473739 23885 net.cpp:150] Setting up conv9_2_mbox_loc_flat
I0608 22:27:56.473749 23885 net.cpp:157] Top shape: 8 16 (128)
I0608 22:27:56.473755 23885 net.cpp:165] Memory required for data: 1998105120
I0608 22:27:56.473762 23885 layer_factory.hpp:77] Creating layer conv9_2_mbox_conf
I0608 22:27:56.473775 23885 net.cpp:100] Creating Layer conv9_2_mbox_conf
I0608 22:27:56.473798 23885 net.cpp:434] conv9_2_mbox_conf <- conv9_2_conv9_2_relu_0_split_1
I0608 22:27:56.473808 23885 net.cpp:408] conv9_2_mbox_conf -> conv9_2_mbox_conf
I0608 22:27:56.478397 23885 net.cpp:150] Setting up conv9_2_mbox_conf
I0608 22:27:56.478427 23885 net.cpp:157] Top shape: 8 84 1 1 (672)
I0608 22:27:56.478433 23885 net.cpp:165] Memory required for data: 1998107808
I0608 22:27:56.478444 23885 layer_factory.hpp:77] Creating layer conv9_2_mbox_conf_perm
I0608 22:27:56.478458 23885 net.cpp:100] Creating Layer conv9_2_mbox_conf_perm
I0608 22:27:56.478471 23885 net.cpp:434] conv9_2_mbox_conf_perm <- conv9_2_mbox_conf
I0608 22:27:56.478480 23885 net.cpp:408] conv9_2_mbox_conf_perm -> conv9_2_mbox_conf_perm
I0608 22:27:56.478693 23885 net.cpp:150] Setting up conv9_2_mbox_conf_perm
I0608 22:27:56.478705 23885 net.cpp:157] Top shape: 8 1 1 84 (672)
I0608 22:27:56.478711 23885 net.cpp:165] Memory required for data: 1998110496
I0608 22:27:56.478718 23885 layer_factory.hpp:77] Creating layer conv9_2_mbox_conf_flat
I0608 22:27:56.478727 23885 net.cpp:100] Creating Layer conv9_2_mbox_conf_flat
I0608 22:27:56.478734 23885 net.cpp:434] conv9_2_mbox_conf_flat <- conv9_2_mbox_conf_perm
I0608 22:27:56.478742 23885 net.cpp:408] conv9_2_mbox_conf_flat -> conv9_2_mbox_conf_flat
I0608 22:27:56.478782 23885 net.cpp:150] Setting up conv9_2_mbox_conf_flat
I0608 22:27:56.478808 23885 net.cpp:157] Top shape: 8 84 (672)
I0608 22:27:56.478813 23885 net.cpp:165] Memory required for data: 1998113184
I0608 22:27:56.478819 23885 layer_factory.hpp:77] Creating layer conv9_2_mbox_priorbox
I0608 22:27:56.478827 23885 net.cpp:100] Creating Layer conv9_2_mbox_priorbox
I0608 22:27:56.478834 23885 net.cpp:434] conv9_2_mbox_priorbox <- conv9_2_conv9_2_relu_0_split_2
I0608 22:27:56.478842 23885 net.cpp:434] conv9_2_mbox_priorbox <- data_data_0_split_6
I0608 22:27:56.478853 23885 net.cpp:408] conv9_2_mbox_priorbox -> conv9_2_mbox_priorbox
I0608 22:27:56.478893 23885 net.cpp:150] Setting up conv9_2_mbox_priorbox
I0608 22:27:56.478907 23885 net.cpp:157] Top shape: 1 2 16 (32)
I0608 22:27:56.478912 23885 net.cpp:165] Memory required for data: 1998113312
I0608 22:27:56.478948 23885 layer_factory.hpp:77] Creating layer mbox_loc
I0608 22:27:56.478976 23885 net.cpp:100] Creating Layer mbox_loc
I0608 22:27:56.478986 23885 net.cpp:434] mbox_loc <- conv4_3_norm_mbox_loc_flat
I0608 22:27:56.478993 23885 net.cpp:434] mbox_loc <- fc7_mbox_loc_flat
I0608 22:27:56.479002 23885 net.cpp:434] mbox_loc <- conv6_2_mbox_loc_flat
I0608 22:27:56.479010 23885 net.cpp:434] mbox_loc <- conv7_2_mbox_loc_flat
I0608 22:27:56.479017 23885 net.cpp:434] mbox_loc <- conv8_2_mbox_loc_flat
I0608 22:27:56.479024 23885 net.cpp:434] mbox_loc <- conv9_2_mbox_loc_flat
I0608 22:27:56.479035 23885 net.cpp:408] mbox_loc -> mbox_loc
I0608 22:27:56.479090 23885 net.cpp:150] Setting up mbox_loc
I0608 22:27:56.479104 23885 net.cpp:157] Top shape: 8 34928 (279424)
I0608 22:27:56.479110 23885 net.cpp:165] Memory required for data: 1999231008
I0608 22:27:56.479115 23885 layer_factory.hpp:77] Creating layer mbox_conf
I0608 22:27:56.479128 23885 net.cpp:100] Creating Layer mbox_conf
I0608 22:27:56.479136 23885 net.cpp:434] mbox_conf <- conv4_3_norm_mbox_conf_flat
I0608 22:27:56.479143 23885 net.cpp:434] mbox_conf <- fc7_mbox_conf_flat
I0608 22:27:56.479151 23885 net.cpp:434] mbox_conf <- conv6_2_mbox_conf_flat
I0608 22:27:56.479158 23885 net.cpp:434] mbox_conf <- conv7_2_mbox_conf_flat
I0608 22:27:56.479166 23885 net.cpp:434] mbox_conf <- conv8_2_mbox_conf_flat
I0608 22:27:56.479172 23885 net.cpp:434] mbox_conf <- conv9_2_mbox_conf_flat
I0608 22:27:56.479181 23885 net.cpp:408] mbox_conf -> mbox_conf
I0608 22:27:56.479219 23885 net.cpp:150] Setting up mbox_conf
I0608 22:27:56.479233 23885 net.cpp:157] Top shape: 8 183372 (1466976)
I0608 22:27:56.479238 23885 net.cpp:165] Memory required for data: 2005098912
I0608 22:27:56.479244 23885 layer_factory.hpp:77] Creating layer mbox_priorbox
I0608 22:27:56.479252 23885 net.cpp:100] Creating Layer mbox_priorbox
I0608 22:27:56.479259 23885 net.cpp:434] mbox_priorbox <- conv4_3_norm_mbox_priorbox
I0608 22:27:56.479266 23885 net.cpp:434] mbox_priorbox <- fc7_mbox_priorbox
I0608 22:27:56.479274 23885 net.cpp:434] mbox_priorbox <- conv6_2_mbox_priorbox
I0608 22:27:56.479280 23885 net.cpp:434] mbox_priorbox <- conv7_2_mbox_priorbox
I0608 22:27:56.479287 23885 net.cpp:434] mbox_priorbox <- conv8_2_mbox_priorbox
I0608 22:27:56.479293 23885 net.cpp:434] mbox_priorbox <- conv9_2_mbox_priorbox
I0608 22:27:56.479308 23885 net.cpp:408] mbox_priorbox -> mbox_priorbox
I0608 22:27:56.479346 23885 net.cpp:150] Setting up mbox_priorbox
I0608 22:27:56.479358 23885 net.cpp:157] Top shape: 1 2 34928 (69856)
I0608 22:27:56.479363 23885 net.cpp:165] Memory required for data: 2005378336
I0608 22:27:56.479369 23885 layer_factory.hpp:77] Creating layer mbox_loss
I0608 22:27:56.479387 23885 net.cpp:100] Creating Layer mbox_loss
I0608 22:27:56.479395 23885 net.cpp:434] mbox_loss <- mbox_loc
I0608 22:27:56.479403 23885 net.cpp:434] mbox_loss <- mbox_conf
I0608 22:27:56.479408 23885 net.cpp:434] mbox_loss <- mbox_priorbox
…
state {
  phase: TEST
}
layer {
  name: "data"
  type: "AnnotatedData"
  top: "data"
  top: "label"
  include {
    phase: TEST
  }
  transform_param {
    mean_value: 104
    mean_value: 117
    mean_value: 123
    resize_param {
      prob: 1
      resize_mode: WARP
      height: 300
      width: 300
      interp_mode: LINEAR
    }
  }
  data_param {
    source: "examples/VOC0712/VOC0712_test_lmdb"
    batch_size: 1
    backend: LMDB
  }
  annotated_data_param {
    batch_sampler {
    }
    label_map_file: "data/VOC0712/labelmap_voc.prototxt"
  }
}
layer {
  name: "conv1_1"
  type: "Convolution"
  bottom: "data"
  top: "conv1_1"
  param {
    lr_mult: 1
    decay_mult: 1
  }
  param {
    lr_mult: 2
    decay_mult: 0
  }
  convolution_param {
    num_output: 64
    pad: 1
    kernel_size: 3
    weight_filler {
      type: "xavier"
    }
    bias_filler {
      type: "constant"
      value: 0
    }
  }
}
layer {
  name: "relu1_1"
  type: "ReLU"
  bottom: "conv1_1"
  top: "conv1_1"
}
layer {
  name: "conv1_2"
  type: "Convolution"
  bottom: "conv1_1"
  top: "conv1_2"
  param {
    lr_mult: 1
    decay_mult: 1
  }
  param {
    lr_mult: 2
    decay_mult: 0
  }
  convolution_param {
    num_output: 64
    pad: 1
    kernel_size: 3
    weight_filler {
      type: "xavier"
    }
    bias_filler {
      type: "constant"
      value: 0
    }
  }
}
layer {
  name: "relu1_2"
  type: "ReLU"
  bottom: "conv1_2"
  top: "conv1_2"
}
layer {
  name: "pool1"
  type: "Pooling"
  bottom: "conv1_2"
  top: "pool1"
  pooling_param {
    pool: MAX
    kernel_size: 2
    stride: 2
  }
}
layer {
  name: "conv2_1"
  type: "Convolution"
  bottom: "pool1"
  top: "conv2_1"
  param {
    lr_mult: 1
    decay_mult: 1
  }
  param {
    lr_mult: 2
    decay_mult: 0
  }
  convolution_param {
    num_output: 128
    pad: 1
    kernel_size: 3
    weight_filler {
      type: "xavier"
    }
    bias_filler {
      type: "constant"
      value: 0
    }
  }
}
layer {
  name: "relu2_1"
  type: "ReLU"
  bottom: "conv2_1"
  top: "conv2_1"
}
layer {
  name: "conv2_2"
  type: "Convolution"
  bottom: "conv2_1"
  top: "conv2_2"
  param {
    lr_mult: 1
    decay_mult: 1
  }
  param {
    lr_mult: 2
    decay_mult: 0
  }
  convolution_param {
    num_output: 128
    pad: 1
    kernel_size: 3
    weight_filler {
      type: "xavier"
    }
    bias_filler {
      type: "constant"
      value: 0
    }
  }
}
layer {
  name: "relu2_2"
  type: "ReLU"
  bottom: "conv2_2"
  top: "conv2_2"
}
layer {
  name: "pool2"
  type: "Pooling"
  bottom: "conv2_2"
  top: "pool2"
  pooling_param {
    pool: MAX
    kernel_size: 2
    stride: 2
  }
}
layer {
  name: "conv3_1"
  type: "Convolution"
  bottom: "pool2"
  top: "conv3_1"
  param {
    lr_mult: 1
    decay_mult: 1
  }
  param {
    lr_mult: 2
    decay_mult: 0
  }
  convolution_param {
    num_output: 256
    pad: 1
    kernel_size: 3
    weight_filler {
      type: "xavier"
    }
    bias_filler {
      type: "constant"
      value: 0
    }
  }
}
layer {
  name: "relu3_1"
  type: "ReLU"
  bottom: "conv3_1"
  top: "conv3_1"
}
layer {
  name: "conv3_2"
  type: "Convolution"
  bottom: "conv3_1"
  top: "conv3_2"
  param {
    lr_mult: 1
    decay_mult: 1
  }
  param {
    lr_mult: 2
    decay_mult: 0
  }
  convolution_param {
    num_output: 256
    pad: 1
    kernel_size: 3
    weight_filler {
      type: "xavier"
    }
    bias_filler {
      type: "constant"
      value: 0
    }
  }
}
layer {
  name: "relu3_2"
  type: "ReLU"
  bottom: "conv3_2"
  top: "conv3_2"
}
layer {
  name: "conv3_3"
  type: "Convolution"
  bottom: "conv3_2"
  top: "conv3_3"
  param {
    lr_mult: 1
    decay_mult: 1
  }
  param {
    lr_mult: 2
    decay_mult: 0
  }
  convolution_param {
    num_output: 256
    pad: 1
    kernel_size: 3
    weight_filler {
      type: "xavier"
    }
    bias_filler {
      type: "constant"
      value: 0
    }
  }
}
layer {
  name: "relu3_3"
  type: "ReLU"
  bottom: "conv3_3"
  top: "conv3_3"
}
layer {
  name: "pool3"
  type: "Pooling"
  bottom: "conv3_3"
  top: "pool3"
  pooling_param {
    pool: MAX
    kernel_size: 2
    stride: 2
  }
}
layer {
  name: "conv4_1"
  type: "Convolution"
  bottom: "pool3"
  top: "conv4_1"
  param {
    lr_mult: 1
    decay_mult: 1
  }
  param {
    lr_mult: 2
    decay_mult: 0
  }
  convolution_param {
    num_output: 512
    pad: 1
    kernel_size: 3
    weight_filler {
      type: "xavier"
    }
    bias_filler {
      type: "constant"
      value: 0
    }
  }
}
layer {
  name: "relu4_1"
  type: "ReLU"
  bottom: "conv4_1"
  top: "conv4_1"
}
layer {
  name: "conv4_2"
  type: "Convolution"
  bottom: "conv4_1"
  top: "conv4_2"
  param {
    lr_mult: 1
    decay_mult: 1
  }
  param {
    lr_mult: 2
    decay_mult: 0
  }
  convolution_param {
    num_output: 512
    pad: 1
    kernel_size: 3
    weight_filler {
      type: "xavier"
    }
    bias_filler {
      type: "constant"
      value: 0
    }
  }
}
layer {
  name: "relu4_2"
  type: "ReLU"
  bottom: "conv4_2"
  top: "conv4_2"
}
layer {
  name: "conv4_3"
  type: "Convolution"
  bottom: "conv4_2"
  top: "conv4_3"
  param {
    lr_mult: 1
    decay_mult: 1
  }
  param {
    lr_mult: 2
    decay_mult: 0
  }
  convolution_param {
    num_output: 512
    pad: 1
    kernel_size: 3
    weight_filler {
      type: "xavier"
    }
    bias_filler {
      type: "constant"
      value: 0
    }
  }
}
layer {
  name: "relu4_3"
  type: "ReLU"
  bottom: "conv4_3"
  top: "conv4_3"
}
layer {
  name: "pool4"
  type: "Pooling"
  bottom: "conv4_3"
  top: "pool4"
  pooling_param {
    pool: MAX
    kernel_size: 2
    stride: 2
  }
}
layer {
  name: "conv5_1"
  type: "Convolution"
  bottom: "pool4"
  top: "conv5_1"
  param {
    lr_mult: 1
    decay_mult: 1
  }
  param {
    lr_mult: 2
    decay_mult: 0
  }
  convolution_param {
    num_output: 512
    pad: 1
    kernel_size: 3
    weight_filler {
      type: "xavier"
    }
    bias_filler {
      type: "constant"
      value: 0
    }
    dilation: 1
  }
}
layer {
  name: "relu5_1"
  type: "ReLU"
  bottom: "conv5_1"
  top: "conv5_1"
}
layer {
  name: "conv5_2"
  type: "Convolution"
  bottom: "conv5_1"
  top: "conv5_2"
  param {
    lr_mult: 1
    decay_mult: 1
  }
  param {
    lr_mult: 2
    decay_mult: 0
  }
  convolution_param {
    num_output: 512
    pad: 1
    kernel_size: 3
    weight_filler {
      type: "xavier"
    }
    bias_filler {
      type: "constant"
      value: 0
    }
    dilation: 1
  }
}
layer {
  name: "relu5_2"
  type: "ReLU"
  bottom: "conv5_2"
  top: "conv5_2"
}
layer {
  name: "conv5_3"
  type: "Convolution"
  bottom: "conv5_2"
  top: "conv5_3"
  param {
    lr_mult: 1
    decay_mult: 1
  }
  param {
    lr_mult: 2
    decay_mult: 0
  }
  convolution_param {
    num_output: 512
    pad: 1
    kernel_size: 3
    weight_filler {
      type: "xavier"
    }
    bias_filler {
      type: "constant"
      value: 0
    }
    dilation: 1
  }
}
layer {
  name: "relu5_3"
  type: "ReLU"
  bottom: "conv5_3"
  top: "conv5_3"
}
layer {
  name: "pool5"
  type: "Pooling"
  bottom: "conv5_3"
  top: "pool5"
  pooling_param {
    pool: MAX
    kernel_size: 3
    stride: 1
    pad: 1
  }
}
layer {
  name: "fc6"
  type: "Convolution"
  bottom: "pool5"
  top: "fc6"
  param {
    lr_mult: 1
    decay_mult: 1
  }
  param {
    lr_mult: 2
    decay_mult: 0
  }
  convolution_param {
    num_output: 1024
    pad: 6
    kernel_size: 3
    weight_filler {
      type: "xavier"
    }
    bias_filler {
      type: "constant"
      value: 0
    }
    dilation: 6
  }
}
layer {
  name: "relu6"
  type: "ReLU"
  bottom: "fc6"
  top: "fc6"
}
layer {
  name: "fc7"
  type: "Convolution"
  bottom: "fc6"
  top: "fc7"
  param {
    lr_mult: 1
    decay_mult: 1
  }
  param {
    lr_mult: 2
    decay_mult: 0
  }
  convolution_param {
    num_output: 1024
    kernel_size: 1
    weight_filler {
      type: "xavier"
    }
    bias_filler {
      type: "constant"
      value: 0
    }
  }
}
layer {
  name: "relu7"
  type: "ReLU"
  bottom: "fc7"
  top: "fc7"
}
layer {
  name: "conv6_1"
  type: "Convolution"
  bottom: "fc7"
  top: "conv6_1"
  param {
    lr_mult: 1
    decay_mult: 1
  }
  param {
    lr_mult: 2
    decay_mult: 0
  }
  convolution_param {
    num_output: 256
    pad: 0
    kernel_size: 1
    stride: 1
    weight_filler {
      type: "xavier"
    }
    bias_filler {
      type: "constant"
      value: 0
    }
  }
}
layer {
  name: "conv6_1_relu"
  type: "ReLU"
  bottom: "conv6_1"
  top: "conv6_1"
}
layer {
  name: "conv6_2"
  type: "Convolution"
  bottom: "conv6_1"
  top: "conv6_2"
  param {
    lr_mult: 1
    decay_mult: 1
  }
  param {
    lr_mult: 2
    decay_mult: 0
  }
  convolution_param {
    num_output: 512
    pad: 1
    kernel_size: 3
    stride: 2
    weight_filler {
      type: "xavier"
    }
    bias_filler {
      type: "constant"
      value: 0
    }
  }
}
layer {
  name: "conv6_2_relu"
  type: "ReLU"
  bottom: "conv6_2"
  top: "conv6_2"
}
layer {
  name: "conv7_1"
  type: "Convolution"
  bottom: "conv6_2"
  top: "conv7_1"
  param {
    lr_mult: 1
    decay_mult: 1
  }
  param {
    lr_mult: 2
    decay_mult: 0
  }
  convolution_param {
    num_output: 128
    pad: 0
    kernel_size: 1
    stride: 1
    weight_filler {
      type: "xavier"
    }
    bias_filler {
      type: "constant"
      value: 0
    }
  }
}
layer {
  name: "conv7_1_relu"
  type: "ReLU"
  bottom: "conv7_1"
  top: "conv7_1"
}
layer {
  name: "conv7_2"
  type: "Convolution"
  bottom: "conv7_1"
  top: "conv7_2"
  param {
    lr_mult: 1
    decay_mult: 1
  }
  param {
    lr_mult: 2
    decay_mult: 0
  }
  convolution_param {
    num_output: 256
    pad: 1
    kernel_size: 3
    stride: 2
    weight_filler {
      type: "xavier"
    }
    bias_filler {
      type: "constant"
      value: 0
    }
  }
}
layer {
  name: "conv7_2_relu"
  type: "ReLU"
  bottom: "conv7_2"
  top: "conv7_2"
}
layer {
  name: "conv8_1"
  type: "Convolution"
  bottom: "conv7_2"
  top: "conv8_1"
  param {
    lr_mult: 1
    decay_mult: 1
  }
  param {
    lr_mult: 2
    decay_mult: 0
  }
  convolution_param {
    num_output: 128
    pad: 0
    kernel_size: 1
    stride: 1
    weight_filler {
      type: "xavier"
    }
    bias_filler {
      type: "constant"
      value: 0
    }
  }
}
layer {
  name: "conv8_1_relu"
  type: "ReLU"
  bottom: "conv8_1"
  top: "conv8_1"
}
layer {
  name: "conv8_2"
  type: "Convolution"
  bottom: "conv8_1"
  top: "conv8_2"
  param {
    lr_mult: 1
    decay_mult: 1
  }
  param {
    lr_mult: 2
    decay_mult: 0
  }
  convolution_param {
    num_output: 256
    pad: 0
    kernel_size: 3
    stride: 1
    weight_filler {
      type: "xavier"
    }
    bias_filler {
      type: "constant"
      value: 0
    }
  }
}
layer {
  name: "conv8_2_relu"
  type: "ReLU"
  bottom: "conv8_2"
  top: "conv8_2"
}
layer {
  name: "conv9_1"
  type: "Convolution"
  bottom: "conv8_2"
  top: "conv9_1"
  param {
    lr_mult: 1
    decay_mult: 1
  }
  param {
    lr_mult: 2
    decay_mult: 0
  }
  convolution_param {
    num_output: 128
    pad: 0
    kernel_size: 1
    stride: 1
    weight_filler {
      type: "xavier"
    }
    bias_filler {
      type: "constant"
      value: 0
    }
  }
}
layer {
  name: "conv9_1_relu"
  type: "ReLU"
  bottom: "conv9_1"
  top: "conv9_1"
}
layer {
  name: "conv9_2"
  type: "Convolution"
  bottom: "conv9_1"
  top: "conv9_2"
  param {
    lr_mult: 1
    decay_mult: 1
  }
  param {
    lr_mult: 2
    decay_mult: 0
  }
  convolution_param {
    num_output: 256
    pad: 0
    kernel_size: 3
    stride: 1
    weight_filler {
      type: "xavier"
    }
    bias_filler {
      type: "constant"
      value: 0
    }
  }
}
layer {
  name: "conv9_2_relu"
  type: "ReLU"
  bottom: "conv9_2"
  top: "conv9_2"
}
layer {
  name: "conv4_3_norm"
  type: "Normalize"
  bottom: "conv4_3"
  top: "conv4_3_norm"
  norm_param {
    across_spatial: false
    scale_filler {
      type: "constant"
      value: 20
    }
    channel_shared: false
  }
}
layer {
  name: "conv4_3_norm_mbox_loc"
  type: "Convolution"
  bottom: "conv4_3_norm"
  top: "conv4_3_norm_mbox_loc"
  param {
    lr_mult: 1
    decay_mult: 1
  }
  param {
    lr_mult: 2
    decay_mult: 0
  }
  convolution_param {
    num_output: 16
    pad: 1
    kernel_size: 3
    stride: 1
    weight_filler {
      type: "xavier"
    }
    bias_filler {
      type: "constant"
      value: 0
    }
  }
}
layer {
  name: "conv4_3_norm_mbox_loc_perm"
  type: "Permute"
  bottom: "conv4_3_norm_mbox_loc"
  top: "conv4_3_norm_mbox_loc_perm"
  permute_param {
    order: 0
    order: 2
    order: 3
    order: 1
  }
}
layer {
  name: "conv4_3_norm_mbox_loc_flat"
  type: "Flatten"
  bottom: "conv4_3_norm_mbox_loc_perm"
  top: "conv4_3_norm_mbox_loc_flat"
  flatten_param {
    axis: 1
  }
}
layer {
  name: "conv4_3_norm_mbox_conf"
  type: "Convolution"
  bottom: "conv4_3_norm"
  top: "conv4_3_norm_mbox_conf"
  param {
    lr_mult: 1
    decay_mult: 1
  }
  param {
    lr_mult: 2
    decay_mult: 0
  }
  convolution_param {
    num_output: 84
    pad: 1
    kernel_size: 3
    stride: 1
    weight_filler {
      type: "xavier"
    }
    bias_filler {
      type: "constant"
      value: 0
    }
  }
}
layer {
  name: "conv4_3_norm_mbox_conf_perm"
  type: "Permute"
  bottom: "conv4_3_norm_mbox_conf"
  top: "conv4_3_norm_mbox_conf_perm"
  permute_param {
    order: 0
    order: 2
    order: 3
    order: 1
  }
}
layer {
  name: "conv4_3_norm_mbox_conf_flat"
  type: "Flatten"
  bottom: "conv4_3_norm_mbox_conf_perm"
  top: "conv4_3_norm_mbox_conf_flat"
  flatten_param {
    axis: 1
  }
}
layer {
  name: "conv4_3_norm_mbox_priorbox"
  type: "PriorBox"
  bottom: "conv4_3_norm"
  bottom: "data"
  top: "conv4_3_norm_mbox_priorbox"
  prior_box_param {
    min_size: 30
    max_size: 60
    aspect_ratio: 2
    flip: true
    clip: false
    variance: 0.1
    variance: 0.1
    variance: 0.2
    variance: 0.2
    step: 8
    offset: 0.5
  }
}
layer {
  name: "fc7_mbox_loc"
  type: "Convolution"
  bottom: "fc7"
  top: "fc7_mbox_loc"
  param {
    lr_mult: 1
    decay_mult: 1
  }
  param {
    lr_mult: 2
    decay_mult: 0
  }
  convolution_param {
    num_output: 24
    pad: 1
    kernel_size: 3
    stride: 1
    weight_filler {
      type: "xavier"
    }
    bias_filler {
      type: "constant"
      value: 0
    }
  }
}
layer {
  name: "fc7_mbox_loc_perm"
  type: "Permute"
  bottom: "fc7_mbox_loc"
  top: "fc7_mbox_loc_perm"
  permute_param {
    order: 0
    order: 2
    order: 3
    order: 1
  }
}
layer {
  name: "fc7_mbox_loc_flat"
  type: "Flatten"
  bottom: "fc7_mbox_loc_perm"
  top: "fc7_mbox_loc_flat"
  flatten_param {
    axis: 1
  }
}
layer {
  name: "fc7_mbox_conf"
  type: "Convolution"
  bottom: "fc7"
  top: "fc7_mbox_conf"
  param {
    lr_mult: 1
    decay_mult: 1
  }
  param {
    lr_mult: 2
    decay_mult: 0
  }
  convolution_param {
    num_output: 126
    pad: 1
    kernel_size: 3
    stride: 1
    weight_filler {
      type: "xavier"
    }
    bias_filler {
      type: "constant"
      value: 0
    }
  }
}
layer {
  name: "fc7_mbox_conf_perm"
  type: "Permute"
  bottom: "fc7_mbox_conf"
  top: "fc7_mbox_conf_perm"
  permute_param {
    order: 0
    order: 2
    order: 3
    order: 1
  }
}
layer {
  name: "fc7_mbox_conf_flat"
  type: "Flatten"
  bottom: "fc7_mbox_conf_perm"
  top: "fc7_mbox_conf_flat"
  flatten_param {
    axis: 1
  }
}
layer {
  name: "fc7_mbox_priorbox"
  type: "PriorBox"
  bottom: "fc7"
  bottom: "data"
  top: "fc7_mbox_priorbox"
  prior_box_param {
    min_size: 60
    max_size: 111
    aspect_ratio: 2
    aspect_ratio: 3
    flip: true
    clip: false
    variance: 0.1
    variance: 0.1
    variance: 0.2
    variance: 0.2
    step: 16
    offset: 0.5
  }
}
layer {
  name: "conv6_2_mbox_loc"
  type: "Convolution"
  bottom: "conv6_2"
  top: "conv6_2_mbox_loc"
  param {
    lr_mult: 1
    decay_mult: 1
  }
  param {
    lr_mult: 2
    decay_mult: 0
  }
  convolution_param {
    num_output: 24
    pad: 1
    kernel_size: 3
    stride: 1
    weight_filler {
      type: "xavier"
    }
    bias_filler {
      type: "constant"
      value: 0
    }
  }
}
layer {
  name: "conv6_2_mbox_loc_perm"
  type: "Permute"
  bottom: "conv6_2_mbox_loc"
  top: "conv6_2_mbox_loc_perm"
  permute_param {
    order: 0
    order: 2
    order: 3
    order: 1
  }
}
layer {
  name: "conv6_2_mbox_loc_flat"
  type: "Flatten"
  bottom: "conv6_2_mbox_loc_perm"
  top: "conv6_2_mbox_loc_flat"
  flatten_param {
    axis: 1
  }
}
layer {
  name: "conv6_2_mbox_conf"
  type: "Convolution"
  bottom: "conv6_2"
  top: "conv6_2_mbox_conf"
  param {
    lr_mult: 1
    decay_mult: 1
  }
  param {
    lr_mult: 2
    decay_mult: 0
  }
  convolution_param {
    num_output: 126
    pad: 1
    kernel_size: 3
    stride: 1
    weight_filler {
      type: "xavier"
    }
    bias_filler {
      type: "constant"
      value: 0
    }
  }
}
layer {
  name: "conv6_2_mbox_conf_perm"
  type: "Permute"
  bottom: "conv6_2_mbox_conf"
  top: "conv6_2_mbox_conf_perm"
  permute_param {
    order: 0
    order: 2
    order: 3
    order: 1
  }
}
layer {
  name: "conv6_2_mbox_conf_flat"
  type: "Flatten"
  bottom: "conv6_2_mbox_conf_perm"
  top: "conv6_2_mbox_conf_flat"
  flatten_param {
    axis: 1
  }
}
layer {
  name: "conv6_2_mbox_priorbox"
  type: "PriorBox"
  bottom: "conv6_2"
  bottom: "data"
  top: "conv6_2_mbox_priorbox"
  prior_box_param {
    min_size: 111
    max_size: 162
    aspect_ratio: 2
    aspect_ratio: 3
    flip: true
    clip: false
    variance: 0.1
    variance: 0.1
    variance: 0.2
    variance: 0.2
    step: 32
    offset: 0.5
  }
}
layer {
  name: "conv7_2_mbox_loc"
  type: "Convolution"
  bottom: "conv7_2"
  top: "conv7_2_mbox_loc"
  param {
    lr_mult: 1
    decay_mult: 1
  }
  param {
    lr_mult: 2
    decay_mult: 0
  }
  convolution_param {
    num_output: 24
    pad: 1
    kernel_size: 3
    stride: 1
    weight_filler {
      type: "xavier"
    }
    bias_filler {
      type: "constant"
      value: 0
    }
  }
}
layer {
  name: "conv7_2_mbox_loc_perm"
  type: "Permute"
  bottom: "conv7_2_mbox_loc"
  top: "conv7_2_mbox_loc_perm"
  permute_param {
    order: 0
    order: 2
    order: 3
    order: 1
  }
}
layer {
  name: "conv7_2_mbox_loc_flat"
  type: "Flatten"
  bottom: "conv7_2_mbox_loc_perm"
  top: "conv7_2_mbox_loc_flat"
  flatten_param {
    axis: 1
  }
}
layer {
  name: "conv7_2_mbox_conf"
  type: "Convolution"
  bottom: "conv7_2"
  top: "conv7_2_mbox_conf"
  param {
    lr_mult: 1
    decay_mult: 1
  }
  param {
    lr_mult: 2
    decay_mult: 0
  }
  convolution_param {
    num_output: 126
    pad: 1
    kernel_size: 3
    stride: 1
    weight_filler {
      type: "xavier"
    }
    bias_filler {
      type: "constant"
      value: 0
    }
  }
}
layer {
  name: "conv7_2_mbox_conf_perm"
  type: "Permute"
  bottom: "conv7_2_mbox_conf"
  top: "conv7_2_mbox_conf_perm"
  permute_param {
    order: 0
    order: 2
    order: 3
    order: 1
  }
}
layer {
  name: "conv7_2_mbox_conf_flat"
  type: "Flatten"
  bottom: "conv7_2_mbox_conf_perm"
  top: "conv7_2_mbox_conf_flat"
  flatten_param {
    axis: 1
  }
}
layer {
  name: "conv7_2_mbox_priorbox"
  type: "PriorBox"
  bottom: "conv7_2"
  bottom: "data"
  top: "conv7_2_mbox_priorbox"
  prior_box_param {
    min_size: 162
    max_size: 213
    aspect_ratio: 2
    aspect_ratio: 3
    flip: true
    clip: false
    variance: 0.1
    variance: 0.1
    variance: 0.2
    variance: 0.2
    step: 64
    offset: 0.5
  }
}
layer {
  name: "conv8_2_mbox_loc"
  type: "Convolution"
  bottom: "conv8_2"
  top: "conv8_2_mbox_loc"
  param {
    lr_mult: 1
    decay_mult: 1
  }
  param {
    lr_mult: 2
    decay_mult: 0
  }
  convolution_param {
    num_output: 16
    pad: 1
    kernel_size: 3
    stride: 1
    weight_filler {
      type: "xavier"
    }
    bias_filler {
      type: "constant"
      value: 0
    }
  }
}
layer {
  name: "conv8_2_mbox_loc_perm"
  type: "Permute"
  bottom: "conv8_2_mbox_loc"
  top: "conv8_2_mbox_loc_perm"
  permute_param {
    order: 0
    order: 2
    order: 3
    order: 1
  }
}
layer {
  name: "conv8_2_mbox_loc_flat"
  type: "Flatten"
  bottom: "conv8_2_mbox_loc_perm"
  top: "conv8_2_mbox_loc_flat"
  flatten_param {
    axis: 1
  }
}
layer {
  name: "conv8_2_mbox_conf"
  type: "Convolution"
  bottom: "conv8_2"
  top: "conv8_2_mbox_conf"
  param {
    lr_mult: 1
    decay_mult: 1
  }
  param {
    lr_mult: 2
    decay_mult: 0
  }
  convolution_param {
    num_output: 84
    pad: 1
    kernel_size: 3
    stride: 1
    weight_filler {
      type: "xavier"
    }
    bias_filler {
      type: "constant"
      value: 0
    }
  }
}
layer {
  name: "conv8_2_mbox_conf_perm"
  type: "Permute"
  bottom: "conv8_2_mbox_conf"
  top: "conv8_2_mbox_conf_perm"
  permute_param {
    order: 0
    order: 2
    order: 3
    order: 1
  }
}
layer {
  name: "conv8_2_mbox_conf_flat"
  type: "Flatten"
  bottom: "conv8_2_mbox_conf_perm"
  top: "conv8_2_mbox_conf_flat"
  flatten_param {
    axis: 1
  }
}
layer {
  name: "conv8_2_mbox_priorbox"
  type: "PriorBox"
  bottom: "conv8_2"
  bottom: "data"
  top: "conv8_2_mbox_priorbox"
  prior_box_param {
    min_size: 213
    max_size: 264
    aspect_ratio: 2
    flip: true
    clip: false
    variance: 0.1
    variance: 0.1
    variance: 0.2
    variance: 0.2
    step: 100
    offset: 0.5
  }
}
layer {
  name: "conv9_2_mbox_loc"
  type: "Convolution"
  bottom: "conv9_2"
  top: "conv9_2_mbox_loc"
  param {
    lr_mult: 1
    decay_mult: 1
  }
  param {
    lr_mult: 2
    decay_mult: 0
  }
  convolution_param {
    num_output: 16
    pad: 1
    kernel_size: 3
    stride: 1
    weight_filler {
      type: "xavier"
    }
    bias_filler {
      type: "constant"
      value: 0
    }
  }
}
layer {
  name: "conv9_2_mbox_loc_perm"
  type: "Permute"
  bottom: "conv9_2_mbox_loc"
  top: "conv9_2_mbox_loc_perm"
  permute_param {
    order: 0
    order: 2
    order: 3
    order: 1
  }
}
layer {
  name: "conv9_2_mbox_loc_flat"
  type: "Flatten"
  bottom: "conv9_2_mbox_loc_perm"
  top: "conv9_2_mbox_loc_flat"
  flatten_param {
    axis: 1
  }
}
layer {
  name: "conv9_2_mbox_conf"
  type: "Convolution"
  bottom: "conv9_2"
  top: "conv9_2_mbox_conf"
  param {
    lr_mult: 1
    decay_mult: 1
  }
  param {
    lr_mult: 2
    decay_mult: 0
  }
  convolution_param {
    num_output: 84
    pad: 1
    kernel_size: 3
    stride: 1
    weight_filler {
      type: "xavier"
    }
    bias_filler {
      type: "constant"
      value: 0
    }
  }
}
layer {
  name: "conv9_2_mbox_conf_perm"
  type: "Permute"
  bottom: "conv9_2_mbox_conf"
  top: "conv9_2_mbox_conf_perm"
  permute_param {
    order: 0
    order: 2
    order: 3
    order: 1
  }
}
layer {
  name: "conv9_2_mbox_conf_flat"
  type: "Flatten"
  bottom: "conv9_2_mbox_conf_perm"
  top: "conv9_2_mbox_conf_flat"
  flatten_param {
    axis: 1
  }
}
layer {
  name: "conv9_2_mbox_priorbox"
  type: "PriorBox"
  bottom: "conv9_2"
  bottom: "data"
  top: "conv9_2_mbox_priorbox"
  prior_box_param {
    min_size: 264
    max_size: 315
    aspect_ratio: 2
    flip: true
    clip: false
    variance: 0.1
    variance: 0.1
    variance: 0.2
    variance: 0.2
    step: 300
    offset: 0.5
  }
}
layer {
  name: "mbox_loc"
  type: "Concat"
  bottom: "conv4_3_norm_mbox_loc_flat"
  bottom: "fc7_mbox_loc_flat"
  bottom: "conv6_2_mbox_loc_flat"
  bottom: "conv7_2_mbox_loc_flat"
  bottom: "conv8_2_mbox_loc_flat"
  bottom: "conv9_2_mbox_loc_flat"
  top: "mbox_loc"
  concat_param {
    axis: 1
  }
}
layer {
  name: "mbox_conf"
  type: "Concat"
  bottom: "conv4_3_norm_mbox_conf_flat"
  bottom: "fc7_mbox_conf_flat"
  bottom: "conv6_2_mbox_conf_flat"
  bottom: "conv7_2_mbox_conf_flat"
  bottom: "conv8_2_mbox_conf_flat"
  bottom: "conv9_2_mbox_conf_flat"
  top: "mbox_conf"
  concat_param {
    axis: 1
  }
}
layer {
  name: "mbox_priorbox"
  type: "Concat"
  bottom: "conv4_3_norm_mbox_priorbox"
  bottom: "fc7_mbox_priorbox"
  bottom: "conv6_2_mbox_priorbox"
  bottom: "conv7_2_mbox_priorbox"
  bottom: "conv8_2_mbox_priorbox"
  bottom: "conv9_2_mbox_priorbox"
  top: "mbox_priorbox"
  concat_param {
    axis: 2
  }
}
layer {
  name: "mbox_conf_reshape"
  type: "Reshape"
  bottom: "mbox_conf"
  top: "mbox_conf_reshape"
  reshape_param {
    shape {
      dim: 0
      dim: -1
      dim: 21
    }
  }
}
layer {
  name: "mbox_conf_softmax"
  type: "Softmax"
  bottom: "mbox_conf_reshape"
  top: "mbox_conf_softmax"
  softmax_param {
    axis: 2
  }
}
layer {
  name: "mbox_conf_flatten"
  type: "Flatten"
  bottom: "mbox_conf_softmax"
  top: "mbox_conf_flatten"
  flatten_param {
    axis: 1
  }
}
layer {
  name: "detection_out"
  type: "DetectionOutput"
  bottom: "mbox_loc"
  bottom: "mbox_conf_flatten"
  bottom: "mbox_priorbox"
  top: "detection_out"
  include {
    phase: TEST
  }
  detection_output_param {
    num_classes: 21
    share_location: true
    background_label_id: 0
    nms_param {
      nms_threshold: 0.45
      top_k: 400
    }
    save_output_param {
      output_directory: "/home/dean/data/VOCdevkit/results/VOC2007/SSD_300x300/Main"
      output_name_prefix: "comp4_det_test_"
      output_format: "VOC"
      label_map_file: "data/VOC0712/labelmap_voc.prototxt"
      name_size_file: "data/VOC0712/test_name_size.txt"
      num_test_image: 4952
    }
    code_type: CENTER_SIZE
    keep_top_k: 200
    confidence_threshold: 0.01
  }
}
layer {
  name: "detection_eval"
  type: "DetectionEvaluate"
  bottom: "detection_out"
  bottom: "label"
  top: "detection_eval"
  include {
    phase: TEST
  }
  detection_evaluate_param {
    num_classes: 21
    background_label_id: 0
    overlap_threshold: 0.5
    evaluate_difficult_gt: false
    name_size_file: "data/VOC0712/test_name_size.txt"
  }
}
I0608 22:27:56.485714 23885 layer_factory.hpp:77] Creating layer data
I0608 22:27:56.485853 23885 net.cpp:100] Creating Layer data
I0608 22:27:56.485909 23885 net.cpp:408] data -> data
I0608 22:27:56.485929 23885 net.cpp:408] data -> label
I0608 22:27:56.487721 23915 db_lmdb.cpp:35] Opened lmdb examples/VOC0712/VOC0712_test_lmdb
I0608 22:27:56.495512 23885 annotated_data_layer.cpp:62] output data size: 1,3,300,300
I0608 22:27:56.781205 23885 net.cpp:150] Setting up data
I0608 22:27:56.781251 23885 net.cpp:157] Top shape: 1 3 300 300 (270000)
I0608 22:27:56.781260 23885 net.cpp:157] Top shape: 1 1 2 8 (16)
I0608 22:27:56.781271 23885 net.cpp:165] Memory required for data: 1080064
I0608 22:27:56.781281 23885 layer_factory.hpp:77] Creating layer data_data_0_split
I0608 22:27:56.781303 23885 net.cpp:100] Creating Layer data_data_0_split
I0608 22:27:56.781311 23885 net.cpp:434] data_data_0_split <- data
I0608 22:27:56.781380 23885 net.cpp:408] data_data_0_split -> data_data_0_split_0
I0608 22:27:56.781402 23885 net.cpp:408] data_data_0_split -> data_data_0_split_1
I0608 22:27:56.781412 23885 net.cpp:408] data_data_0_split -> data_data_0_split_2
I0608 22:27:56.781422 23885 net.cpp:408] data_data_0_split -> data_data_0_split_3
I0608 22:27:56.781435 23885 net.cpp:408] data_data_0_split -> data_data_0_split_4
I0608 22:27:56.781445 23885 net.cpp:408] data_data_0_split -> data_data_0_split_5
I0608 22:27:56.781455 23885 net.cpp:408] data_data_0_split -> data_data_0_split_6
I0608 22:27:56.781893 23885 net.cpp:150] Setting up data_data_0_split
I0608 22:27:56.781911 23885 net.cpp:157] Top shape: 1 3 300 300 (270000)
I0608 22:27:56.781919 23885 net.cpp:157] Top shape: 1 3 300 300 (270000)
I0608 22:27:56.781931 23885 net.cpp:157] Top shape: 1 3 300 300 (270000)
I0608 22:27:56.781939 23885 net.cpp:157] Top shape: 1 3 300 300 (270000)
I0608 22:27:56.781945 23885 net.cpp:157] Top shape: 1 3 300 300 (270000)
I0608 22:27:56.781960 23885 net.cpp:157] Top shape: 1 3 300 300 (270000)
I0608 22:27:56.781970 23885 net.cpp:157] Top shape: 1 3 300 300 (270000)
I0608 22:27:56.781975 23885 net.cpp:165] Memory required for data: 8640064
I0608 22:27:56.781985 23885 layer_factory.hpp:77] Creating layer conv1_1
I0608 22:27:56.782004 23885 net.cpp:100] Creating Layer conv1_1
I0608 22:27:56.782037 23885 net.cpp:434] conv1_1 <- data_data_0_split_0
I0608 22:27:56.782048 23885 net.cpp:408] conv1_1 -> conv1_1
I0608 22:27:56.785003 23885 net.cpp:150] Setting up conv1_1
I0608 22:27:56.785032 23885 net.cpp:157] Top shape: 1 64 300 300 (5760000)
I0608 22:27:56.785038 23885 net.cpp:165] Memory required for data: 31680064
I0608 22:27:56.785055 23885 layer_factory.hpp:77] Creating layer relu1_1
I0608 22:27:56.785068 23885 net.cpp:100] Creating Layer relu1_1
I0608 22:27:56.785073 23885 net.cpp:434] relu1_1 <- conv1_1
I0608 22:27:56.785082 23885 net.cpp:395] relu1_1 -> conv1_1 (in-place)
I0608 22:27:56.785719 23885 net.cpp:150] Setting up relu1_1
I0608 22:27:56.785742 23885 net.cpp:157] Top shape: 1 64 300 300 (5760000)
I0608 22:27:56.785748 23885 net.cpp:165] Memory required for data: 54720064
I0608 22:27:56.785755 23885 layer_factory.hpp:77] Creating layer conv1_2
I0608 22:27:56.785773 23885 net.cpp:100] Creating Layer conv1_2
I0608 22:27:56.785779 23885 net.cpp:434] conv1_2 <- conv1_1
I0608 22:27:56.785789 23885 net.cpp:408] conv1_2 -> conv1_2
I0608 22:27:56.789381 23885 net.cpp:150] Setting up conv1_2
I0608 22:27:56.789408 23885 net.cpp:157] Top shape: 1 64 300 300 (5760000)
I0608 22:27:56.789414 23885 net.cpp:165] Memory required for data: 77760064
I0608 22:27:56.789429 23885 layer_factory.hpp:77] Creating layer relu1_2
I0608 22:27:56.789440 23885 net.cpp:100] Creating Layer relu1_2
I0608 22:27:56.789448 23885 net.cpp:434] relu1_2 <- conv1_2
I0608 22:27:56.789455 23885 net.cpp:395] relu1_2 -> conv1_2 (in-place)
I0608 22:27:56.790005 23885 net.cpp:150] Setting up relu1_2
I0608 22:27:56.790033 23885 net.cpp:157] Top shape: 1 64 300 300 (5760000)
I0608 22:27:56.790040 23885 net.cpp:165] Memory required for data: 100800064
I0608 22:27:56.790047 23885 layer_factory.hpp:77] Creating layer pool1
I0608 22:27:56.790060 23885 net.cpp:100] Creating Layer pool1
I0608 22:27:56.790066 23885 net.cpp:434] pool1 <- conv1_2
I0608 22:27:56.790076 23885 net.cpp:408] pool1 -> pool1
I0608 22:27:56.790158 23885 net.cpp:150] Setting up pool1
I0608 22:27:56.790171 23885 net.cpp:157] Top shape: 1 64 150 150 (1440000)
I0608 22:27:56.790177 23885 net.cpp:165] Memory required for data: 106560064
I0608 22:27:56.790182 23885 layer_factory.hpp:77] Creating layer conv2_1
I0608 22:27:56.790196 23885 net.cpp:100] Creating Layer conv2_1
I0608 22:27:56.790204 23885 net.cpp:434] conv2_1 <- pool1
I0608 22:27:56.790211 23885 net.cpp:408] conv2_1 -> conv2_1
I0608 22:27:56.793030 23885 net.cpp:150] Setting up conv2_1
I0608 22:27:56.793058 23885 net.cpp:157] Top shape: 1 128 150 150 (2880000)
I0608 22:27:56.793064 23885 net.cpp:165] Memory required for data: 118080064
I0608 22:27:56.793078 23885 layer_factory.hpp:77] Creating layer relu2_1
I0608 22:27:56.793092 23885 net.cpp:100] Creating Layer relu2_1
I0608 22:27:56.793098 23885 net.cpp:434] relu2_1 <- conv2_1
I0608 22:27:56.793109 23885 net.cpp:395] relu2_1 -> conv2_1 (in-place)
I0608 22:27:56.793700 23885 net.cpp:150] Setting up relu2_1
I0608 22:27:56.793733 23885 net.cpp:157] Top shape: 1 128 150 150 (2880000)
I0608 22:27:56.793740 23885 net.cpp:165] Memory required for data: 129600064
I0608 22:27:56.793745 23885 layer_factory.hpp:77] Creating layer conv2_2
I0608 22:27:56.793763 23885 net.cpp:100] Creating Layer conv2_2
I0608 22:27:56.793772 23885 net.cpp:434] conv2_2 <- conv2_1
I0608 22:27:56.793787 23885 net.cpp:408] conv2_2 -> conv2_2
I0608 22:27:56.798250 23885 net.cpp:150] Setting up conv2_2
I0608 22:27:56.798280 23885 net.cpp:157] Top shape: 1 128 150 150 (2880000)
I0608 22:27:56.798286 23885 net.cpp:165] Memory required for data: 141120064
I0608 22:27:56.798298 23885 layer_factory.hpp:77] Creating layer relu2_2
I0608 22:27:56.798310 23885 net.cpp:100] Creating Layer relu2_2
I0608 22:27:56.798321 23885 net.cpp:434] relu2_2 <- conv2_2
I0608 22:27:56.798331 23885 net.cpp:395] relu2_2 -> conv2_2 (in-place)
I0608 22:27:56.798640 23885 net.cpp:150] Setting up relu2_2
I0608 22:27:56.798660 23885 net.cpp:157] Top shape: 1 128 150 150 (2880000)
I0608 22:27:56.798699 23885 net.cpp:165] Memory required for data: 152640064
I0608 22:27:56.798707 23885 layer_factory.hpp:77] Creating layer pool2
I0608 22:27:56.798719 23885 net.cpp:100] Creating Layer pool2
I0608 22:27:56.798727 23885 net.cpp:434] pool2 <- conv2_2
I0608 22:27:56.798735 23885 net.cpp:408] pool2 -> pool2
I0608 22:27:56.798823 23885 net.cpp:150] Setting up pool2
I0608 22:27:56.798835 23885 net.cpp:157] Top shape: 1 128 75 75 (720000)
I0608 22:27:56.798841 23885 net.cpp:165] Memory required for data: 155520064
I0608 22:27:56.798847 23885 layer_factory.hpp:77] Creating layer conv3_1
I0608 22:27:56.798863 23885 net.cpp:100] Creating Layer conv3_1
I0608 22:27:56.798871 23885 net.cpp:434] conv3_1 <- pool2
I0608 22:27:56.798884 23885 net.cpp:408] conv3_1 -> conv3_1
I0608 22:27:56.804760 23885 net.cpp:150] Setting up conv3_1
I0608 22:27:56.804813 23885 net.cpp:157] Top shape: 1 256 75 75 (1440000)
I0608 22:27:56.804821 23885 net.cpp:165] Memory required for data: 161280064
I0608 22:27:56.804838 23885 layer_factory.hpp:77] Creating layer relu3_1
I0608 22:27:56.804852 23885 net.cpp:100] Creating Layer relu3_1
I0608 22:27:56.804864 23885 net.cpp:434] relu3_1 <- conv3_1
I0608 22:27:56.804878 23885 net.cpp:395] relu3_1 -> conv3_1 (in-place)
I0608 22:27:56.805598 23885 net.cpp:150] Setting up relu3_1
I0608 22:27:56.805626 23885 net.cpp:157] Top shape: 1 256 75 75 (1440000)
I0608 22:27:56.805634 23885 net.cpp:165] Memory required for data: 167040064
I0608 22:27:56.805641 23885 layer_factory.hpp:77] Creating layer conv3_2
I0608 22:27:56.805671 23885 net.cpp:100] Creating Layer conv3_2
I0608 22:27:56.805680 23885 net.cpp:434] conv3_2 <- conv3_1
I0608 22:27:56.805696 23885 net.cpp:408] conv3_2 -> conv3_2
I0608 22:27:56.814564 23885 net.cpp:150] Setting up conv3_2
I0608 22:27:56.814628 23885 net.cpp:157] Top shape: 1 256 75 75 (1440000)
I0608 22:27:56.814638 23885 net.cpp:165] Memory required for data: 172800064
I0608 22:27:56.814652 23885 layer_factory.hpp:77] Creating layer relu3_2
I0608 22:27:56.814673 23885 net.cpp:100] Creating Layer relu3_2
I0608 22:27:56.814683 23885 net.cpp:434] relu3_2 <- conv3_2
I0608 22:27:56.814697 23885 net.cpp:395] relu3_2 -> conv3_2 (in-place)
I0608 22:27:56.815382 23885 net.cpp:150] Setting up relu3_2
I0608 22:27:56.815408 23885 net.cpp:157] Top shape: 1 256 75 75 (1440000)
I0608 22:27:56.815414 23885 net.cpp:165] Memory required for data: 178560064
I0608 22:27:56.815421 23885 layer_factory.hpp:77] Creating layer conv3_3
I0608 22:27:56.815448 23885 net.cpp:100] Creating Layer conv3_3
I0608 22:27:56.815455 23885 net.cpp:434] conv3_3 <- conv3_2
I0608 22:27:56.815467 23885 net.cpp:408] conv3_3 -> conv3_3
I0608 22:27:56.824439 23885 net.cpp:150] Setting up conv3_3
I0608 22:27:56.824481 23885 net.cpp:157] Top shape: 1 256 75 75 (1440000)
I0608 22:27:56.824488 23885 net.cpp:165] Memory required for data: 184320064
I0608 22:27:56.824506 23885 layer_factory.hpp:77] Creating layer relu3_3
I0608 22:27:56.824520 23885 net.cpp:100] Creating Layer relu3_3
I0608 22:27:56.824530 23885 net.cpp:434] relu3_3 <- conv3_3
I0608 22:27:56.824540 23885 net.cpp:395] relu3_3 -> conv3_3 (in-place)
I0608 22:27:56.825150 23885 net.cpp:150] Setting up relu3_3
I0608 22:27:56.825173 23885 net.cpp:157] Top shape: 1 256 75 75 (1440000)
I0608 22:27:56.825186 23885 net.cpp:165] Memory required for data: 190080064
I0608 22:27:56.825193 23885 layer_factory.hpp:77] Creating layer pool3
I0608 22:27:56.825206 23885 net.cpp:100] Creating Layer pool3
I0608 22:27:56.825212 23885 net.cpp:434] pool3 <- conv3_3
I0608 22:27:56.825227 23885 net.cpp:408] pool3 -> pool3
I0608 22:27:56.825322 23885 net.cpp:150] Setting up pool3
I0608 22:27:56.825336 23885 net.cpp:157] Top shape: 1 256 38 38 (369664)
I0608 22:27:56.825341 23885 net.cpp:165] Memory required for data: 191558720
I0608 22:27:56.825347 23885 layer_factory.hpp:77] Creating layer conv4_1
I0608 22:27:56.825366 23885 net.cpp:100] Creating Layer conv4_1
I0608 22:27:56.825373 23885 net.cpp:434] conv4_1 <- pool3
I0608 22:27:56.825382 23885 net.cpp:408] conv4_1 -> conv4_1
I0608 22:27:56.841724 23885 net.cpp:150] Setting up conv4_1
I0608 22:27:56.841807 23885 net.cpp:157] Top shape: 1 512 38 38 (739328)
I0608 22:27:56.841814 23885 net.cpp:165] Memory required for data: 194516032
I0608 22:27:56.841828 23885 layer_factory.hpp:77] Creating layer relu4_1
I0608 22:27:56.841851 23885 net.cpp:100] Creating Layer relu4_1
I0608 22:27:56.841861 23885 net.cpp:434] relu4_1 <- conv4_1
I0608 22:27:56.841871 23885 net.cpp:395] relu4_1 -> conv4_1 (in-place)
I0608 22:27:56.842525 23885 net.cpp:150] Setting up relu4_1
I0608 22:27:56.842548 23885 net.cpp:157] Top shape: 1 512 38 38 (739328)
I0608 22:27:56.842555 23885 net.cpp:165] Memory required for data: 197473344
I0608 22:27:56.842561 23885 layer_factory.hpp:77] Creating layer conv4_2
I0608 22:27:56.842586 23885 net.cpp:100] Creating Layer conv4_2
I0608 22:27:56.842592 23885 net.cpp:434] conv4_2 <- conv4_1
I0608 22:27:56.842603 23885 net.cpp:408] conv4_2 -> conv4_2
I0608 22:27:56.871419 23885 net.cpp:150] Setting up conv4_2
I0608 22:27:56.871464 23885 net.cpp:157] Top shape: 1 512 38 38 (739328)
I0608 22:27:56.871469 23885 net.cpp:165] Memory required for data: 200430656
I0608 22:27:56.871507 23885 layer_factory.hpp:77] Creating layer relu4_2
I0608 22:27:56.871522 23885 net.cpp:100] Creating Layer relu4_2
I0608 22:27:56.871531 23885 net.cpp:434] relu4_2 <- conv4_2
I0608 22:27:56.871541 23885 net.cpp:395] relu4_2 -> conv4_2 (in-place)
I0608 22:27:56.871860 23885 net.cpp:150] Setting up relu4_2
I0608 22:27:56.871879 23885 net.cpp:157] Top shape: 1 512 38 38 (739328)
I0608 22:27:56.871886 23885 net.cpp:165] Memory required for data: 203387968
I0608 22:27:56.871891 23885 layer_factory.hpp:77] Creating layer conv4_3
I0608 22:27:56.871917 23885 net.cpp:100] Creating Layer conv4_3
I0608 22:27:56.871924 23885 net.cpp:434] conv4_3 <- conv4_2
I0608 22:27:56.871937 23885 net.cpp:408] conv4_3 -> conv4_3
I0608 22:27:56.900437 23885 net.cpp:150] Setting up conv4_3
I0608 22:27:56.900480 23885 net.cpp:157] Top shape: 1 512 38 38 (739328)
I0608 22:27:56.900485 23885 net.cpp:165] Memory required for data: 206345280
I0608 22:27:56.900498 23885 layer_factory.hpp:77] Creating layer relu4_3
I0608 22:27:56.900511 23885 net.cpp:100] Creating Layer relu4_3
I0608 22:27:56.900519 23885 net.cpp:434] relu4_3 <- conv4_3
I0608 22:27:56.900540 23885 net.cpp:395] relu4_3 -> conv4_3 (in-place)
I0608 22:27:56.901181 23885 net.cpp:150] Setting up relu4_3
I0608 22:27:56.901204 23885 net.cpp:157] Top shape: 1 512 38 38 (739328)
I0608 22:27:56.901211 23885 net.cpp:165] Memory required for data: 209302592
I0608 22:27:56.901216 23885 layer_factory.hpp:77] Creating layer conv4_3_relu4_3_0_split
I0608 22:27:56.901227 23885 net.cpp:100] Creating Layer conv4_3_relu4_3_0_split
I0608 22:27:56.901233 23885 net.cpp:434] conv4_3_relu4_3_0_split <- conv4_3
I0608 22:27:56.901253 23885 net.cpp:408] conv4_3_relu4_3_0_split -> conv4_3_relu4_3_0_split_0
I0608 22:27:56.901265 23885 net.cpp:408] conv4_3_relu4_3_0_split -> conv4_3_relu4_3_0_split_1
I0608 22:27:56.901356 23885 net.cpp:150] Setting up conv4_3_relu4_3_0_split
I0608 22:27:56.901371 23885 net.cpp:157] Top shape: 1 512 38 38 (739328)
I0608 22:27:56.901378 23885 net.cpp:157] Top shape: 1 512 38 38 (739328)
I0608 22:27:56.901384 23885 net.cpp:165] Memory required for data: 215217216
I0608 22:27:56.901391 23885 layer_factory.hpp:77] Creating layer pool4
I0608 22:27:56.901406 23885 net.cpp:100] Creating Layer pool4
I0608 22:27:56.901412 23885 net.cpp:434] pool4 <- conv4_3_relu4_3_0_split_0
I0608 22:27:56.901424 23885 net.cpp:408] pool4 -> pool4
I0608 22:27:56.901501 23885 net.cpp:150] Setting up pool4
I0608 22:27:56.901516 23885 net.cpp:157] Top shape: 1 512 19 19 (184832)
I0608 22:27:56.901522 23885 net.cpp:165] Memory required for data: 215956544
I0608 22:27:56.901527 23885 layer_factory.hpp:77] Creating layer conv5_1
I0608 22:27:56.901546 23885 net.cpp:100] Creating Layer conv5_1
I0608 22:27:56.901553 23885 net.cpp:434] conv5_1 <- pool4
I0608 22:27:56.901562 23885 net.cpp:408] conv5_1 -> conv5_1
I0608 22:27:56.928772 23885 net.cpp:150] Setting up conv5_1
I0608 22:27:56.928839 23885 net.cpp:157] Top shape: 1 512 19 19 (184832)
I0608 22:27:56.928845 23885 net.cpp:165] Memory required for data: 216695872
I0608 22:27:56.928856 23885 layer_factory.hpp:77] Creating layer relu5_1
I0608 22:27:56.928871 23885 net.cpp:100] Creating Layer relu5_1
I0608 22:27:56.928884 23885 net.cpp:434] relu5_1 <- conv5_1
I0608 22:27:56.928894 23885 net.cpp:395] relu5_1 -> conv5_1 (in-place)
I0608 22:27:56.929450 23885 net.cpp:150] Setting up relu5_1
I0608 22:27:56.929474 23885 net.cpp:157] Top shape: 1 512 19 19 (184832)
I0608 22:27:56.929481 23885 net.cpp:165] Memory required for data: 217435200
I0608 22:27:56.929486 23885 layer_factory.hpp:77] Creating layer conv5_2
I0608 22:27:56.929508 23885 net.cpp:100] Creating Layer conv5_2
I0608 22:27:56.929518 23885 net.cpp:434] conv5_2 <- conv5_1
I0608 22:27:56.929529 23885 net.cpp:408] conv5_2 -> conv5_2
I0608 22:27:56.957109 23885 net.cpp:150] Setting up conv5_2
I0608 22:27:56.957154 23885 net.cpp:157] Top shape: 1 512 19 19 (184832)
I0608 22:27:56.957159 23885 net.cpp:165] Memory required for data: 218174528
I0608 22:27:56.957186 23885 layer_factory.hpp:77] Creating layer relu5_2
I0608 22:27:56.957206 23885 net.cpp:100] Creating Layer relu5_2
I0608 22:27:56.957222 23885 net.cpp:434] relu5_2 <- conv5_2
I0608 22:27:56.957237 23885 net.cpp:395] relu5_2 -> conv5_2 (in-place)
I0608 22:27:56.957547 23885 net.cpp:150] Setting up relu5_2
I0608 22:27:56.957567 23885 net.cpp:157] Top shape: 1 512 19 19 (184832)
I0608 22:27:56.957574 23885 net.cpp:165] Memory required for data: 218913856
I0608 22:27:56.957581 23885 layer_factory.hpp:77] Creating layer conv5_3
I0608 22:27:56.957599 23885 net.cpp:100] Creating Layer conv5_3
I0608 22:27:56.957610 23885 net.cpp:434] conv5_3 <- conv5_2
I0608 22:27:56.957623 23885 net.cpp:408] conv5_3 -> conv5_3
I0608 22:27:56.984913 23885 net.cpp:150] Setting up conv5_3
I0608 22:27:56.984967 23885 net.cpp:157] Top shape: 1 512 19 19 (184832)
I0608 22:27:56.984973 23885 net.cpp:165] Memory required for data: 219653184
I0608 22:27:56.985004 23885 layer_factory.hpp:77] Creating layer relu5_3
I0608 22:27:56.985029 23885 net.cpp:100] Creating Layer relu5_3
I0608 22:27:56.985039 23885 net.cpp:434] relu5_3 <- conv5_3
I0608 22:27:56.985051 23885 net.cpp:395] relu5_3 -> conv5_3 (in-place)
I0608 22:27:56.985661 23885 net.cpp:150] Setting up relu5_3
I0608 22:27:56.985682 23885 net.cpp:157] Top shape: 1 512 19 19 (184832)
I0608 22:27:56.985688 23885 net.cpp:165] Memory required for data: 220392512
I0608 22:27:56.985697 23885 layer_factory.hpp:77] Creating layer pool5
I0608 22:27:56.985712 23885 net.cpp:100] Creating Layer pool5
I0608 22:27:56.985720 23885 net.cpp:434] pool5 <- conv5_3
I0608 22:27:56.985730 23885 net.cpp:408] pool5 -> pool5
I0608 22:27:56.985826 23885 net.cpp:150] Setting up pool5
I0608 22:27:56.985838 23885 net.cpp:157] Top shape: 1 512 19 19 (184832)
I0608 22:27:56.985844 23885 net.cpp:165] Memory required for data: 221131840
I0608 22:27:56.985851 23885 layer_factory.hpp:77] Creating layer fc6
I0608 22:27:56.985872 23885 net.cpp:100] Creating Layer fc6
I0608 22:27:56.985882 23885 net.cpp:434] fc6 <- pool5
I0608 22:27:56.985893 23885 net.cpp:408] fc6 -> fc6
I0608 22:27:57.039430 23885 net.cpp:150] Setting up fc6
I0608 22:27:57.039470 23885 net.cpp:157] Top shape: 1 1024 19 19 (369664)
I0608 22:27:57.039476 23885 net.cpp:165] Memory required for data: 222610496
I0608 22:27:57.039496 23885 layer_factory.hpp:77] Creating layer relu6
I0608 22:27:57.039510 23885 net.cpp:100] Creating Layer relu6
I0608 22:27:57.039517 23885 net.cpp:434] relu6 <- fc6
I0608 22:27:57.039530 23885 net.cpp:395] relu6 -> fc6 (in-place)
I0608 22:27:57.039868 23885 net.cpp:150] Setting up relu6
I0608 22:27:57.039886 23885 net.cpp:157] Top shape: 1 1024 19 19 (369664)
I0608 22:27:57.039892 23885 net.cpp:165] Memory required for data: 224089152
I0608 22:27:57.039898 23885 layer_factory.hpp:77] Creating layer fc7
I0608 22:27:57.039924 23885 net.cpp:100] Creating Layer fc7
I0608 22:27:57.039952 23885 net.cpp:434] fc7 <- fc6
I0608 22:27:57.039963 23885 net.cpp:408] fc7 -> fc7
I0608 22:27:57.053572 23885 net.cpp:150] Setting up fc7
I0608 22:27:57.053614 23885 net.cpp:157] Top shape: 1 1024 19 19 (369664)
I0608 22:27:57.053622 23885 net.cpp:165] Memory required for data: 225567808
I0608 22:27:57.053634 23885 layer_factory.hpp:77] Creating layer relu7
I0608 22:27:57.053652 23885 net.cpp:100] Creating Layer relu7
I0608 22:27:57.053663 23885 net.cpp:434] relu7 <- fc7
I0608 22:27:57.053676 23885 net.cpp:395] relu7 -> fc7 (in-place)
I0608 22:27:57.054296 23885 net.cpp:150] Setting up relu7
I0608 22:27:57.054324 23885 net.cpp:157] Top shape: 1 1024 19 19 (369664)
I0608 22:27:57.054332 23885 net.cpp:165] Memory required for data: 227046464
I0608 22:27:57.054338 23885 layer_factory.hpp:77] Creating layer fc7_relu7_0_split
I0608 22:27:57.054352 23885 net.cpp:100] Creating Layer fc7_relu7_0_split
I0608 22:27:57.054364 23885 net.cpp:434] fc7_relu7_0_split <- fc7
I0608 22:27:57.054373 23885 net.cpp:408] fc7_relu7_0_split -> fc7_relu7_0_split_0
I0608 22:27:57.054388 23885 net.cpp:408] fc7_relu7_0_split -> fc7_relu7_0_split_1
I0608 22:27:57.054410 23885 net.cpp:408] fc7_relu7_0_split -> fc7_relu7_0_split_2
I0608 22:27:57.054424 23885 net.cpp:408] fc7_relu7_0_split -> fc7_relu7_0_split_3
I0608 22:27:57.054570 23885 net.cpp:150] Setting up fc7_relu7_0_split
I0608 22:27:57.054584 23885 net.cpp:157] Top shape: 1 1024 19 19 (369664)
I0608 22:27:57.054594 23885 net.cpp:157] Top shape: 1 1024 19 19 (369664)
I0608 22:27:57.054602 23885 net.cpp:157] Top shape: 1 1024 19 19 (369664)
I0608 22:27:57.054610 23885 net.cpp:157] Top shape: 1 1024 19 19 (369664)
I0608 22:27:57.054618 23885 net.cpp:165] Memory required for data: 232961088
I0608 22:27:57.054625 23885 layer_factory.hpp:77] Creating layer conv6_1
I0608 22:27:57.054643 23885 net.cpp:100] Creating Layer conv6_1
I0608 22:27:57.054652 23885 net.cpp:434] conv6_1 <- fc7_relu7_0_split_0
I0608 22:27:57.054662 23885 net.cpp:408] conv6_1 -> conv6_1
I0608 22:27:57.060359 23885 net.cpp:150] Setting up conv6_1
I0608 22:27:57.060392 23885 net.cpp:157] Top shape: 1 256 19 19 (92416)
I0608 22:27:57.060398 23885 net.cpp:165] Memory required for data: 233330752
I0608 22:27:57.060415 23885 layer_factory.hpp:77] Creating layer conv6_1_relu
I0608 22:27:57.060428 23885 net.cpp:100] Creating Layer conv6_1_relu
I0608 22:27:57.060441 23885 net.cpp:434] conv6_1_relu <- conv6_1
I0608 22:27:57.060449 23885 net.cpp:395] conv6_1_relu -> conv6_1 (in-place)
I0608 22:27:57.061008 23885 net.cpp:150] Setting up conv6_1_relu
I0608 22:27:57.061034 23885 net.cpp:157] Top shape: 1 256 19 19 (92416)
I0608 22:27:57.061039 23885 net.cpp:165] Memory required for data: 233700416
I0608 22:27:57.061045 23885 layer_factory.hpp:77] Creating layer conv6_2
I0608 22:27:57.061064 23885 net.cpp:100] Creating Layer conv6_2
I0608 22:27:57.061071 23885 net.cpp:434] conv6_2 <- conv6_1
I0608 22:27:57.061081 23885 net.cpp:408] conv6_2 -> conv6_2
I0608 22:27:57.075624 23885 net.cpp:150] Setting up conv6_2
I0608 22:27:57.075667 23885 net.cpp:157] Top shape: 1 512 10 10 (51200)
I0608 22:27:57.075673 23885 net.cpp:165] Memory required for data: 233905216
I0608 22:27:57.075717 23885 layer_factory.hpp:77] Creating layer conv6_2_relu
I0608 22:27:57.075734 23885 net.cpp:100] Creating Layer conv6_2_relu
I0608 22:27:57.075745 23885 net.cpp:434] conv6_2_relu <- conv6_2
I0608 22:27:57.075757 23885 net.cpp:395] conv6_2_relu -> conv6_2 (in-place)
I0608 22:27:57.076073 23885 net.cpp:150] Setting up conv6_2_relu
I0608 22:27:57.076093 23885 net.cpp:157] Top shape: 1 512 10 10 (51200)
I0608 22:27:57.076099 23885 net.cpp:165] Memory required for data: 234110016
I0608 22:27:57.076107 23885 layer_factory.hpp:77] Creating layer conv6_2_conv6_2_relu_0_split
I0608 22:27:57.076117 23885 net.cpp:100] Creating Layer conv6_2_conv6_2_relu_0_split
I0608 22:27:57.076128 23885 net.cpp:434] conv6_2_conv6_2_relu_0_split <- conv6_2
I0608 22:27:57.076138 23885 net.cpp:408] conv6_2_conv6_2_relu_0_split -> conv6_2_conv6_2_relu_0_split_0
I0608 22:27:57.076153 23885 net.cpp:408] conv6_2_conv6_2_relu_0_split -> conv6_2_conv6_2_relu_0_split_1
I0608 22:27:57.076161 23885 net.cpp:408] conv6_2_conv6_2_relu_0_split -> conv6_2_conv6_2_relu_0_split_2
I0608 22:27:57.076203 23885 net.cpp:408] conv6_2_conv6_2_relu_0_split -> conv6_2_conv6_2_relu_0_split_3
I0608 22:27:57.076355 23885 net.cpp:150] Setting up conv6_2_conv6_2_relu_0_split
I0608 22:27:57.076370 23885 net.cpp:157] Top shape: 1 512 10 10 (51200)
I0608 22:27:57.076377 23885 net.cpp:157] Top shape: 1 512 10 10 (51200)
I0608 22:27:57.076385 23885 net.cpp:157] Top shape: 1 512 10 10 (51200)
I0608 22:27:57.076391 23885 net.cpp:157] Top shape: 1 512 10 10 (51200)
I0608 22:27:57.076396 23885 net.cpp:165] Memory required for data: 234929216
I0608 22:27:57.076406 23885 layer_factory.hpp:77] Creating layer conv7_1
I0608 22:27:57.076424 23885 net.cpp:100] Creating Layer conv7_1
I0608 22:27:57.076433 23885 net.cpp:434] conv7_1 <- conv6_2_conv6_2_relu_0_split_0
I0608 22:27:57.076447 23885 net.cpp:408] conv7_1 -> conv7_1
I0608 22:27:57.080040 23885 net.cpp:150] Setting up conv7_1
I0608 22:27:57.080066 23885 net.cpp:157] Top shape: 1 128 10 10 (12800)
I0608 22:27:57.080075 23885 net.cpp:165] Memory required for data: 234980416
I0608 22:27:57.080088 23885 layer_factory.hpp:77] Creating layer conv7_1_relu
I0608 22:27:57.080098 23885 net.cpp:100] Creating Layer conv7_1_relu
I0608 22:27:57.080108 23885 net.cpp:434] conv7_1_relu <- conv7_1
I0608 22:27:57.080118 23885 net.cpp:395] conv7_1_relu -> conv7_1 (in-place)
I0608 22:27:57.080734 23885 net.cpp:150] Setting up conv7_1_relu
I0608 22:27:57.080763 23885 net.cpp:157] Top shape: 1 128 10 10 (12800)
I0608 22:27:57.080770 23885 net.cpp:165] Memory required for data: 235031616
I0608 22:27:57.080780 23885 layer_factory.hpp:77] Creating layer conv7_2
I0608 22:27:57.080797 23885 net.cpp:100] Creating Layer conv7_2
I0608 22:27:57.080806 23885 net.cpp:434] conv7_2 <- conv7_1
I0608 22:27:57.080819 23885 net.cpp:408] conv7_2 -> conv7_2
I0608 22:27:57.086272 23885 net.cpp:150] Setting up conv7_2
I0608 22:27:57.086297 23885 net.cpp:157] Top shape: 1 256 5 5 (6400)
I0608 22:27:57.086303 23885 net.cpp:165] Memory required for data: 235057216
I0608 22:27:57.086318 23885 layer_factory.hpp:77] Creating layer conv7_2_relu
I0608 22:27:57.086331 23885 net.cpp:100] Creating Layer conv7_2_relu
I0608 22:27:57.086343 23885 net.cpp:434] conv7_2_relu <- conv7_2
I0608 22:27:57.086354 23885 net.cpp:395] conv7_2_relu -> conv7_2 (in-place)
I0608 22:27:57.086648 23885 net.cpp:150] Setting up conv7_2_relu
I0608 22:27:57.086668 23885 net.cpp:157] Top shape: 1 256 5 5 (6400)
I0608 22:27:57.086673 23885 net.cpp:165] Memory required for data: 235082816
I0608 22:27:57.086684 23885 layer_factory.hpp:77] Creating layer conv7_2_conv7_2_relu_0_split
I0608 22:27:57.086694 23885 net.cpp:100] Creating Layer conv7_2_conv7_2_relu_0_split
I0608 22:27:57.086707 23885 net.cpp:434] conv7_2_conv7_2_relu_0_split <- conv7_2
I0608 22:27:57.086719 23885 net.cpp:408] conv7_2_conv7_2_relu_0_split -> conv7_2_conv7_2_relu_0_split_0
I0608 22:27:57.086731 23885 net.cpp:408] conv7_2_conv7_2_relu_0_split -> conv7_2_conv7_2_relu_0_split_1
I0608 22:27:57.086742 23885 net.cpp:408] conv7_2_conv7_2_relu_0_split -> conv7_2_conv7_2_relu_0_split_2
I0608 22:27:57.086753 23885 net.cpp:408] conv7_2_conv7_2_relu_0_split -> conv7_2_conv7_2_relu_0_split_3
I0608 22:27:57.086915 23885 net.cpp:150] Setting up conv7_2_conv7_2_relu_0_split
I0608 22:27:57.086926 23885 net.cpp:157] Top shape: 1 256 5 5 (6400)
I0608 22:27:57.086935 23885 net.cpp:157] Top shape: 1 256 5 5 (6400)
I0608 22:27:57.086941 23885 net.cpp:157] Top shape: 1 256 5 5 (6400)
I0608 22:27:57.086947 23885 net.cpp:157] Top shape: 1 256 5 5 (6400)
I0608 22:27:57.086952 23885 net.cpp:165] Memory required for data: 235185216
I0608 22:27:57.086958 23885 layer_factory.hpp:77] Creating layer conv8_1
I0608 22:27:57.087003 23885 net.cpp:100] Creating Layer conv8_1
I0608 22:27:57.087014 23885 net.cpp:434] conv8_1 <- conv7_2_conv7_2_relu_0_split_0
I0608 22:27:57.087026 23885 net.cpp:408] conv8_1 -> conv8_1
I0608 22:27:57.089300 23885 net.cpp:150] Setting up conv8_1
I0608 22:27:57.089337 23885 net.cpp:157] Top shape: 1 128 5 5 (3200)
I0608 22:27:57.089365 23885 net.cpp:165] Memory required for data: 235198016
I0608 22:27:57.089380 23885 layer_factory.hpp:77] Creating layer conv8_1_relu
I0608 22:27:57.089392 23885 net.cpp:100] Creating Layer conv8_1_relu
I0608 22:27:57.089401 23885 net.cpp:434] conv8_1_relu <- conv8_1
I0608 22:27:57.089409 23885 net.cpp:395] conv8_1_relu -> conv8_1 (in-place)
I0608 22:27:57.090064 23885 net.cpp:150] Setting up conv8_1_relu
I0608 22:27:57.090088 23885 net.cpp:157] Top shape: 1 128 5 5 (3200)
I0608 22:27:57.090095 23885 net.cpp:165] Memory required for data: 235210816
I0608 22:27:57.090102 23885 layer_factory.hpp:77] Creating layer conv8_2
I0608 22:27:57.090118 23885 net.cpp:100] Creating Layer conv8_2
I0608 22:27:57.090126 23885 net.cpp:434] conv8_2 <- conv8_1
I0608 22:27:57.090137 23885 net.cpp:408] conv8_2 -> conv8_2
I0608 22:27:57.095752 23885 net.cpp:150] Setting up conv8_2
I0608 22:27:57.095778 23885 net.cpp:157] Top shape: 1 256 3 3 (2304)
I0608 22:27:57.095783 23885 net.cpp:165] Memory required for data: 235220032
I0608 22:27:57.095798 23885 layer_factory.hpp:77] Creating layer conv8_2_relu
I0608 22:27:57.095806 23885 net.cpp:100] Creating Layer conv8_2_relu
I0608 22:27:57.095813 23885 net.cpp:434] conv8_2_relu <- conv8_2
I0608 22:27:57.095824 23885 net.cpp:395] conv8_2_relu -> conv8_2 (in-place)
I0608 22:27:57.096382 23885 net.cpp:150] Setting up conv8_2_relu
I0608 22:27:57.096406 23885 net.cpp:157] Top shape: 1 256 3 3 (2304)
I0608 22:27:57.096412 23885 net.cpp:165] Memory required for data: 235229248
I0608 22:27:57.096418 23885 layer_factory.hpp:77] Creating layer conv8_2_conv8_2_relu_0_split
I0608 22:27:57.096429 23885 net.cpp:100] Creating Layer conv8_2_conv8_2_relu_0_split
I0608 22:27:57.096436 23885 net.cpp:434] conv8_2_conv8_2_relu_0_split <- conv8_2
I0608 22:27:57.096448 23885 net.cpp:408] conv8_2_conv8_2_relu_0_split -> conv8_2_conv8_2_relu_0_split_0
I0608 22:27:57.096458 23885 net.cpp:408] conv8_2_conv8_2_relu_0_split -> conv8_2_conv8_2_relu_0_split_1
I0608 22:27:57.096467 23885 net.cpp:408] conv8_2_conv8_2_relu_0_split -> conv8_2_conv8_2_relu_0_split_2
I0608 22:27:57.096474 23885 net.cpp:408] conv8_2_conv8_2_relu_0_split -> conv8_2_conv8_2_relu_0_split_3
I0608 22:27:57.096629 23885 net.cpp:150] Setting up conv8_2_conv8_2_relu_0_split
I0608 22:27:57.096644 23885 net.cpp:157] Top shape: 1 256 3 3 (2304)
I0608 22:27:57.096652 23885 net.cpp:157] Top shape: 1 256 3 3 (2304)
I0608 22:27:57.096658 23885 net.cpp:157] Top shape: 1 256 3 3 (2304)
I0608 22:27:57.096665 23885 net.cpp:157] Top shape: 1 256 3 3 (2304)
I0608 22:27:57.096673 23885 net.cpp:165] Memory required for data: 235266112
I0608 22:27:57.096678 23885 layer_factory.hpp:77] Creating layer conv9_1
I0608 22:27:57.096694 23885 net.cpp:100] Creating Layer conv9_1
I0608 22:27:57.096701 23885 net.cpp:434] conv9_1 <- conv8_2_conv8_2_relu_0_split_0
I0608 22:27:57.096714 23885 net.cpp:408] conv9_1 -> conv9_1
I0608 22:27:57.099284 23885 net.cpp:150] Setting up conv9_1
I0608 22:27:57.099309 23885 net.cpp:157] Top shape: 1 128 3 3 (1152)
I0608 22:27:57.099315 23885 net.cpp:165] Memory required for data: 235270720
I0608 22:27:57.099326 23885 layer_factory.hpp:77] Creating layer conv9_1_relu
I0608 22:27:57.099337 23885 net.cpp:100] Creating Layer conv9_1_relu
I0608 22:27:57.099344 23885 net.cpp:434] conv9_1_relu <- conv9_1
I0608 22:27:57.099360 23885 net.cpp:395] conv9_1_relu -> conv9_1 (in-place)
I0608 22:27:57.099656 23885 net.cpp:150] Setting up conv9_1_relu
I0608 22:27:57.099675 23885 net.cpp:157] Top shape: 1 128 3 3 (1152)
I0608 22:27:57.099683 23885 net.cpp:165] Memory required for data: 235275328
I0608 22:27:57.099689 23885 layer_factory.hpp:77] Creating layer conv9_2
I0608 22:27:57.099707 23885 net.cpp:100] Creating Layer conv9_2
I0608 22:27:57.099715 23885 net.cpp:434] conv9_2 <- conv9_1
I0608 22:27:57.099726 23885 net.cpp:408] conv9_2 -> conv9_2
I0608 22:27:57.106904 23885 net.cpp:150] Setting up conv9_2
I0608 22:27:57.106937 23885 net.cpp:157] Top shape: 1 256 1 1 (256)
I0608 22:27:57.106943 23885 net.cpp:165] Memory required for data: 235276352
I0608 22:27:57.107007 23885 layer_factory.hpp:77] Creating layer conv9_2_relu
I0608 22:27:57.107020 23885 net.cpp:100] Creating Layer conv9_2_relu
I0608 22:27:57.107028 23885 net.cpp:434] conv9_2_relu <- conv9_2
I0608 22:27:57.107038 23885 net.cpp:395] conv9_2_relu -> conv9_2 (in-place)
I0608 22:27:57.107662 23885 net.cpp:150] Setting up conv9_2_relu
I0608 22:27:57.107686 23885 net.cpp:157] Top shape: 1 256 1 1 (256)
I0608 22:27:57.107692 23885 net.cpp:165] Memory required for data: 235277376
I0608 22:27:57.107698 23885 layer_factory.hpp:77] Creating layer conv9_2_conv9_2_relu_0_split
I0608 22:27:57.107707 23885 net.cpp:100] Creating Layer conv9_2_conv9_2_relu_0_split
I0608 22:27:57.107715 23885 net.cpp:434] conv9_2_conv9_2_relu_0_split <- conv9_2
I0608 22:27:57.107731 23885 net.cpp:408] conv9_2_conv9_2_relu_0_split -> conv9_2_conv9_2_relu_0_split_0
I0608 22:27:57.107741 23885 net.cpp:408] conv9_2_conv9_2_relu_0_split -> conv9_2_conv9_2_relu_0_split_1
I0608 22:27:57.107750 23885 net.cpp:408] conv9_2_conv9_2_relu_0_split -> conv9_2_conv9_2_relu_0_split_2
I0608 22:27:57.107858 23885 net.cpp:150] Setting up conv9_2_conv9_2_relu_0_split
I0608 22:27:57.107872 23885 net.cpp:157] Top shape: 1 256 1 1 (256)
I0608 22:27:57.107879 23885 net.cpp:157] Top shape: 1 256 1 1 (256)
I0608 22:27:57.107885 23885 net.cpp:157] Top shape: 1 256 1 1 (256)
I0608 22:27:57.107890 23885 net.cpp:165] Memory required for data: 235280448
I0608 22:27:57.107895 23885 layer_factory.hpp:77] Creating layer conv4_3_norm
I0608 22:27:57.107908 23885 net.cpp:100] Creating Layer conv4_3_norm
I0608 22:27:57.107914 23885 net.cpp:434] conv4_3_norm <- conv4_3_relu4_3_0_split_1
I0608 22:27:57.107923 23885 net.cpp:408] conv4_3_norm -> conv4_3_norm
I0608 22:27:57.108232 23885 net.cpp:150] Setting up conv4_3_norm
I0608 22:27:57.108248 23885 net.cpp:157] Top shape: 1 512 38 38 (739328)
I0608 22:27:57.108253 23885 net.cpp:165] Memory required for data: 238237760
I0608 22:27:57.108261 23885 layer_factory.hpp:77] Creating layer conv4_3_norm_conv4_3_norm_0_split
I0608 22:27:57.108270 23885 net.cpp:100] Creating Layer conv4_3_norm_conv4_3_norm_0_split
I0608 22:27:57.108276 23885 net.cpp:434] conv4_3_norm_conv4_3_norm_0_split <- conv4_3_norm
I0608 22:27:57.108283 23885 net.cpp:408] conv4_3_norm_conv4_3_norm_0_split -> conv4_3_norm_conv4_3_norm_0_split_0
I0608 22:27:57.108296 23885 net.cpp:408] conv4_3_norm_conv4_3_norm_0_split -> conv4_3_norm_conv4_3_norm_0_split_1
I0608 22:27:57.108304 23885 net.cpp:408] conv4_3_norm_conv4_3_norm_0_split -> conv4_3_norm_conv4_3_norm_0_split_2
I0608 22:27:57.108394 23885 net.cpp:150] Setting up conv4_3_norm_conv4_3_norm_0_split
I0608 22:27:57.108407 23885 net.cpp:157] Top shape: 1 512 38 38 (739328)
I0608 22:27:57.108412 23885 net.cpp:157] Top shape: 1 512 38 38 (739328)
I0608 22:27:57.108418 23885 net.cpp:157] Top shape: 1 512 38 38 (739328)
I0608 22:27:57.108423 23885 net.cpp:165] Memory required for data: 247109696
I0608 22:27:57.108428 23885 layer_factory.hpp:77] Creating layer conv4_3_norm_mbox_loc
I0608 22:27:57.108443 23885 net.cpp:100] Creating Layer conv4_3_norm_mbox_loc
I0608 22:27:57.108449 23885 net.cpp:434] conv4_3_norm_mbox_loc <- conv4_3_norm_conv4_3_norm_0_split_0
I0608 22:27:57.108458 23885 net.cpp:408] conv4_3_norm_mbox_loc -> conv4_3_norm_mbox_loc
I0608 22:27:57.111676 23885 net.cpp:150] Setting up conv4_3_norm_mbox_loc
I0608 22:27:57.111709 23885 net.cpp:157] Top shape: 1 16 38 38 (23104)
I0608 22:27:57.111716 23885 net.cpp:165] Memory required for data: 247202112
I0608 22:27:57.111733 23885 layer_factory.hpp:77] Creating layer conv4_3_norm_mbox_loc_perm
I0608 22:27:57.111747 23885 net.cpp:100] Creating Layer conv4_3_norm_mbox_loc_perm
I0608 22:27:57.111753 23885 net.cpp:434] conv4_3_norm_mbox_loc_perm <- conv4_3_norm_mbox_loc
I0608 22:27:57.111764 23885 net.cpp:408] conv4_3_norm_mbox_loc_perm -> conv4_3_norm_mbox_loc_perm
I0608 22:27:57.112035 23885 net.cpp:150] Setting up conv4_3_norm_mbox_loc_perm
I0608 22:27:57.112051 23885 net.cpp:157] Top shape: 1 38 38 16 (23104)
I0608 22:27:57.112057 23885 net.cpp:165] Memory required for data: 247294528
I0608 22:27:57.112087 23885 layer_factory.hpp:77] Creating layer conv4_3_norm_mbox_loc_flat
I0608 22:27:57.112097 23885 net.cpp:100] Creating Layer conv4_3_norm_mbox_loc_flat
I0608 22:27:57.112103 23885 net.cpp:434] conv4_3_norm_mbox_loc_flat <- conv4_3_norm_mbox_loc_perm
I0608 22:27:57.112112 23885 net.cpp:408] conv4_3_norm_mbox_loc_flat -> conv4_3_norm_mbox_loc_flat
I0608 22:27:57.112175 23885 net.cpp:150] Setting up conv4_3_norm_mbox_loc_flat
I0608 22:27:57.112190 23885 net.cpp:157] Top shape: 1 23104 (23104)
I0608 22:27:57.112195 23885 net.cpp:165] Memory required for data: 247386944
I0608 22:27:57.112201 23885 layer_factory.hpp:77] Creating layer conv4_3_norm_mbox_conf
I0608 22:27:57.112231 23885 net.cpp:100] Creating Layer conv4_3_norm_mbox_conf
I0608 22:27:57.112242 23885 net.cpp:434] conv4_3_norm_mbox_conf <- conv4_3_norm_conv4_3_norm_0_split_1
I0608 22:27:57.112257 23885 net.cpp:408] conv4_3_norm_mbox_conf -> conv4_3_norm_mbox_conf
I0608 22:27:57.118672 23885 net.cpp:150] Setting up conv4_3_norm_mbox_conf
I0608 22:27:57.118702 23885 net.cpp:157] Top shape: 1 84 38 38 (121296)
I0608 22:27:57.118708 23885 net.cpp:165] Memory required for data: 247872128
I0608 22:27:57.118718 23885 layer_factory.hpp:77] Creating layer conv4_3_norm_mbox_conf_perm
I0608 22:27:57.118739 23885 net.cpp:100] Creating Layer conv4_3_norm_mbox_conf_perm
I0608 22:27:57.118747 23885 net.cpp:434] conv4_3_norm_mbox_conf_perm <- conv4_3_norm_mbox_conf
I0608 22:27:57.118757 23885 net.cpp:408] conv4_3_norm_mbox_conf_perm -> conv4_3_norm_mbox_conf_perm
I0608 22:27:57.119006 23885 net.cpp:150] Setting up conv4_3_norm_mbox_conf_perm
I0608 22:27:57.119022 23885 net.cpp:157] Top shape: 1 38 38 84 (121296)
I0608 22:27:57.119029 23885 net.cpp:165] Memory required for data: 248357312
I0608 22:27:57.119035 23885 layer_factory.hpp:77] Creating layer conv4_3_norm_mbox_conf_flat
I0608 22:27:57.119048 23885 net.cpp:100] Creating Layer conv4_3_norm_mbox_conf_flat
I0608 22:27:57.119055 23885 net.cpp:434] conv4_3_norm_mbox_conf_flat <- conv4_3_norm_mbox_conf_perm
I0608 22:27:57.119061 23885 net.cpp:408] conv4_3_norm_mbox_conf_flat -> conv4_3_norm_mbox_conf_flat
I0608 22:27:57.119102 23885 net.cpp:150] Setting up conv4_3_norm_mbox_conf_flat
I0608 22:27:57.119112 23885 net.cpp:157] Top shape: 1 121296 (121296)
I0608 22:27:57.119117 23885 net.cpp:165] Memory required for data: 248842496
I0608 22:27:57.119123 23885 layer_factory.hpp:77] Creating layer conv4_3_norm_mbox_priorbox
I0608 22:27:57.119135 23885 net.cpp:100] Creating Layer conv4_3_norm_mbox_priorbox
I0608 22:27:57.119141 23885 net.cpp:434] conv4_3_norm_mbox_priorbox <- conv4_3_norm_conv4_3_norm_0_split_2
I0608 22:27:57.119149 23885 net.cpp:434] conv4_3_norm_mbox_priorbox <- data_data_0_split_1
I0608 22:27:57.119156 23885 net.cpp:408] conv4_3_norm_mbox_priorbox -> conv4_3_norm_mbox_priorbox
I0608 22:27:57.119204 23885 net.cpp:150] Setting up conv4_3_norm_mbox_priorbox
I0608 22:27:57.119215 23885 net.cpp:157] Top shape: 1 2 23104 (46208)
I0608 22:27:57.119220 23885 net.cpp:165] Memory required for data: 249027328
I0608 22:27:57.119225 23885 layer_factory.hpp:77] Creating layer fc7_mbox_loc
I0608 22:27:57.119240 23885 net.cpp:100] Creating Layer fc7_mbox_loc
I0608 22:27:57.119251 23885 net.cpp:434] fc7_mbox_loc <- fc7_relu7_0_split_1
I0608 22:27:57.119259 23885 net.cpp:408] fc7_mbox_loc -> fc7_mbox_loc
I0608 22:27:57.123879 23885 net.cpp:150] Setting up fc7_mbox_loc
I0608 22:27:57.123908 23885 net.cpp:157] Top shape: 1 24 19 19 (8664)
I0608 22:27:57.123915 23885 net.cpp:165] Memory required for data: 249061984
I0608 22:27:57.123934 23885 layer_factory.hpp:77] Creating layer fc7_mbox_loc_perm
I0608 22:27:57.123945 23885 net.cpp:100] Creating Layer fc7_mbox_loc_perm
I0608 22:27:57.123953 23885 net.cpp:434] fc7_mbox_loc_perm <- fc7_mbox_loc
I0608 22:27:57.123965 23885 net.cpp:408] fc7_mbox_loc_perm -> fc7_mbox_loc_perm
I0608 22:27:57.124227 23885 net.cpp:150] Setting up fc7_mbox_loc_perm
I0608 22:27:57.124239 23885 net.cpp:157] Top shape: 1 19 19 24 (8664)
I0608 22:27:57.124244 23885 net.cpp:165] Memory required for data: 249096640
I0608 22:27:57.124275 23885 layer_factory.hpp:77] Creating layer fc7_mbox_loc_flat
I0608 22:27:57.124284 23885 net.cpp:100] Creating Layer fc7_mbox_loc_flat
I0608 22:27:57.124290 23885 net.cpp:434] fc7_mbox_loc_flat <- fc7_mbox_loc_perm
I0608 22:27:57.124299 23885 net.cpp:408] fc7_mbox_loc_flat -> fc7_mbox_loc_flat
I0608 22:27:57.124347 23885 net.cpp:150] Setting up fc7_mbox_loc_flat
I0608 22:27:57.124361 23885 net.cpp:157] Top shape: 1 8664 (8664)
I0608 22:27:57.124366 23885 net.cpp:165] Memory required for data: 249131296
I0608 22:27:57.124372 23885 layer_factory.hpp:77] Creating layer fc7_mbox_conf
I0608 22:27:57.124385 23885 net.cpp:100] Creating Layer fc7_mbox_conf
I0608 22:27:57.124395 23885 net.cpp:434] fc7_mbox_conf <- fc7_relu7_0_split_2
I0608 22:27:57.124408 23885 net.cpp:408] fc7_mbox_conf -> fc7_mbox_conf
I0608 22:27:57.138790 23885 net.cpp:150] Setting up fc7_mbox_conf
I0608 22:27:57.138829 23885 net.cpp:157] Top shape: 1 126 19 19 (45486)
I0608 22:27:57.138835 23885 net.cpp:165] Memory required for data: 249313240
I0608 22:27:57.138854 23885 layer_factory.hpp:77] Creating layer fc7_mbox_conf_perm
I0608 22:27:57.138869 23885 net.cpp:100] Creating Layer fc7_mbox_conf_perm
I0608 22:27:57.138877 23885 net.cpp:434] fc7_mbox_conf_perm <- fc7_mbox_conf
I0608 22:27:57.138890 23885 net.cpp:408] fc7_mbox_conf_perm -> fc7_mbox_conf_perm
I0608 22:27:57.139139 23885 net.cpp:150] Setting up fc7_mbox_conf_perm
I0608 22:27:57.139155 23885 net.cpp:157] Top shape: 1 19 19 126 (45486)
I0608 22:27:57.139161 23885 net.cpp:165] Memory required for data: 249495184
I0608 22:27:57.139166 23885 layer_factory.hpp:77] Creating layer fc7_mbox_conf_flat
I0608 22:27:57.139183 23885 net.cpp:100] Creating Layer fc7_mbox_conf_flat
I0608 22:27:57.139189 23885 net.cpp:434] fc7_mbox_conf_flat <- fc7_mbox_conf_perm
I0608 22:27:57.139195 23885 net.cpp:408] fc7_mbox_conf_flat -> fc7_mbox_conf_flat
I0608 22:27:57.139236 23885 net.cpp:150] Setting up fc7_mbox_conf_flat
I0608 22:27:57.139247 23885 net.cpp:157] Top shape: 1 45486 (45486)
I0608 22:27:57.139252 23885 net.cpp:165] Memory required for data: 249677128
I0608 22:27:57.139258 23885 layer_factory.hpp:77] Creating layer fc7_mbox_priorbox
I0608 22:27:57.139267 23885 net.cpp:100] Creating Layer fc7_mbox_priorbox
I0608 22:27:57.139273 23885 net.cpp:434] fc7_mbox_priorbox <- fc7_relu7_0_split_3
I0608 22:27:57.139283 23885 net.cpp:434] fc7_mbox_priorbox <- data_data_0_split_2
I0608 22:27:57.139292 23885 net.cpp:408] fc7_mbox_priorbox -> fc7_mbox_priorbox
I0608 22:27:57.139335 23885 net.cpp:150] Setting up fc7_mbox_priorbox
I0608 22:27:57.139346 23885 net.cpp:157] Top shape: 1 2 8664 (17328)
I0608 22:27:57.139351 23885 net.cpp:165] Memory required for data: 249746440
I0608 22:27:57.139356 23885 layer_factory.hpp:77] Creating layer conv6_2_mbox_loc
I0608 22:27:57.139371 23885 net.cpp:100] Creating Layer conv6_2_mbox_loc
I0608 22:27:57.139384 23885 net.cpp:434] conv6_2_mbox_loc <- conv6_2_conv6_2_relu_0_split_1
I0608 22:27:57.139394 23885 net.cpp:408] conv6_2_mbox_loc -> conv6_2_mbox_loc
I0608 22:27:57.143165 23885 net.cpp:150] Setting up conv6_2_mbox_loc
I0608 22:27:57.143190 23885 net.cpp:157] Top shape: 1 24 10 10 (2400)
I0608 22:27:57.143196 23885 net.cpp:165] Memory required for data: 249756040
I0608 22:27:57.143209 23885 layer_factory.hpp:77] Creating layer conv6_2_mbox_loc_perm
I0608 22:27:57.143235 23885 net.cpp:100] Creating Layer conv6_2_mbox_loc_perm
I0608 22:27:57.143244 23885 net.cpp:434] conv6_2_mbox_loc_perm <- conv6_2_mbox_loc
I0608 22:27:57.143252 23885 net.cpp:408] conv6_2_mbox_loc_perm -> conv6_2_mbox_loc_perm
I0608 22:27:57.143524 23885 net.cpp:150] Setting up conv6_2_mbox_loc_perm
I0608 22:27:57.143537 23885 net.cpp:157] Top shape: 1 10 10 24 (2400)
I0608 22:27:57.143543 23885 net.cpp:165] Memory required for data: 249765640
I0608 22:27:57.143549 23885 layer_factory.hpp:77] Creating layer conv6_2_mbox_loc_flat
I0608 22:27:57.143563 23885 net.cpp:100] Creating Layer conv6_2_mbox_loc_flat
I0608 22:27:57.143569 23885 net.cpp:434] conv6_2_mbox_loc_flat <- conv6_2_mbox_loc_perm
I0608 22:27:57.143607 23885 net.cpp:408] conv6_2_mbox_loc_flat -> conv6_2_mbox_loc_flat
I0608 22:27:57.143662 23885 net.cpp:150] Setting up conv6_2_mbox_loc_flat
I0608 22:27:57.143674 23885 net.cpp:157] Top shape: 1 2400 (2400)
I0608 22:27:57.143681 23885 net.cpp:165] Memory required for data: 249775240
I0608 22:27:57.143687 23885 layer_factory.hpp:77] Creating layer conv6_2_mbox_conf
I0608 22:27:57.143704 23885 net.cpp:100] Creating Layer conv6_2_mbox_conf
I0608 22:27:57.143714 23885 net.cpp:434] conv6_2_mbox_conf <- conv6_2_conv6_2_relu_0_split_2
I0608 22:27:57.143724 23885 net.cpp:408] conv6_2_mbox_conf -> conv6_2_mbox_conf
I0608 22:27:57.152114 23885 net.cpp:150] Setting up conv6_2_mbox_conf
I0608 22:27:57.152153 23885 net.cpp:157] Top shape: 1 126 10 10 (12600)
I0608 22:27:57.152161 23885 net.cpp:165] Memory required for data: 249825640
I0608 22:27:57.152178 23885 layer_factory.hpp:77] Creating layer conv6_2_mbox_conf_perm
I0608 22:27:57.152194 23885 net.cpp:100] Creating Layer conv6_2_mbox_conf_perm
I0608 22:27:57.152204 23885 net.cpp:434] conv6_2_mbox_conf_perm <- conv6_2_mbox_conf
I0608 22:27:57.152216 23885 net.cpp:408] conv6_2_mbox_conf_perm -> conv6_2_mbox_conf_perm
I0608 22:27:57.152498 23885 net.cpp:150] Setting up conv6_2_mbox_conf_perm
I0608 22:27:57.152514 23885 net.cpp:157] Top shape: 1 10 10 126 (12600)
I0608 22:27:57.152521 23885 net.cpp:165] Memory required for data: 249876040
I0608 22:27:57.152526 23885 layer_factory.hpp:77] Creating layer conv6_2_mbox_conf_flat
I0608 22:27:57.152536 23885 net.cpp:100] Creating Layer conv6_2_mbox_conf_flat
I0608 22:27:57.152544 23885 net.cpp:434] conv6_2_mbox_conf_flat <- conv6_2_mbox_conf_perm
I0608 22:27:57.152550 23885 net.cpp:408] conv6_2_mbox_conf_flat -> conv6_2_mbox_conf_flat
I0608 22:27:57.152598 23885 net.cpp:150] Setting up conv6_2_mbox_conf_flat
I0608 22:27:57.152611 23885 net.cpp:157] Top shape: 1 12600 (12600)
I0608 22:27:57.152616 23885 net.cpp:165] Memory required for data: 249926440
I0608 22:27:57.152622 23885 layer_factory.hpp:77] Creating layer conv6_2_mbox_priorbox
I0608 22:27:57.152636 23885 net.cpp:100] Creating Layer conv6_2_mbox_priorbox
I0608 22:27:57.152647 23885 net.cpp:434] conv6_2_mbox_priorbox <- conv6_2_conv6_2_relu_0_split_3
I0608 22:27:57.152655 23885 net.cpp:434] conv6_2_mbox_priorbox <- data_data_0_split_3
I0608 22:27:57.152664 23885 net.cpp:408] conv6_2_mbox_priorbox -> conv6_2_mbox_priorbox
I0608 22:27:57.152715 23885 net.cpp:150] Setting up conv6_2_mbox_priorbox
I0608 22:27:57.152726 23885 net.cpp:157] Top shape: 1 2 2400 (4800)
I0608 22:27:57.152732 23885 net.cpp:165] Memory required for data: 249945640
I0608 22:27:57.152737 23885 layer_factory.hpp:77] Creating layer conv7_2_mbox_loc
I0608 22:27:57.152755 23885 net.cpp:100] Creating Layer conv7_2_mbox_loc
I0608 22:27:57.152761 23885 net.cpp:434] conv7_2_mbox_loc <- conv7_2_conv7_2_relu_0_split_1
I0608 22:27:57.152772 23885 net.cpp:408] conv7_2_mbox_loc -> conv7_2_mbox_loc
I0608 22:27:57.155833 23885 net.cpp:150] Setting up conv7_2_mbox_loc
I0608 22:27:57.155866 23885 net.cpp:157] Top shape: 1 24 5 5 (600)
I0608 22:27:57.155872 23885 net.cpp:165] Memory required for data: 249948040
I0608 22:27:57.155884 23885 layer_factory.hpp:77] Creating layer conv7_2_mbox_loc_perm
I0608 22:27:57.155894 23885 net.cpp:100] Creating Layer conv7_2_mbox_loc_perm
I0608 22:27:57.155901 23885 net.cpp:434] conv7_2_mbox_loc_perm <- conv7_2_mbox_loc
I0608 22:27:57.155917 23885 net.cpp:408] conv7_2_mbox_loc_perm -> conv7_2_mbox_loc_perm
I0608 22:27:57.156191 23885 net.cpp:150] Setting up conv7_2_mbox_loc_perm
I0608 22:27:57.156203 23885 net.cpp:157] Top shape: 1 5 5 24 (600)
I0608 22:27:57.156209 23885 net.cpp:165] Memory required for data: 249950440
I0608 22:27:57.156215 23885 layer_factory.hpp:77] Creating layer conv7_2_mbox_loc_flat
I0608 22:27:57.156226 23885 net.cpp:100] Creating Layer conv7_2_mbox_loc_flat
I0608 22:27:57.156232 23885 net.cpp:434] conv7_2_mbox_loc_flat <- conv7_2_mbox_loc_perm
I0608 22:27:57.156247 23885 net.cpp:408] conv7_2_mbox_loc_flat -> conv7_2_mbox_loc_flat
I0608 22:27:57.156322 23885 net.cpp:150] Setting up conv7_2_mbox_loc_flat
I0608 22:27:57.156332 23885 net.cpp:157] Top shape: 1 600 (600)
I0608 22:27:57.156337 23885 net.cpp:165] Memory required for data: 249952840
I0608 22:27:57.156343 23885 layer_factory.hpp:77] Creating layer conv7_2_mbox_conf
I0608 22:27:57.156361 23885 net.cpp:100] Creating Layer conv7_2_mbox_conf
I0608 22:27:57.156368 23885 net.cpp:434] conv7_2_mbox_conf <- conv7_2_conv7_2_relu_0_split_2
I0608 22:27:57.156378 23885 net.cpp:408] conv7_2_mbox_conf -> conv7_2_mbox_conf
I0608 22:27:57.161818 23885 net.cpp:150] Setting up conv7_2_mbox_conf
I0608 22:27:57.161861 23885 net.cpp:157] Top shape: 1 126 5 5 (3150)
I0608 22:27:57.161869 23885 net.cpp:165] Memory required for data: 249965440
I0608 22:27:57.161880 23885 layer_factory.hpp:77] Creating layer conv7_2_mbox_conf_perm
I0608 22:27:57.161895 23885 net.cpp:100] Creating Layer conv7_2_mbox_conf_perm
I0608 22:27:57.161903 23885 net.cpp:434] conv7_2_mbox_conf_perm <- conv7_2_mbox_conf
I0608 22:27:57.161914 23885 net.cpp:408] conv7_2_mbox_conf_perm -> conv7_2_mbox_conf_perm
I0608 22:27:57.162189 23885 net.cpp:150] Setting up conv7_2_mbox_conf_perm
I0608 22:27:57.162202 23885 net.cpp:157] Top shape: 1 5 5 126 (3150)
I0608 22:27:57.162209 23885 net.cpp:165] Memory required for data: 249978040
I0608 22:27:57.162214 23885 layer_factory.hpp:77] Creating layer conv7_2_mbox_conf_flat
I0608 22:27:57.162223 23885 net.cpp:100] Creating Layer conv7_2_mbox_conf_flat
I0608 22:27:57.162230 23885 net.cpp:434] conv7_2_mbox_conf_flat <- conv7_2_mbox_conf_perm
I0608 22:27:57.162237 23885 net.cpp:408] conv7_2_mbox_conf_flat -> conv7_2_mbox_conf_flat
I0608 22:27:57.162286 23885 net.cpp:150] Setting up conv7_2_mbox_conf_flat
I0608 22:27:57.162312 23885 net.cpp:157] Top shape: 1 3150 (3150)
I0608 22:27:57.162317 23885 net.cpp:165] Memory required for data: 249990640
I0608 22:27:57.162322 23885 layer_factory.hpp:77] Creating layer conv7_2_mbox_priorbox
I0608 22:27:57.162335 23885 net.cpp:100] Creating Layer conv7_2_mbox_priorbox
I0608 22:27:57.162343 23885 net.cpp:434] conv7_2_mbox_priorbox <- conv7_2_conv7_2_relu_0_split_3
I0608 22:27:57.162350 23885 net.cpp:434] conv7_2_mbox_priorbox <- data_data_0_split_4
I0608 22:27:57.162359 23885 net.cpp:408] conv7_2_mbox_priorbox -> conv7_2_mbox_priorbox
I0608 22:27:57.162411 23885 net.cpp:150] Setting up conv7_2_mbox_priorbox
I0608 22:27:57.162425 23885 net.cpp:157] Top shape: 1 2 600 (1200)
I0608 22:27:57.162432 23885 net.cpp:165] Memory required for data: 249995440
I0608 22:27:57.162438 23885 layer_factory.hpp:77] Creating layer conv8_2_mbox_loc
I0608 22:27:57.162454 23885 net.cpp:100] Creating Layer conv8_2_mbox_loc
I0608 22:27:57.162462 23885 net.cpp:434] conv8_2_mbox_loc <- conv8_2_conv8_2_relu_0_split_1
I0608 22:27:57.162473 23885 net.cpp:408] conv8_2_mbox_loc -> conv8_2_mbox_loc
I0608 22:27:57.165160 23885 net.cpp:150] Setting up conv8_2_mbox_loc
I0608 22:27:57.165186 23885 net.cpp:157] Top shape: 1 16 3 3 (144)
I0608 22:27:57.165191 23885 net.cpp:165] Memory required for data: 249996016
I0608 22:27:57.165221 23885 layer_factory.hpp:77] Creating layer conv8_2_mbox_loc_perm
I0608 22:27:57.165241 23885 net.cpp:100] Creating Layer conv8_2_mbox_loc_perm
I0608 22:27:57.165247 23885 net.cpp:434] conv8_2_mbox_loc_perm <- conv8_2_mbox_loc
I0608 22:27:57.165256 23885 net.cpp:408] conv8_2_mbox_loc_perm -> conv8_2_mbox_loc_perm
I0608 22:27:57.165515 23885 net.cpp:150] Setting up conv8_2_mbox_loc_perm
I0608 22:27:57.165535 23885 net.cpp:157] Top shape: 1 3 3 16 (144)
I0608 22:27:57.165541 23885 net.cpp:165] Memory required for data: 249996592
I0608 22:27:57.165547 23885 layer_factory.hpp:77] Creating layer conv8_2_mbox_loc_flat
I0608 22:27:57.165556 23885 net.cpp:100] Creating Layer conv8_2_mbox_loc_flat
I0608 22:27:57.165563 23885 net.cpp:434] conv8_2_mbox_loc_flat <- conv8_2_mbox_loc_perm
I0608 22:27:57.165572 23885 net.cpp:408] conv8_2_mbox_loc_flat -> conv8_2_mbox_loc_flat
I0608 22:27:57.165619 23885 net.cpp:150] Setting up conv8_2_mbox_loc_flat
I0608 22:27:57.165628 23885 net.cpp:157] Top shape: 1 144 (144)
I0608 22:27:57.165655 23885 net.cpp:165] Memory required for data: 249997168
I0608 22:27:57.165662 23885 layer_factory.hpp:77] Creating layer conv8_2_mbox_conf
I0608 22:27:57.165683 23885 net.cpp:100] Creating Layer conv8_2_mbox_conf
I0608 22:27:57.165691 23885 net.cpp:434] conv8_2_mbox_conf <- conv8_2_conv8_2_relu_0_split_2
I0608 22:27:57.165701 23885 net.cpp:408] conv8_2_mbox_conf -> conv8_2_mbox_conf
I0608 22:27:57.170203 23885 net.cpp:150] Setting up conv8_2_mbox_conf
I0608 22:27:57.170229 23885 net.cpp:157] Top shape: 1 84 3 3 (756)
I0608 22:27:57.170234 23885 net.cpp:165] Memory required for data: 250000192
I0608 22:27:57.170245 23885 layer_factory.hpp:77] Creating layer conv8_2_mbox_conf_perm
I0608 22:27:57.170256 23885 net.cpp:100] Creating Layer conv8_2_mbox_conf_perm
I0608 22:27:57.170262 23885 net.cpp:434] conv8_2_mbox_conf_perm <- conv8_2_mbox_conf
I0608 22:27:57.170277 23885 net.cpp:408] conv8_2_mbox_conf_perm -> conv8_2_mbox_conf_perm
I0608 22:27:57.170511 23885 net.cpp:150] Setting up conv8_2_mbox_conf_perm
I0608 22:27:57.170524 23885 net.cpp:157] Top shape: 1 3 3 84 (756)
I0608 22:27:57.170531 23885 net.cpp:165] Memory required for data: 250003216
I0608 22:27:57.170536 23885 layer_factory.hpp:77] Creating layer conv8_2_mbox_conf_flat
I0608 22:27:57.170542 23885 net.cpp:100] Creating Layer conv8_2_mbox_conf_flat
I0608 22:27:57.170548 23885 net.cpp:434] conv8_2_mbox_conf_flat <- conv8_2_mbox_conf_perm
I0608 22:27:57.170555 23885 net.cpp:408] conv8_2_mbox_conf_flat -> conv8_2_mbox_conf_flat
I0608 22:27:57.170604 23885 net.cpp:150] Setting up conv8_2_mbox_conf_flat
I0608 22:27:57.170613 23885 net.cpp:157] Top shape: 1 756 (756)
I0608 22:27:57.170619 23885 net.cpp:165] Memory required for data: 250006240
I0608 22:27:57.170624 23885 layer_factory.hpp:77] Creating layer conv8_2_mbox_priorbox
I0608 22:27:57.170634 23885 net.cpp:100] Creating Layer conv8_2_mbox_priorbox
I0608 22:27:57.170640 23885 net.cpp:434] conv8_2_mbox_priorbox <- conv8_2_conv8_2_relu_0_split_3
I0608 22:27:57.170647 23885 net.cpp:434] conv8_2_mbox_priorbox <- data_data_0_split_5
I0608 22:27:57.170655 23885 net.cpp:408] conv8_2_mbox_priorbox -> conv8_2_mbox_priorbox
I0608 22:27:57.170698 23885 net.cpp:150] Setting up conv8_2_mbox_priorbox
I0608 22:27:57.170711 23885 net.cpp:157] Top shape: 1 2 144 (288)
I0608 22:27:57.170716 23885 net.cpp:165] Memory required for data: 250007392
I0608 22:27:57.170720 23885 layer_factory.hpp:77] Creating layer conv9_2_mbox_loc
I0608 22:27:57.170733 23885 net.cpp:100] Creating Layer conv9_2_mbox_loc
I0608 22:27:57.170740 23885 net.cpp:434] conv9_2_mbox_loc <- conv9_2_conv9_2_relu_0_split_0
I0608 22:27:57.170753 23885 net.cpp:408] conv9_2_mbox_loc -> conv9_2_mbox_loc
I0608 22:27:57.173622 23885 net.cpp:150] Setting up conv9_2_mbox_loc
I0608 22:27:57.173648 23885 net.cpp:157] Top shape: 1 16 1 1 (16)
I0608 22:27:57.173653 23885 net.cpp:165] Memory required for data: 250007456
I0608 22:27:57.173666 23885 layer_factory.hpp:77] Creating layer conv9_2_mbox_loc_perm
I0608 22:27:57.173676 23885 net.cpp:100] Creating Layer conv9_2_mbox_loc_perm
I0608 22:27:57.173683 23885 net.cpp:434] conv9_2_mbox_loc_perm <- conv9_2_mbox_loc
I0608 22:27:57.173696 23885 net.cpp:408] conv9_2_mbox_loc_perm -> conv9_2_mbox_loc_perm
I0608 22:27:57.173933 23885 net.cpp:150] Setting up conv9_2_mbox_loc_perm
I0608 22:27:57.173945 23885 net.cpp:157] Top shape: 1 1 1 16 (16)
I0608 22:27:57.173951 23885 net.cpp:165] Memory required for data: 250007520
I0608 22:27:57.173955 23885 layer_factory.hpp:77] Creating layer conv9_2_mbox_loc_flat
I0608 22:27:57.173964 23885 net.cpp:100] Creating Layer conv9_2_mbox_loc_flat
I0608 22:27:57.173969 23885 net.cpp:434] conv9_2_mbox_loc_flat <- conv9_2_mbox_loc_perm
I0608 22:27:57.173975 23885 net.cpp:408] conv9_2_mbox_loc_flat -> conv9_2_mbox_loc_flat
I0608 22:27:57.174023 23885 net.cpp:150] Setting up conv9_2_mbox_loc_flat
I0608 22:27:57.174031 23885 net.cpp:157] Top shape: 1 16 (16)
I0608 22:27:57.174036 23885 net.cpp:165] Memory required for data: 250007584
I0608 22:27:57.174058 23885 layer_factory.hpp:77] Creating layer conv9_2_mbox_conf
I0608 22:27:57.174072 23885 net.cpp:100] Creating Layer conv9_2_mbox_conf
I0608 22:27:57.174078 23885 net.cpp:434] conv9_2_mbox_conf <- conv9_2_conv9_2_relu_0_split_1
I0608 22:27:57.174088 23885 net.cpp:408] conv9_2_mbox_conf -> conv9_2_mbox_conf
I0608 22:27:57.178488 23885 net.cpp:150] Setting up conv9_2_mbox_conf
I0608 22:27:57.178515 23885 net.cpp:157] Top shape: 1 84 1 1 (84)
I0608 22:27:57.178521 23885 net.cpp:165] Memory required for data: 250007920
I0608 22:27:57.178531 23885 layer_factory.hpp:77] Creating layer conv9_2_mbox_conf_perm
I0608 22:27:57.178541 23885 net.cpp:100] Creating Layer conv9_2_mbox_conf_perm
I0608 22:27:57.178547 23885 net.cpp:434] conv9_2_mbox_conf_perm <- conv9_2_mbox_conf
I0608 22:27:57.178560 23885 net.cpp:408] conv9_2_mbox_conf_perm -> conv9_2_mbox_conf_perm
I0608 22:27:57.178850 23885 net.cpp:150] Setting up conv9_2_mbox_conf_perm
I0608 22:27:57.178864 23885 net.cpp:157] Top shape: 1 1 1 84 (84)
I0608 22:27:57.178870 23885 net.cpp:165] Memory required for data: 250008256
I0608 22:27:57.178876 23885 layer_factory.hpp:77] Creating layer conv9_2_mbox_conf_flat
I0608 22:27:57.178887 23885 net.cpp:100] Creating Layer conv9_2_mbox_conf_flat
I0608 22:27:57.178899 23885 net.cpp:434] conv9_2_mbox_conf_flat <- conv9_2_mbox_conf_perm
I0608 22:27:57.178906 23885 net.cpp:408] conv9_2_mbox_conf_flat -> conv9_2_mbox_conf_flat
I0608 22:27:57.178956 23885 net.cpp:150] Setting up conv9_2_mbox_conf_flat
I0608 22:27:57.178980 23885 net.cpp:157] Top shape: 1 84 (84)
I0608 22:27:57.178987 23885 net.cpp:165] Memory required for data: 250008592
I0608 22:27:57.178992 23885 layer_factory.hpp:77] Creating layer conv9_2_mbox_priorbox
I0608 22:27:57.179002 23885 net.cpp:100] Creating Layer conv9_2_mbox_priorbox
I0608 22:27:57.179008 23885 net.cpp:434] conv9_2_mbox_priorbox <- conv9_2_conv9_2_relu_0_split_2
I0608 22:27:57.179014 23885 net.cpp:434] conv9_2_mbox_priorbox <- data_data_0_split_6
I0608 22:27:57.179026 23885 net.cpp:408] conv9_2_mbox_priorbox -> conv9_2_mbox_priorbox
I0608 22:27:57.179080 23885 net.cpp:150] Setting up conv9_2_mbox_priorbox
I0608 22:27:57.179092 23885 net.cpp:157] Top shape: 1 2 16 (32)
I0608 22:27:57.179100 23885 net.cpp:165] Memory required for data: 250008720
I0608 22:27:57.179106 23885 layer_factory.hpp:77] Creating layer mbox_loc
I0608 22:27:57.179116 23885 net.cpp:100] Creating Layer mbox_loc
I0608 22:27:57.179124 23885 net.cpp:434] mbox_loc <- conv4_3_norm_mbox_loc_flat
I0608 22:27:57.179133 23885 net.cpp:434] mbox_loc <- fc7_mbox_loc_flat
I0608 22:27:57.179142 23885 net.cpp:434] mbox_loc <- conv6_2_mbox_loc_flat
I0608 22:27:57.179150 23885 net.cpp:434] mbox_loc <- conv7_2_mbox_loc_flat
I0608 22:27:57.179157 23885 net.cpp:434] mbox_loc <- conv8_2_mbox_loc_flat
I0608 22:27:57.179164 23885 net.cpp:434] mbox_loc <- conv9_2_mbox_loc_flat
I0608 22:27:57.179175 23885 net.cpp:408] mbox_loc -> mbox_loc
I0608 22:27:57.179229 23885 net.cpp:150] Setting up mbox_loc
I0608 22:27:57.179241 23885 net.cpp:157] Top shape: 1 34928 (34928)
I0608 22:27:57.179247 23885 net.cpp:165] Memory required for data: 250148432
I0608 22:27:57.179253 23885 layer_factory.hpp:77] Creating layer mbox_conf
I0608 22:27:57.179262 23885 net.cpp:100] Creating Layer mbox_conf
I0608 22:27:57.179270 23885 net.cpp:434] mbox_conf <- conv4_3_norm_mbox_conf_flat
I0608 22:27:57.179276 23885 net.cpp:434] mbox_conf <- fc7_mbox_conf_flat
I0608 22:27:57.179285 23885 net.cpp:434] mbox_conf <- conv6_2_mbox_conf_flat
I0608 22:27:57.179292 23885 net.cpp:434] mbox_conf <- conv7_2_mbox_conf_flat
I0608 22:27:57.179299 23885 net.cpp:434] mbox_conf <- conv8_2_mbox_conf_flat
I0608 22:27:57.179306 23885 net.cpp:434] mbox_conf <- conv9_2_mbox_conf_flat
I0608 22:27:57.179314 23885 net.cpp:408] mbox_conf -> mbox_conf
I0608 22:27:57.179368 23885 net.cpp:150] Setting up mbox_conf
I0608 22:27:57.179379 23885 net.cpp:157] Top shape: 1 183372 (183372)
I0608 22:27:57.179384 23885 net.cpp:165] Memory required for data: 250881920
I0608 22:27:57.179388 23885 layer_factory.hpp:77] Creating layer mbox_priorbox
I0608 22:27:57.179414 23885 net.cpp:100] Creating Layer mbox_priorbox
I0608 22:27:57.179420 23885 net.cpp:434] mbox_priorbox <- conv4_3_norm_mbox_priorbox
I0608 22:27:57.179426 23885 net.cpp:434] mbox_priorbox <- fc7_mbox_priorbox
I0608 22:27:57.179432 23885 net.cpp:434] mbox_priorbox <- conv6_2_mbox_priorbox
I0608 22:27:57.179438 23885 net.cpp:434] mbox_priorbox <- conv7_2_mbox_priorbox
I0608 22:27:57.179446 23885 net.cpp:434] mbox_priorbox <- conv8_2_mbox_priorbox
I0608 22:27:57.179452 23885 net.cpp:434] mbox_priorbox <- conv9_2_mbox_priorbox
I0608 22:27:57.179458 23885 net.cpp:408] mbox_priorbox -> mbox_priorbox
I0608 22:27:57.179505 23885 net.cpp:150] Setting up mbox_priorbox
I0608 22:27:57.179517 23885 net.cpp:157] Top shape: 1 2 34928 (69856)
I0608 22:27:57.179522 23885 net.cpp:165] Memory required for data: 251161344
I0608 22:27:57.179528 23885 layer_factory.hpp:77] Creating layer mbox_conf_reshape
I0608 22:27:57.179543 23885 net.cpp:100] Creating Layer mbox_conf_reshape
I0608 22:27:57.179548 23885 net.cpp:434] mbox_conf_reshape <- mbox_conf
I0608 22:27:57.179558 23885 net.cpp:408] mbox_conf_reshape -> mbox_conf_reshape
I0608 22:27:57.179613 23885 net.cpp:150] Setting up mbox_conf_reshape
I0608 22:27:57.179625 23885 net.cpp:157] Top shape: 1 8732 21 (183372)
I0608 22:27:57.179630 23885 net.cpp:165] Memory required for data: 251894832
I0608 22:27:57.179636 23885 layer_factory.hpp:77] Creating layer mbox_conf_softmax
I0608 22:27:57.179647 23885 net.cpp:100] Creating Layer mbox_conf_softmax
I0608 22:27:57.179652 23885 net.cpp:434] mbox_conf_softmax <- mbox_conf_reshape
I0608 22:27:57.179662 23885 net.cpp:408] mbox_conf_softmax -> mbox_conf_softmax
I0608 22:27:57.180105 23885 net.cpp:150] Setting up mbox_conf_softmax
I0608 22:27:57.180130 23885 net.cpp:157] Top shape: 1 8732 21 (183372)
I0608 22:27:57.180135 23885 net.cpp:165] Memory required for data: 252628320
I0608 22:27:57.180140 23885 layer_factory.hpp:77] Creating layer mbox_conf_flatten
I0608 22:27:57.180150 23885 net.cpp:100] Creating Layer mbox_conf_flatten
I0608 22:27:57.180155 23885 net.cpp:434] mbox_conf_flatten <- mbox_conf_softmax
I0608 22:27:57.180162 23885 net.cpp:408] mbox_conf_flatten -> mbox_conf_flatten
I0608 22:27:57.180225 23885 net.cpp:150] Setting up mbox_conf_flatten
I0608 22:27:57.180239 23885 net.cpp:157] Top shape: 1 183372 (183372)
I0608 22:27:57.180245 23885 net.cpp:165] Memory required for data: 253361808
I0608 22:27:57.180251 23885 layer_factory.hpp:77] Creating layer detection_out
I0608 22:27:57.180279 23885 net.cpp:100] Creating Layer detection_out
I0608 22:27:57.180289 23885 net.cpp:434] detection_out <- mbox_loc
I0608 22:27:57.180296 23885 net.cpp:434] detection_out <- mbox_conf_flatten
I0608 22:27:57.180305 23885 net.cpp:434] detection_out <- mbox_priorbox
I0608 22:27:57.180316 23885 net.cpp:408] detection_out -> detection_out
I0608 22:27:57.184188 23885 net.cpp:150] Setting up detection_out
I0608 22:27:57.184212 23885 net.cpp:157] Top shape: 1 1 1 7 (7)
I0608 22:27:57.184219 23885 net.cpp:165] Memory required for data: 253361836
I0608 22:27:57.184226 23885 layer_factory.hpp:77] Creating layer detection_eval
I0608 22:27:57.184239 23885 net.cpp:100] Creating Layer detection_eval
I0608 22:27:57.184247 23885 net.cpp:434] detection_eval <- detection_out
I0608 22:27:57.184262 23885 net.cpp:434] detection_eval <- label
I0608 22:27:57.184269 23885 net.cpp:408] detection_eval -> detection_eval
I0608 22:27:57.186096 23885 net.cpp:150] Setting up detection_eval
I0608 22:27:57.186115 23885 net.cpp:157] Top shape: 1 1 21 5 (105)
I0608 22:27:57.186122 23885 net.cpp:165] Memory required for data: 253362256
I0608 22:27:57.186137 23885 net.cpp:228] detection_eval does not need backward computation.
I0608 22:27:57.186156 23885 net.cpp:228] detection_out does not need backward computation.
I0608 22:27:57.186162 23885 net.cpp:228] mbox_conf_flatten does not need backward computation.
I0608 22:27:57.186168 23885 net.cpp:228] mbox_conf_softmax does not need backward computation.
…
